alternative_rnn_optimizer/training_GRU_2layer_keepmemory/meta_optimizer_last.pth (torch_old, 901 bytes, 3 tensors)

linear1.weight f4 [10, 2]
-0.18439455 0.05688012 -0.2953096 0.15359496 -0.31844893 -0.26999736 -0.17478946 -0.6111711
0.44875845 0.46427387 -0.3815126 -0.53720176 -0.12026808 -1.1266744 -0.44612244 0.30219233
0.22292775 0.023670021 0.6846438 0.7170843
00000000: edd1 3cbe 21fb 683d d232 97be ff47 1d3e
00000010: bd0b a3be 183d 8abe 02fc 32be b675 1cbf
00000020: abc3 e53e 4eb5 ed3e 9f55 c3be 0e86 09bf
00000030: 1c4f f6bd de36 90bf 296a e4be f4b8 9a3e
00000040: 2c47 643e a2e7 c13c d144 2f3f d692 373f

linear1.bias f4 [10]
-0.11302648 0.58638734 0.5494275 -0.9666532 0.19514672 -1.7893023 0.1623793 -0.32149345
-0.91409945 0.67272586
00000000: 6d7a e7bd 7b1d 163f 48a7 0c3f 9676 77bf
00000010: 8bd4 473e dc07 e5bf c246 263e ca9a a4be
00000020: 6c02 6abf c337 2c3f

linear2.weight f4 [1, 10]
0.12394307 -1.6269943 0.3141489 0.09247725 0.5554416 -0.4677088 -0.41386813 0.45959598
0.5802213 0.5889643
00000000: ddd5 fd3d 5941 d0bf 20d8 a03e b664 bd3d
00000010: 6c31 0e3f 8777 efbe 86e6 d3be 2a50 eb3e
00000020: 6289 143f 5dc6 163f
