alternative_rnn_optimizer/training_GRU_2layer_keepmemory/meta_model_best.pth (torch_old, 102553 bytes, 4 tensors)

linear1.weight f4 [32, 784]
000000 9a b5 f7 bc 77 ce 37 bc 7c a6 03 bd 02 47 a3 3b
       -0.030237962 -0.011218659 -0.032141194 0.00498283
000010 72 1e 9c 3b a1 85 12 bc 60 7e 1d b9 ad 42 2f 3c
       0.0047643716 -0.008942992 -0.00015019765 0.010697049
000020 e3 86 57 3c 43 e9 b2 bb eb b1 91 bc 29 93 6e bc
       0.013154718 -0.005459936 -0.017785033 -0.014561453
000030 96 8f 06 bd 4e 69 03 3c 07 6f 1c bd b9 a3 58 bc
       -0.032851778 0.008020712 -0.03819182 -0.013222628
000040 50 dc df bc ab ea 32 bc 21 42 1a bd 1a 33 02 3c
       -0.027326733 -0.010920207 -0.03766072 0.007946754
000050 81 39 65 bc 18 4c ff bc e8 d2 a8 bc ee 0c e8 bc
       -0.013990761 -0.031164214 -0.02060838 -0.028326478
000060 32 1b e4 bc 24 12 40 bd ab 01 0e bc 0b c3 33 bd
       -0.027844999 -0.0468923 -0.00866739 -0.04388718
000070 b0 09 c6 bb bc 39 51 bd 4c a4 d9 bc c2 e7 36 bd
       -0.0060436353 -0.05108045 -0.0265676 -0.044654615
000080 9a f4 65 3c 39 53 31 bd 62 c8 35 bd d6 a5 20 bd
       0.014035368 -0.043292258 -0.044380553 -0.039220653
000090 83 73 fc 3b 41 58 1a bd 92 89 31 bd ab 65 95 bc
       0.0077041998 -0.03768182 -0.043344088 -0.018236956
0000a0 e9 16 16 bd a1 44 39 bd 06 ae 42 bd c0 f8 50 bb
       -0.036642943 -0.045231465 -0.047529243 -0.0031886548
0000b0 fe 81 a9 bc 83 f6 80 3c e7 1f 5a bd e1 06 60 bc
       -0.020691868 0.015742546 -0.05325308 -0.013673515
0000c0 54 fd 62 bb 38 78 e6 3b 90 40 9e bb 82 46 94 3b
       -0.0034635859 0.007033374 -0.004829474 0.0045250067
0000d0 ae 73 5e bd a4 f7 3f bb 40 4b 3f 3b f2 98 e1 bc
       -0.05430954 -0.0029291892 0.002918914 -0.02753875
0000e0 0a ed 2d bd 16 96 b9 3a 9a ac 86 3b 70 6a dd bb
       -0.042462386 0.0014159109 0.004109931 -0.006757073
0000f0 38 98 f2 bc 76 35 f9 bc 57 a5 4c bd 9e 90 2f bb
       -0.0296136 -0.030421 -0.049962368 -0.002678908
000100 7a d9 ae 3a 35 12 ce bc ef 37 4a bd eb 14 0e bd
       0.001333996 -0.025155166 -0.04936975 -0.034687918
000110 23 fa 40 bc 4b 71 09 bd a6 c2 6f bd b1 03 62 bd
       -0.011778387 -0.03355531 -0.05853524 -0.0551793
000120 07 06 6a bd 7f 98 b3 bc 4f cf 8b bc 2c b3 85 bd
       -0.057134654 -0.021923302 -0.017066626 -0.06528315
000130 73 a4 05 bc ea 78 55 bc a2 9c 2d 3b e5 9c 21 3c
       -0.0081568835 -0.013029316 0.0026491066 0.009864067
000140 32 46 de bc 93 c7 50 bd 50 d1 e4 bc 74 8f 8a 3c
       -0.027133081 -0.05097158 -0.02793184 0.016914107
000150 23 cf 3b bd fb df 9a bc 18 62 e6 3b de c3 7b 3c
       -0.045851838 -0.01890563 0.0070307367 0.015366523
000160 88 f8 d5 bc d7 0b 10 bd 36 97 8d 3c 96 7f 76 bc
       -0.026119485 -0.03516754 0.017284017 -0.015045067
000170 fb 59 37 bd ee bf 97 3c 6e c5 90 3c 78 9a 4a bc
       -0.044763546 0.018524136 0.017672267 -0.01236593
000180 31 d5 83 bd 90 e1 5c bd 50 fc e4 bc 84 f0 41 bd
       -0.064371474 -0.05392605 -0.027952343 -0.047348514
000190 e6 86 b1 3c c0 e5 b1 3c 23 2b de bc c2 ba b7 bc
       0.02167077 0.021715999 -0.027120179 -0.02242792
0001a0 80 97 20 bd 90 cc 42 bb 50 75 ac bc 29 84 83 3c
       -0.03920698 -0.002972398 -0.021052033 0.01605423
0001b0 be a6 0a bd b6 45 c2 bc 60 8b 7f b9 6e 6f d3 bc
       -0.033850424 -0.023714881 -0.00024370616 -0.02580997
0001c0 24 b5 56 bd 72 18 43 bd 26 dd eb bc 5c df da bc
       -0.052418843 -0.047630735 -0.028791975 -0.026717834
0001d0 02 82 82 bc bd 49 24 bd 78 68 9b 3c 9b ed dd 3c
       -0.015931133 -0.040109385 0.018970713 0.027090838
0001e0 57 38 8d 3c 2b 09 9b 3c 93 0d 08 3d 0b e2 d3 bc
       0.017238779 0.01892527 0.03321607 -0.025864622
0001f0 07 ed 7d 3c a5 fe 21 bd 00 96 ac bc 93 b1 d0 bc
       0.015498406 -0.03954949 -0.02106762 -0.025475299
000200 04 c0 14 3d 35 35 ca 3c 69 32 19 bb 4c f6 ac 3c
       0.036315933 0.024683574 -0.0023375994 0.021113537
000210 c5 1a 16 3d 40 e8 1c bc 3e 1d 9d 3c 3a 39 f8 bc
       0.036646623 -0.009576857 0.019178983 -0.030300725
000220 95 e1 2f bd 8f a2 82 3c f4 70 ae bc 70 e9 df 3b
       -0.04293974 0.015946655 -0.021294095 0.006833248
000230 eb 87 49 bd cd c6 36 bd e4 74 1a bd 22 af dd bc
       -0.049201887 -0.044623185 -0.03770913 -0.027061049
000240 7c e0 7f 3c 4e 2c 89 3c d8 f4 af 3c 0f b1 1c bc
       0.015617486 0.016744759 0.021479055 -0.009563698
000250 8c 06 58 3b a6 62 fc 3c 77 b1 6e 3c 01 d9 b4 3c
       0.0032962887 0.030808758 0.014568678 0.022076132
000260 cf e2 9b 3c ef 33 42 bd 4c f2 f4 3c 14 3e e9 3c
       0.01902905 -0.04741281 0.029900692 0.028471984
000270 28 dd 63 3d 95 db 86 3d 0d d3 8e 3c e2 c0 f6 3c
       0.055630833 0.06584851 0.017434621 0.03012127
000280 72 af 47 3c 88 11 c3 3b 92 0d 65 3d 0a 2a 98 bc
       0.0121878255 0.0059530176 0.055921145 -0.018574733
000290 77 c7 98 bb 3e 09 13 bd b1 22 11 bd 66 88 03 3c
       -0.00466245 -0.035897486 -0.035433475 0.008028125
0002a0 e8 81 80 bc b0 62 d2 bc c8 f8 1c bd b2 14 f7 3b
       -0.015686944 -0.025681823 -0.038323194 0.007540309
0002b0 e8 4e c5 3b bb 00 49 bc 42 f6 60 3c 9c 0e 93 bc
       0.0060213692 -0.012268241 0.013730587 -0.017951302
0002c0 61 c1 94 3c cc 37 89 bc 09 9a bb 3c f3 8c dc bb
       0.018158616 -0.016750239 0.022900598 -0.0067306696
0002d0 ee 75 cc 3c 2b 89 39 bd 76 c3 da bc 02 b9 a8 bd
       0.024958577 -0.04529683 -0.026704531 -0.082384124
0002e0 a0 1d 93 bd 82 43 27 3c 70 7e b6 3c 1f a5 95 3d
       -0.07183385 0.010208966 0.022277087 0.07306885
0002f0 6f ef 86 3c 5e d4 98 3c 08 17 a9 3d 5c 5f 04 3d
       0.016471593 0.018655952 0.08256346 0.032317504
000300 d5 88 a7 bc a6 85 9d bb 19 76 0a 3c 14 06 cc bc
       -0.020450989 -0.004807192 0.008451008 -0.024905242
000310 1a 38 3d ba 76 af 88 bb d6 b2 32 bc 1c db 02 bc
       -0.00072181376 -0.004171307 -0.010906896 -0.00798681
000320 57 0e 90 bc 2d a8 b6 bb 24 42 41 bd 37 55 14 bc
       -0.017584963 -0.0055742473 -0.047182217 -0.00905352
000330 ee f1 78 bc 62 ff ca bc d8 5f 96 bd 04 a2 e1 3b
       -0.015194399 -0.02477998 -0.073424995 0.006885769
000340 c2 d9 47 bd aa 75 2e bd 85 81 6b bd 50 09 f6 bd
       -0.048791654 -0.042592682 -0.057496566 -0.12013495
000350 1a ec 59 bd 3e 6b 22 bd 99 78 ce 3a fa 6b 5d 3d
       -0.05320368 -0.039653055 0.0015752494 0.054058053
000360 b9 12 3c 3d 19 bd 88 3c 50 3d 6d b9 3e f6 c2 3c
       0.045916293 0.016691731 -0.00022624922 0.023799058
000370 ab bc 1b bd 21 e0 8f bc bb 1d fb 3b f0 37 fc bc
       -0.038021725 -0.017562928 0.0076634563 -0.030788392
000380 f0 d9 f3 39 42 29 11 3c fd ee 87 3b b2 68 05 bd
       0.00046510948 0.008859934 0.0041483627 -0.03257055
000390 38 b3 45 bc 2d 3d 36 bc 91 db de bc 61 cc 69 bd
       -0.012066655 -0.011122984 -0.027204307 -0.057079677
0003a0 a7 84 25 bd cd fa 73 bd ec ee 87 bb d6 41 2b bd
       -0.04040971 -0.059565354 -0.0041483548 -0.041810833
0003b0 88 24 11 bd b8 ce ab bd e6 ff d4 bd ec 25 e1 bd
       -0.03543523 -0.08389038 -0.10400371 -0.10993561
0003c0 0f 0b f6 bc a6 71 e1 bc 25 5a 7a bc 33 50 ef 3c
       -0.03003457 -0.027520012 -0.015280281 0.029213047
0003d0 43 a7 7e 3d b2 63 a6 3c d0 77 1e 3d 38 e1 7b 3c
       0.062171232 0.02031121 0.03868848 0.015373521
0003e0 21 74 7a bd 9d a8 4c bd 99 33 ff bc 9a 07 13 bd
       -0.061145905 -0.04996549 -0.031152533 -0.03589592
0003f0 0a 7b 49 bd d7 45 38 bd 5c 1f 85 bc ac 2a 3d bd
       -0.049189605 -0.04498848 -0.016250305 -0.046183273

linear1.bias f4 [32]
000000 ff b6 0c bd c2 d2 14 bd 20 be 52 3b 4e 62 61 bd
       -0.034354206 -0.036333807 0.003215678 -0.05502539
000010 00 28 09 3d 99 a8 8e bc ba 68 ad bc d2 90 8c ba
       0.033485413 -0.017414378 -0.021168102 -0.0010724312
000020 06 d3 9b 3a b0 ff d3 3c 6e 18 9c 3b af 5c be 3b
       0.0011888451 0.025878757 0.0047636544 0.0058093886
000030 a9 80 3b 3c af 92 0c bd b3 a6 61 3d bc 21 ac 3c
       0.011444249 -0.034319576 0.055090617 0.02101218
000040 ed 42 3e 3c 0c 5a 7b 3c ca 01 86 bc 42 92 17 3d
       0.011612636 0.015341293 -0.016358275 0.037004717
000050 67 25 27 bc 58 fb 73 39 2e 98 ae 3c bb ed 0d 3c
       -0.0102017885 0.00023267919 0.0213128 0.008662636
000060 1a 19 a7 3c 9a 67 df 3b 6f 0d b5 bb 1f 3b 81 bc
       0.020397712 0.00681777 -0.005525283 -0.015775261
000070 f7 14 41 3d f3 f2 d7 3c 66 0c 56 bb d7 b2 d5 bc
       0.047139134 0.026360964 -0.0032661199 -0.026086254

linear2.weight f4 [10, 32]
000000 12 0a 7c bd e5 6b 62 be fc f2 28 be 6f 34 46 be
       -0.06153304 -0.22111471 -0.16498941 -0.1935594
000010 00 8e 3f be e3 fa 77 bd 12 1b 94 be e2 6f 1d 3e
       -0.18706512 -0.060542 -0.28926903 0.15374711
000020 80 c8 b2 bd e9 fd 6a bd 85 a6 24 be 0e 23 2b bd
       -0.087296486 -0.057371054 -0.16079147 -0.041781478
000030 e9 27 eb bd 27 e4 59 be d1 00 0a be 25 1d ab 3d
       -0.11482222 -0.2127844 -0.13476874 0.08355168
000040 c0 7a 9d be 40 12 0b be 51 ff 3a be da 2d 37 3e
       -0.30757713 -0.1358118 -0.18261458 0.17888585
000050 18 ac a8 3c 92 3d 2a be a1 5d a5 bd 6c 62 55 be
       0.020589873 -0.1662505 -0.08074499 -0.20838326
000060 b8 9f 5a bd 49 26 a8 3d 9f 56 ba bd e6 48 d0 3c
       -0.053374976 0.08210427 -0.09098553 0.025425386
000070 90 8e 96 3c a6 19 6b be 14 45 a2 be ef 3a 19 3e
       0.018378526 -0.22959003 -0.31693327 0.14963888
000080 f5 ea a4 3d 09 a0 46 be 9b ff c4 3c d4 1d 48 3e
       0.08052627 -0.19396986 0.024047663 0.19542629
000090 55 e9 8c bd df 6a 90 3c fe 0f b5 3c 90 eb 73 be
       -0.06880442 0.017629085 0.022102352 -0.23820329
0000a0 4f ea 83 be 79 e0 9b be 4a 75 32 3d 23 e9 8f 3d
       -0.257647 -0.30444697 0.043568887 0.07026889
0000b0 72 03 56 bd c5 fc 6c bd 54 14 d2 bc 33 dd 2e bc
       -0.05224938 -0.057858247 -0.025644459 -0.010672855
0000c0 80 17 88 3d eb dc ef 3c 9d 6e 3b 3e 50 1c 51 bd
       0.06645107 0.029280147 0.18303914 -0.05105239
0000d0 50 ff 27 be 20 96 c4 3d 75 15 78 bd 31 1d 58 be
       -0.16405988 0.095989466 -0.060567338 -0.21104886
0000e0 1b 7a 7e 3d bc 7a c9 3d 05 c2 12 be ae f7 ca 3d
       0.062128168 0.09837863 -0.14331825 0.099105224
0000f0 e6 e7 61 be 74 5c 88 bd 6d 9f 46 bd ae e0 5d be
       -0.22061118 -0.06658259 -0.048491884 -0.2166774
000100 5c 49 ee 3d 12 67 0a bc 3e a2 6f be 17 2e f1 bd
       0.11635086 -0.008447425 -0.23401734 -0.11776369
000110 23 44 ab 3d 50 95 7c be 96 cd 8e be 8d 2c 82 be
       0.083626054 -0.24666333 -0.27891225 -0.25424615
000120 68 36 be 3d d5 fd 47 be a7 de 26 be ff 7d 84 3d
       0.09287721 -0.19530423 -0.16295873 0.06469344
000130 7b 4a 2e be 4e bb 5c 3d af b0 e9 3d 1d 08 ec bd
       -0.170206 0.053889565 0.11410653 -0.11524985
000140 f0 bb 6d 3d 43 f3 a0 3c e8 65 07 be 5a d0 0e 3d
       0.05804056 0.019647246 -0.13222468 0.03486667
000150 35 6a 44 be 52 95 5a 3d ae 07 da bd dc 02 c3 3d
       -0.1918114 0.05336506 -0.10645996 0.0952203
000160 36 af e2 bd 49 4b 96 bd 2f e5 3e be 14 cd 91 be
       -0.11068575 -0.07338578 -0.18642114 -0.28476775
000170 c6 fe 2e be 53 af 5e be 96 80 2b be 15 bb ac 3c
       -0.17089376 -0.21746568 -0.1674827 0.021085301
000180 ed 98 02 be 4a 24 95 3d 6e 77 dd 3b 51 05 10 be
       -0.12753649 0.07282312 0.006758622 -0.14064528
000190 e4 2e 65 3c a6 0b 85 be f5 13 fd 3d 69 0e c8 3c
       0.01398823 -0.2598545 0.12357322 0.024420934
0001a0 9c 0c 82 be d0 0c 66 be 58 95 d2 3d 3a 3b 97 bd
       -0.25400245 -0.22465825 0.10282391 -0.073843434
0001b0 41 c9 ae 3d 76 82 ff bd 71 ac 4d bd 98 d2 f6 bd
       0.0853448 -0.12476055 -0.05021328 -0.12051886
0001c0 73 d7 e9 3d c9 e9 92 3d 32 bb 4c 3d fb 23 90 bd
       0.11418047 0.07173497 0.04998321 -0.07038113
0001d0 50 d1 7b 3c e6 a6 d5 3d 0a 12 ac bd 76 e2 ab bd
       0.015369728 0.10432224 -0.08401878 -0.08392803
0001e0 14 25 20 bb 0f 4e 54 be c0 7b ab be 39 92 a6 bd
       -0.0024436163 -0.20732902 -0.3349285 -0.081333585
0001f0 53 0c 8f bd c5 c0 cd 3c 22 fb 84 be 50 4f 0d 3e
       -0.069847725 0.025116334 -0.2597285 0.13799787
000200 f9 62 9d 3d c7 b5 36 be e5 3f 04 be 65 2d 9a be
       0.07684893 -0.1784278 -0.12914999 -0.30112758
000210 a5 be 54 be 96 e8 ec 3d 75 de dd 3d 77 70 01 be
       -0.2077585 0.115678 0.10833446 -0.12640558
000220 06 fd a4 3d b3 48 09 3e 39 d4 0e bd 71 b1 04 be
       0.08056073 0.13406639 -0.03487036 -0.12958314
000230 d3 5e f9 bd b5 dd 32 3c b3 cb 96 bd b4 02 7a be
       -0.121762894 0.010917117 -0.07363071 -0.24415094
000240 83 aa 6c bd 12 80 68 be 32 15 9e be d4 cb 0b be
       -0.0577798 -0.22705105 -0.30875546 -0.13651973
000250 8b 08 1f 3e 18 40 4c be 54 d2 05 3e 58 ae 8e be
       0.15530603 -0.19946325 0.13068515 -0.2786739
000260 40 1c 43 3e 95 0e 1a be c1 17 f3 bd d1 01 d1 3d
       0.19053745 -0.15044625 -0.11869765 0.102054246
000270 1f 5b 78 be 46 46 52 be fe 48 00 3e ef 1c 4e be
       -0.2425351 -0.2053462 0.12527844 -0.20128225
000280 de 44 30 bd 16 61 0d 3e 2c ac 2f bd 94 26 39 be
       -0.043034427 0.13806567 -0.042888805 -0.18081123
000290 47 c7 a7 bd fb 81 75 be d7 3f 07 be 94 7c 90 bd
       -0.08192306 -0.23975365 -0.13207947 -0.070550114
0002a0 fb bc 34 be 51 35 ca 3d 92 b0 cc bc 0d dd de bd
       -0.17650215 0.098734505 -0.024986539 -0.10882006
0002b0 54 ea ae 3d d0 f8 55 be 8a 41 c0 bd 33 23 f4 bd
       0.08540788 -0.20895696 -0.093875006 -0.11920776
0002c0 97 1b 48 be fa 65 6a be 16 d6 df bc 66 d8 0e bd
       -0.19541775 -0.22890463 -0.027323764 -0.034874342
0002d0 af 4d 4c 3e 06 33 dd bd 52 b3 81 be 4a 06 02 bd
       0.19951509 -0.108007476 -0.25332123 -0.03174428
0002e0 cb b9 36 3e d7 74 cf 3d c2 76 56 3d 05 ab 19 bd
       0.17844312 0.10129707 0.05235935 -0.037516613
0002f0 cd 64 bb 3d d5 99 9a bd e4 b4 36 be 31 46 c6 3d
       0.091500856 -0.075488724 -0.17842442 0.09681357
000300 40 2f 8f be 66 0d ef 3d 93 6b 87 bd 1f a9 2f be
       -0.27965736 0.116724774 -0.06612315 -0.17154358
000310 ff b8 ec bc d8 31 30 bd 66 40 99 be d9 03 90 be
       -0.028896807 -0.043016285 -0.29931945 -0.28127936
000320 99 94 f5 3d 50 07 6a be 07 36 b3 3d ce 4f 17 3b
       0.119912334 -0.22854352 0.08750539 0.0023088339
000330 c3 a9 28 3d 72 d0 b6 bd 63 5c 26 be 73 e3 2d be
       0.041177522 -0.089264765 -0.1624618 -0.16981296
000340 88 f4 6d be ca 37 76 be 04 ac 5a be 73 a2 fe bb
       -0.23237813 -0.2404472 -0.21354681 -0.0077708303
000350 ff f0 88 be eb 76 6d be 0c 76 0e 3e 46 59 88 be
       -0.26746365 -0.23189895 0.13912219 -0.2663061
000360 0e d5 5f 3d 78 f9 db bc 34 98 3c 3e 4b a4 05 bd
       0.054646544 -0.026852354 0.18417436 -0.032627385
000370 d5 b3 24 3d ef 69 34 bd ac 6a 30 bd 71 75 f8 bd
       0.040210564 -0.04404634 -0.04307048 -0.12131775
000380 88 15 64 be 0f 16 9a be 34 c9 d1 bc 69 8c 15 be
       -0.22273839 -0.30094954 -0.025608636 -0.14604343
000390 25 58 54 be 47 fa fc 3d 56 8e 5d be 69 49 44 3d
       -0.2073675 0.12352424 -0.21636328 0.047921572
0003a0 08 9b 84 be bc ae e6 bd 69 48 25 be 53 50 72 3c
       -0.2589953 -0.11263797 -0.16140904 0.014789659
0003b0 8e 4d f2 bd 1d 9c ac 3d 9b e0 1d be 20 d5 32 be
       -0.11831199 0.08428214 -0.15417711 -0.17464113
0003c0 46 4c 24 be 1f b4 8d 3c e2 46 83 be 10 da b2 bd
       -0.16044721 0.017297802 -0.25640017 -0.08732998
0003d0 2b f3 5f be e2 8a 04 3e 59 5d 0c be 75 79 94 3d
       -0.21870105 0.12943605 -0.13707484 0.072497286
0003e0 70 ef 0e be 0b d4 5e be 38 ab 36 be d9 bb 96 bd
       -0.13958526 -0.21760575 -0.17838752 -0.07360048
0003f0 54 7a 3c 3d a2 19 91 3d 88 b6 20 bd 31 45 2b be
       0.0460151 0.07084967 -0.039236575 -0.16725613

linear2.bias f4 [10]
000000 35 1b 20 be 03 dd ad bc 3a 66 89 3d ab af ee 3c
       -0.15635379 -0.02122355 0.06708951 0.0291365
000010 cf f8 61 be 1e 41 5a be 17 8c ce 3c 3b 0e fa 3d
       -0.22067569 -0.21313903 0.025213284 0.122097455
000020 84 5c 3c be 1c e0 62 be
       -0.18394667 -0.22155803
