alternative_rnn_optimizer/training_GRU_2layer_keepmemory/meta_optimizer_best.pth (torch_old, 901 bytes, 3 tensors)

linear1.weight f4 [10, 2]
0	0xbf0ef6e1	-0.5584546
1	0xbe3c2aa5	-0.18375643
2	0xbec94206	-0.39308184
3	0x3e27a283	0.16370587
4	0xbe3df48d	-0.1855032
5	0x3e0de56c	0.13857049
6	0xbf13a76d	-0.57677346
7	0xbf0ee679	-0.55820423
8	0x3f0f1a4a	0.5589949
9	0x3e68713a	0.22699443
10	0xbf5ac3fb	-0.8545529
11	0x3d5be32b	0.05368344
12	0x3e0bf260	0.13666677
13	0xbe3553c5	-0.17707737
14	0xbf37bce3	-0.71772593
15	0xbe7fe7a3	-0.24990706
16	0xbd2f2fb0	-0.042770088
17	0x3ee9d3c3	0.45669374
18	0xbd047407	-0.032337215
19	0x3f01674b	0.5054824

linear1.bias f4 [10]
0	0xbee761fa	-0.45191938
1	0x3f540b91	0.8283015
2	0x3e62cbb7	0.22148024
3	0xbdcd268b	-0.10017117
4	0x3daa6c90	0.08321488
5	0xbec46864	-0.38360894
6	0x3ec185f3	0.37797508
7	0xbebe8041	-0.37207225
8	0x3f0bdfb5	0.54638225
9	0x3ed9e53d	0.42557707

linear2.weight f4 [1, 10]
0	0xbbc4e518	-0.0060087554
1	0x3c43aecf	0.011943533
2	0x3e5026d5	0.20327313
3	0xbdadbd86	-0.08483414
4	0xbc5e7af0	-0.013579115
5	0x3c0f5732	0.008748816
6	0x3c7e8cf0	0.015536532
7	0x3c4813f0	0.012211785
8	0x3dd20516	0.10254876
9	0xbc93c93e	-0.018040296
