alternative_rnn_optimizer/training_GRU_2layer_keepmemory/meta_model_test_best.pth (torch_old, 102545 bytes, 4 tensors)

linear1.weight f4 [32, 784]
-26.578533 -26.574774 -26.55645 -26.57631 -26.596943 -26.54717 -26.570797 -26.588358
-26.598093 -26.556658 -26.575932 -26.56524 -26.600216 -26.535553 -26.566223 -26.577011
-26.536776 -26.594751 -26.590914 -26.552057 -26.580921 -26.544899 -26.561565 -26.581509
-26.540878 -26.58355 -26.566422 -26.550804 -26.563753 -26.538885 -26.586191 -26.59933
-26.54422 -26.5716 -26.545383 -26.549292 -26.627111 -26.626163 -26.67346 -26.595875
-26.629147 -26.629581 -26.734255 -26.744392 -26.81903 -26.798288 -26.65742 -26.652346
-26.58318 -26.565481 -26.58875 -26.55026 -26.562515 -26.54296 -26.565147 -26.547676
-26.574846 -26.594694 -26.571064 -26.589273 -26.572653 -26.572914 -26.681503 -26.61956
-26.68276 -26.649475 -26.908148 -27.187052 -27.60059 -27.999544 -28.773678 -29.006668
-28.892841 -28.596756 -28.26439 -27.525671 -27.191355 -26.666567 -26.672554 -26.625946
-26.555012 -26.542067 -26.58667 -26.590796 -26.596985 -26.574362 -26.563341 -26.636345
-26.585827 -26.618868 -26.654839 -26.810835 -27.08012 -27.472094 -28.401031 -29.28818
-30.09675 -31.146463 -32.543274 -33.19485 -32.718884 -32.69694 -31.747438 -30.363335
-28.322273 -27.078566 -26.861122 -26.61371 -26.549776 -26.583443 -26.556694 -26.558397
-26.56446 -26.583033 -26.597126 -26.62063 -26.688284 -26.654575 -26.849993 -27.321484
-28.400314 -30.221733 -32.28703 -34.878124 -37.030594 -38.525852 -40.35558 -40.932064
-39.60287 -37.863842 -34.83259 -31.748383 -29.424482 -27.980484 -27.232866 -26.786171
-26.782318 -26.568121 -26.619804 -26.647877 -26.60042 -26.600548 -26.579044 -26.650047
-26.833626 -26.866234 -27.525194 -29.567343 -30.841425 -33.77547 -36.887375 -40.649963
-43.827972 -46.204266 -47.26558 -47.06031 -45.907104 -42.421093 -38.686188 -33.8765
-30.97499 -29.082865 -27.708145 -26.991137 -27.009756 -26.757704 -26.696592 -26.593378
-26.58357 -26.555054 -26.577404 -26.736734 -26.97533 -27.2674 -28.96314 -30.979595
-33.061646 -36.050663 -39.61287 -42.960686 -46.648834 -49.843628 -50.325047 -49.808395
-48.796764 -45.310806 -40.17784 -35.979332 -32.367542 -29.952698 -28.367561 -27.469936
-27.328856 -27.018951 -26.706446 -26.573244 -26.599964 -26.579657 -26.54534 -26.698181
-27.100782 -28.066603 -29.222305 -31.445555 -33.717274 -36.70922 -40.153645 -44.043007
-46.92831 -48.24888 -50.032192 -50.506786 -49.050735 -46.335712 -41.964348 -38.623074
-34.053528 -31.16514 -28.624939 -28.336369 -27.95385 -27.29711 -26.630308 -26.602245
-26.559177 -26.54014 -26.607567 -26.944393 -27.638344 -28.259274 -28.915281 -30.916883
-32.750687 -36.32853 -40.081425 -44.20395 -45.831627 -46.600197 -48.096756 -47.791424
-47.30727 -45.568512 -43.029858 -40.624317 -36.016983 -32.823895 -30.242601 -28.927595
-28.212759 -27.69995 -26.813223 -26.605505 -26.542683 -26.558462 -26.737476 -27.128521
00000000: d6a0 d4c1 2399 d4c1 9c73 d4c1 489c d4c1
00000010: 8ac6 d4c1 9b60 d4c1 fe90 d4c1 f5b4 d4c1
00000020: e5c8 d4c1 0974 d4c1 829b d4c1 9d85 d4c1
00000030: 3ecd d4c1 d048 d4c1 a087 d4c1 b89d d4c1
00000040: 514b d4c1 0dc2 d4c1 31ba d4c1 9d6a d4c1
00000050: baa5 d4c1 f45b d4c1 167e d4c1 eea6 d4c1
00000060: b853 d4c1 1cab d4c1 0888 d4c1 0c68 d4c1
00000070: 9182 d4c1 a34f d4c1 85b0 d4c1 6ecb d4c1
00000080: 905a d4c1 a392 d4c1 f25c d4c1 f364 d4c1
00000090: 5304 d5c1 6202 d5c1 3f63 d5c1 5ac4 d4c1
000000a0: 7e08 d5c1 6209 d5c1 c1df d5c1 84f4 d5c1
000000b0: 608d d6c1 e562 d6c1 6542 d5c1 0138 d5c1
000000c0: 5aaa d4c1 1b86 d4c1 c3b5 d4c1 ef66 d4c1
000000d0: 0880 d4c1 fb57 d4c1 6c85 d4c1 a461 d4c1
000000e0: 4999 d4c1 efc1 d4c1 8a91 d4c1 d5b6 d4c1
000000f0: cb94 d4c1 5495 d4c1 b873 d5c1 dcf4 d4c1
00000100: 4b76 d5c1 2032 d5c1 e343 d7c1 157f d9c1
00000110: 02ce dcc1 11ff dfc1 7e30 e6c1 a80d e8c1
00000120: 8a24 e7c1 28c6 e4c1 791d e2c1 9334 dcc1
00000130: e587 d9c1 2155 d5c1 6461 d5c1 f001 d5c1
00000140: aa70 d4c1 2756 d4c1 80b1 d4c1 f3b9 d4c1
00000150: a0c6 d4c1 4b98 d4c1 b981 d4c1 3c17 d5c1
00000160: c6af d4c1 71f3 d4c1 1c3d d5c1 977c d6c1
00000170: 16a4 d8c1 d9c6 dbc1 5035 e3c1 314e eac1
00000180: 25c6 f0c1 f52b f9c1 502c 02c2 87c7 04c2
00000190: 23e0 02c2 abc9 02c2 c1fa fdc1 1ce8 f2c1
000001a0: 0494 e2c1 e7a0 d8c1 94e3 d6c1 e1e8 d4c1
000001b0: f165 d4c1 e4aa d4c1 1c74 d4c1 9977 d4c1
000001c0: 0484 d4c1 0daa d4c1 eac6 d4c1 0df7 d4c1
000001d0: 9b81 d5c1 923c d5c1 c9cc d6c1 6692 dac1
000001e0: d833 e3c1 1cc6 f1c1 eb25 01c2 3383 0bc2
000001f0: 541f 14c2 791a 1ac2 1d6c 21c2 6fba 23c2
00000200: 5769 1ec2 9374 17c2 9254 0bc2 b0fc fdc1
00000210: 5765 ebc1 08d8 dfc1 e9dc d9c1 144a d6c1
00000220: 3042 d6c1 838b d4c1 5cf5 d4c1 da2e d5c1
00000230: a9cd d4c1 eccd d4c1 e2a1 d4c1 4c33 d5c1
00000240: 44ab d6c1 0cee d6c1 9933 dcc1 eb89 ecc1
00000250: 3dbb f6c1 151a 07c2 ac8c 13c2 9099 22c2
00000260: d84f 2fc2 2bd1 38c2 f40f 3dc2 c23d 3cc2
00000270: e0a0 37c2 33af 29c2 a8be 1ac2 8981 07c2
00000280: c8cc f7c1 b5a9 e8c1 48aa ddc1 d9ed d7c1
00000290: fb13 d8c1 c70f d6c1 9f92 d5c1 3dbf d4c1
000002a0: 27ab d4c1 c070 d4c1 869e d4c1 d5e4 d5c1
000002b0: 7acd d7c1 a323 dac1 83b4 e7c1 36d6 f7c1
000002c0: 203f 04c2 e133 10c2 9473 1ec2 bed7 2bc2
000002d0: 6898 3ac2 e05f 47c2 d94c 49c2 cc3b 47c2
000002e0: e32f 43c2 443e 35c2 1cb6 20c2 d6ea 0fc2
000002f0: 5d78 01c2 209f efc1 c4f0 e2c1 6ec2 dbc1
00000300: 7fa1 dac1 d026 d8c1 cda6 d5c1 0196 d4c1
00000310: bacc d4c1 23a3 d4c1 db5c d4c1 e095 d5c1
00000320: 67ce d8c1 6788 e0c1 48c7 e9c1 7f90 fbc1
00000330: 7dde 06c2 3ed6 12c2 559d 20c2 0a2c 30c2
00000340: 97b6 3bc2 dafe 40c2 f720 48c2 f306 4ac2
00000350: f433 44c2 c557 39c2 7edb 27c2 077e 1ac2
00000360: d036 08c2 3552 f9c1 e0ff e4c1 e2b0 e2c1
00000370: 7ca1 dfc1 7b60 dac1 df0a d5c1 66d1 d4c1
00000380: 3279 d4c1 3552 d4c1 4cdc d4c1 1e8e d7c1
00000390: 541b ddc1 fe12 e2c1 7f52 e7c1 c755 f7c1
000003a0: b400 03c2 6a50 11c2 6153 20c2 d8d0 30c2
000003b0: 9653 37c2 9a66 3ac2 1463 40c2 6b2a 3fc2
000003c0: a53a 3dc2 2846 36c2 931e 2cc2 4d7f 22c2
000003d0: 6411 10c2 ab4b 03c2 d9f0 f1c1 b76b e7c1
000003e0: bbb3 e1c1 7f99 ddc1 7b81 d6c1 13d8 d4c1
000003f0: 6a57 d4c1 bb77 d4c1 5ae6 d5c1 3607 d9c1

linear1.bias f4 [32]
-58.14897 -55.87758 -57.040627 -55.776543 -57.586185 -57.69652 -58.10073 -56.93498
-55.942238 -56.407017 -57.545483 -57.08085 -57.133553 -56.66115 -55.800194 -57.468803
-57.38255 -57.447258 -55.838123 -57.336052 -56.5232 -57.391365 -54.28463 -55.712784
-57.651962 -57.172607 -55.201427 -57.30558 -57.517365 -57.101418 -57.20568 -58.022526
00000000: 8c98 68c2 a482 5fc2 9a29 64c2 2e1b 5fc2
00000010: 4158 66c2 3dc9 66c2 2667 68c2 6bbd 63c2
00000020: dac4 5fc2 c9a0 61c2 932e 66c2 ca52 64c2
00000030: c288 64c2 05a5 62c2 6633 5fc2 0ee0 65c2
00000040: bb87 65c2 fec9 65c2 3d5a 5fc2 1e58 65c2
00000050: c217 62c2 c290 65c2 7623 59c2 e4d9 5ec2
00000060: 9c9b 66c2 c0b0 64c2 43ce 5cc2 ea38 65c2
00000070: c811 66c2 da67 64c2 9ed2 64c2 1117 68c2

linear2.weight f4 [10, 32]
-52.172337 -51.138252 -51.92124 -50.185715 -51.4377 -51.44024 -52.486668 -51.865784
-51.16782 -51.33446 -51.89187 -53.02152 -51.61069 -51.248947 -50.674316 -52.131477
-52.651066 -51.876194 -50.488182 -52.101994 -50.873753 -52.625553 -48.312157 -50.346077
-52.779945 -52.679024 -49.743233 -50.219498 -52.78836 -52.967556 -52.302826 -52.704548
-36.817444 -34.78542 -37.277683 -35.728977 -35.615723 -35.062088 -37.332706 -35.75265
-34.13605 -36.74135 -35.69039 -36.357346 -36.275997 -36.37619 -36.127476 -36.357258
-36.72274 -35.961594 -35.749744 -35.76294 -35.89667 -36.668953 -33.903885 -35.67997
-37.1199 -36.331104 -35.41857 -36.629555 -37.109528 -36.35439 -36.44723 -37.386684
-45.803078 -43.182163 -46.49021 -42.827545 -42.889565 -42.922714 -47.00239 -44.742424
-41.716675 -45.477615 -44.2338 -46.144238 -44.32678 -45.150024 -43.381737 -45.735004
-46.634537 -45.339024 -43.546406 -44.47334 -44.21564 -46.22523 -39.499226 -43.616302
-46.90231 -46.027752 -42.260452 -44.997627 -46.62815 -45.998062 -45.582172 -47.470123
-42.19273 -39.373684 -42.80131 -39.496403 -39.993954 -38.671886 -43.702602 -40.24869
-37.978054 -41.5042 -40.84406 -42.377033 -41.258373 -39.817265 -39.78725 -41.52533
-41.978504 -41.216312 -39.270638 -40.74515 -37.483425 -42.412872 -35.01241 -38.152916
-43.50833 -42.164722 -37.709637 -40.9297 -43.19308 -42.255756 -42.044582 -43.609844
-36.223454 -35.000854 -35.72804 -34.748108 -35.83639 -35.316 -38.366055 -36.29
-35.31322 -34.52178 -36.90535 -37.692696 -35.56446 -35.12026 -34.457268 -36.59215
-37.89367 -36.48344 -34.451847 -35.658707 -35.854904 -37.313766 -33.03346 -34.70211
-38.42084 -37.71144 -33.25451 -36.07533 -38.90145 -37.610123 -38.131477 -38.25508
-36.721546 -34.7157 -36.891766 -35.326515 -36.262806 -35.42075 -38.283947 -35.49515
-35.296944 -35.93288 -36.34813 -37.345753 -35.873543 -35.76096 -34.873024 -36.252586
-37.489597 -36.1068 -34.609676 -35.609077 -35.11461 -37.4197 -32.845997 -34.399143
-38.283485 -36.87813 -34.35471 -35.892506 -37.99132 -37.29757 -37.58494 -38.077778
-40.141907 -35.512108 -41.313046 -36.782703 -38.027374 -36.82591 -42.882477 -39.49193
-35.89783 -39.468555 -37.72721 -41.694824 -39.34669 -39.37855 -35.547573 -40.939545
-42.324196 -38.209442 -35.986084 -38.752205 -37.909058 -40.56036 -32.268764 -36.836933
-43.06018 -41.121296 -34.10549 -39.637035 -42.22201 -41.35005 -42.190228 -43.15828
-37.208412 -35.774643 -35.77348 -34.21992 -35.513412 -35.337997 -37.612392 -36.652164
-35.385193 -35.05561 -36.293205 -37.09418 -36.027527 -34.742744 -35.062035 -36.81706
-37.379745 -36.37867 -35.558464 -36.23641 -34.91476 -37.465614 -34.565372 -34.15419
-37.392086 -36.807404 -34.556072 -36.424862 -37.736244 -37.104126 -37.52252 -37.324688
00000000: 79b0 50c2 928d 4cc2 5aaf 4fc2 2cbe 48c2
00000010: 34c0 4dc2 cec2 4dc2 59f2 51c2 9076 4fc2
00000020: d9ab 4cc2 7d56 4dc2 4691 4fc2 0916 54c2
00000030: 5971 4ec2 ecfe 4cc2 80b2 4ac2 a286 50c2
00000040: b19a 52c2 3981 4fc2 e6f3 49c2 7168 50c2
00000050: b97e 4bc2 9180 52c2 a63f 41c2 6262 49c2
00000060: aa1e 53c2 52b7 52c2 12f9 46c2 c4e0 48c2
00000070: 4827 53c2 c7de 53c2 1836 51c2 75d1 52c2
00000080: 1045 13c2 4524 0bc2 591c 15c2 79ea 0ec2
00000090: 8076 0ec2 943f 0cc2 b154 15c2 b702 0fc2
000000a0: 518b 08c2 24f7 12c2 f6c2 0ec2 ec6d 11c2
000000b0: 9f1a 11c2 3881 11c2 8982 10c2 d56d 11c2
000000c0: 16e4 12c2 acd8 0fc2 bdff 0ec2 400d 0fc2
000000d0: 3196 0fc2 02ad 12c2 949d 07c2 4ab8 0ec2
000000e0: c77a 14c2 0d53 11c2 9eac 0dc2 aa84 12c2
000000f0: 2870 14c2 e56a 11c2 f7c9 11c2 f78b 15c2
00000100: 5a36 37c2 89ba 2cc2 faf5 39c2 684f 2bc2
00000110: ea8e 2bc2 dcb0 2bc2 7302 3cc2 3ef8 32c2
00000120: e0dd 26c2 14e9 35c2 69ef 30c2 b393 38c2
00000130: 9f4e 31c2 a099 34c2 e686 2dc2 a5f0 36c2
00000140: c489 3ac2 295b 35c2 852f 2ec2 b3e4 31c2
00000150: d1dc 30c2 a3e6 38c2 35ff 1dc2 1877 2ec2
00000160: f79b 3bc2 6b1c 38c2 b40a 29c2 92fd 33c2
00000170: 3a83 3ac2 04fe 37c2 2554 36c2 68e1 3dc2
00000180: 5bc5 28c2 a77e 1dc2 8b34 2bc2 51fc 1dc2
00000190: cff9 1fc2 03b0 1ac2 77cf 2ec2 a9fe 20c2
000001a0: 87e9 17c2 4d04 26c2 5160 23c2 1582 29c2
000001b0: 9308 25c2 e144 1fc2 2526 1fc2 f019 26c2
000001c0: fde9 27c2 81dd 24c2 2215 1dc2 09fb 22c2
000001d0: 07ef 15c2 c8a6 29c2 b50c 0cc2 969c 18c2
000001e0: 8808 2ec2 ada8 28c2 abd6 16c2 03b8 23c2
000001f0: b7c5 2cc2 e505 29c2 a72d 28c2 7b70 2ec2
00000200: d1e4 10c2 e000 0cc2 83e9 0ec2 10fe 0ac2
00000210: 7758 0fc2 9643 0dc2 d776 19c2 f628 11c2
00000220: bd40 0dc2 4d16 0ac2 149f 13c2 52c5 16c2
00000230: 0242 0ec2 257b 0cc2 3ed4 09c2 5d5e 12c2
00000240: 1e93 17c2 0bef 11c2 b1ce 09c2 84a2 0ec2
00000250: 6c6b 0fc2 4c41 15c2 4322 04c2 f6ce 0ac2
00000260: f1ae 19c2 84d8 16c2 9e04 05c2 234d 10c2
00000270: 169b 1bc2 c470 16c2 a286 18c2 3405 19c2
00000280: dde2 12c2 e0dc 0ac2 2b91 13c2 5a4e 0dc2
00000290: 1d0d 11c2 d9ae 0dc2 c322 19c2 09fb 0dc2
000002a0: 1230 0dc2 45bb 0fc2 7c64 11c2 0d62 15c2
000002b0: 827e 0fc2 390b 0fc2 fa7d 0bc2 a602 11c2
000002c0: 59f5 15c2 5d6d 10c2 4f70 0ac2 b26f 0ec2
000002d0: 5c75 0cc2 c6ad 15c2 4d62 03c2 b998 09c2
000002e0: 4a22 19c2 3583 13c2 396b 09c2 ed91 0fc2
000002f0: 1df7 17c2 b630 15c2 fb56 16c2 a54f 18c2
00000300: 5091 20c2 660c 0ec2 8f40 25c2 7d21 13c2
00000310: 081c 18c2 bb4d 13c2 a887 2bc2 bcf7 1dc2
00000320: 6197 0fc2 cddf 1dc2 aae8 16c2 80c7 26c2
00000330: 0363 1dc2 a383 1dc2 b730 0ec2 18c2 23c2
00000340: fa4b 29c2 78d6 18c2 c0f1 0fc2 4202 1bc2
00000350: e0a2 17c2 cf3d 22c2 3713 01c2 0559 13c2
00000360: a03d 2cc2 357c 24c2 066c 08c2 538c 1ec2
00000370: 57e3 28c2 7466 25c2 cbc2 28c2 14a2 2cc2
00000380: 6ad5 14c2 3c19 0fc2 0b18 0fc2 33e1 08c2
00000390: bc0d 0ec2 1c5a 0dc2 1773 16c2 d19b 12c2
000003a0: 708a 0dc2 f238 0cc2 3e2c 11c2 7160 14c2
000003b0: 301c 10c2 92f8 0ac2 863f 0cc2 ab44 13c2
000003c0: dc84 15c2 c283 11c2 de3b 0ec2 15f2 10c2
000003d0: b7a8 0bc2 cadc 15c2 f142 0ac2 e49d 08c2
000003e0: 7f91 15c2 c83a 13c2 6b39 0ac2 0fb3 11c2
000003f0: eaf1 16c2 a06a 14c2 0f17 16c2 7b4c 15c2

linear2.bias f4 [10]
-42.037228 -45.963314 -42.122665 -42.128555 -42.63997 -42.83709 -42.41915 -42.678288
-42.12492 -42.69248
00000000: 1f26 28c2 6fda 37c2 9c7d 28c2 a483 28c2
00000010: 548f 2ac2 2e59 2bc2 36ad 29c2 91b6 2ac2
00000020: eb7f 28c2 19c5 2ac2
