alternative_rnn_optimizer/training_fast_2layer_keepmemory/meta_model_last.pth (torch_old, 102495 bytes, 4 tensors)

linear1.weight f4 [32, 784]
00000000: 1e7a 713d 2a57 9e3c 26c1 fe3c ee12 1d3d
00000010: 4d99 973d ddff 033d 25c0 f63c e26a 613d
00000020: 602f cc3c 5e2d 713d 559b e23c a8aa 663d
00000030: 2047 903d f8b1 083d aa6d a23d f543 803d
00000040: 1288 683d 63ca 773d a4b5 923c 2419 4c3d
00000050: c2de 1d3d 0466 783d 7c10 a43c b73e 6d3d
00000060: db8b 8e3d 02fb 433d 85fd c43c 40f2 843d
00000070: 0215 7a3d dfac 933d 5aa6 943d 9d4e 4c3d
00000080: 6e64 243d 2dfe a03d cb91 4b3d 6ef3 043d
00000090: 8450 7f3c 952e 7d3d 1fef 673c 3b5e 813d
000000a0: 35c8 963d 49bb 5b3d 3c9b cb3c 0b87 953c
000000b0: eaa3 5d3d 6459 bc3c cff7 953c 2cf2 333d
000000c0: eb97 cc3c b06e f03c 5bce a23c 1d4f 783d
000000d0: b43e a63d 0568 953d 62b8 6a3d e825 9f3d
000000e0: 738f 813d 64a2 b23c 882f 5b3d 333c d03c
000000f0: 5545 733d 84c5 383d 2a3a 393d 8cfe a83c
00000100: 7e66 a93c 552b 8b3d ad17 3a3d 4816 943c
00000110: 44d2 383d a1cf 5e3d 9bd8 903d 77f0 a53d
00000120: fca1 963d 00c3 763d bf3a fe3c c4f7 583c
00000130: e02b 063d bb8b 813c 9023 0c3d 827d 783d
00000140: 99c6 a73c 78b4 7c3c 1c61 2e3d de33 b53c
00000150: 07f2 2f3d 8918 2a3d 7f33 bb3c 3a57 a43d
00000160: 36cc 943d 9500 c23c 4da9 903d e20e 353d
00000170: 8e97 3c3d d5fe 493d 674d 373d 3899 053d
00000180: 73e0 633d 6dfd c73d 270b ed3d fd1a 943d
00000190: 5132 e73d b5d3 443d 37be f83b 7f7c 803d
000001a0: 5fd2 173d 31d2 9dbc 10af f13b ff90 633d
000001b0: fd71 913d 2900 203d bcee 4d3d 2e40 133d
000001c0: d59d 993c 261d 6a3d d88f 593c ed13 253d
000001d0: 52be 0a3d ca07 403d 7e64 a53c 5059 9e3d
000001e0: 282e 9f3d e025 bf3d 04b1 3c3d f749 5f3d
000001f0: 00d7 c13d 57f7 a03d c303 c13d e770 d93d
00000200: a80a e33d 225f c93d bcbe 013e f6c1 813d
00000210: 6b2c 6d3d 68e0 853c ea8a 923d 599e 4f3d
00000220: d03f 853c 587d 8a3d f0df 9a3d af3b ca3c
00000230: e6f6 933d 0287 503c fc50 983d 0c1a 293d
00000240: bd6c a63d eed4 593d 73e7 b13d c465 0f3e
00000250: cc77 7b3d 1430 413d 526d 893d 47ee d23d
00000260: 7cc2 1f3e 1340 3f3e 9cdb 5e3e 089b 473e
00000270: b34d 1f3e 73b5 8b3d 36eb f2bb 4db8 903d
00000280: 362a 73bc b0b8 b03c 3e75 71bc 26ae f7bc
00000290: a51d 803c c5df e03c a56a 253d 8b69 cd3c
000002a0: b325 933d 8a5a 6f3d bcc2 6f3d 1712 d13c
000002b0: dcb6 983d 7271 913d 9e43 9b3d 74d7 913d
000002c0: 1f70 b13d 2600 773d cfbb 383d 02a1 8d3c
000002d0: 7c56 223e 5d2a 353e 369b 163e 252b 103e
000002e0: e7ff 413e b10c 213e 822b 1a3e e95e d23d
000002f0: e38b 853d a80a e2bb 45a3 e73b c7ac 9abd
00000300: 7b88 c33c 4f66 503d d50d a33d 6e4c 9c3d
00000310: c57e 003d c037 983d d226 883d 3a6c 083d
00000320: a06f 763d f4eb 883d bb33 ce3b a06b 08bc
00000330: 92ff b3bd a91c 99bd 360f 85bd 0796 1f3c
00000340: e0f1 b33b 248b 7f3d af8f 043e 1249 ed3d
00000350: f6b4 923d e743 0b3d 170a b93d b6f8 e63d
00000360: cc33 753c 3256 4b3c 483b 3e3c 1ac3 c9bd
00000370: 0eb1 aaba 88e9 c03c e884 843d 99ed 643d
00000380: 732c 0e3d f164 e23c 8ca9 a83c cf86 7b3d
00000390: 59b6 b93d 36cd d23c 96fc 67bc 993a 8fbd
000003a0: c3eb 5cbd 3d6c c6bd f214 a1bc 16a9 8ebb
000003b0: c268 09be 09e7 6f3c 0fea 9b3d b61e 093e
000003c0: 3cf6 273e c6d8 973d 8b0f 9e3d c69b 78bc
000003d0: 58d9 79bc b5d1 2f3d 6b4d 51bd bd0a 9dbd
000003e0: 5c11 19bd a080 0f3d b5bb 103d 1ae4 973d
000003f0: 87b2 b33c 58b3 963d 784d 8c3d 76a6 cd3c
0.05895435 0.019328672 0.03109796 0.03834813 0.07402287 0.032226432 0.030120919 0.055033572
0.024924934 0.058881156 0.027661959 0.056315094 0.07044816 0.03337285 0.07931073 0.06262962
0.05677039 0.060495745 0.017908879 0.049828663 0.038542517 0.060644165 0.020027392 0.057921138
0.06960269 0.0478468 0.024046669 0.06491518 0.06105519 0.07210707 0.072582915 0.04987966
0.04013484 0.0786098 0.049699586 0.032458715 0.015583161 0.061812002 0.014156132 0.06316801
0.07362405 0.053645406 0.024854295 0.01825287 0.0541114 0.022991844 0.01830664 0.043932125
0.024974784 0.029349655 0.019873789 0.060622323 0.081174284 0.07295231 0.057304747 0.07770902
0.06326189 0.02180595 0.053512126 0.02541933 0.059392292 0.04511024 0.045221485 0.02062919
0.020678755 0.06795374 0.045432735 0.01807703 0.0451224 0.05439723 0.07072564 0.08102506
0.07355115 0.06024456 0.031033872 0.013242666 0.032756686 0.015813699 0.034213603 0.06066657
0.02048044 0.0154238865 0.04257308 0.022119459 0.042955425 0.041527305 0.022851704 0.0802445
0.07265513 0.023681918 0.070635416 0.044203646 0.04604297 0.049315292 0.04475155 0.032616824
0.055633973 0.09765134 0.11574393 0.0723171 0.11288894 0.048053462 0.0075910348 0.06273746
0.03706586 -0.019265266 0.0073756054 0.0555582 0.0710182 0.039062653 0.050276503 0.03594988
0.018752018 0.057156704 0.013278924 0.040302206 0.03387291 0.04688243 0.02018952 0.07731879
0.077724755 0.09333396 0.046067253 0.054513898 0.09464836 0.07859676 0.094245456 0.106172375
0.11086017 0.09832598 0.12670416 0.06335823 0.05790369 0.016342357 0.07155402 0.05068812
0.01626578 0.06762189 0.07562244 0.024686662 0.072248265 0.012727501 0.074373215 0.041284606
0.08126209 0.05318158 0.086867236 0.14003664 0.061393544 0.04716499 0.06710304 0.10299354
0.15601534 0.18676786 0.21763462 0.19492733 0.15556984 0.06821718 -0.0074132932 0.070664026
-0.014841607 0.02157244 -0.014737425 -0.030234408 0.015639136 0.027450452 0.040384907 0.02507474
0.07184925 0.058435954 0.058535323 0.025521321 0.07456753 0.07101716 0.07581256 0.071211725
0.086639635 0.060302876 0.045100983 0.017288689 0.15853304 0.17691942 0.14707646 0.14078958
0.18945275 0.15727498 0.1505566 0.10272009 0.06520822 -0.006898243 0.007069024 -0.07552486
0.02386879 0.05087882 0.079616226 0.07631765 0.031370897 0.074325085 0.066480294 0.033306338
0.060165048 0.066856295 0.006292788 -0.008326441 -0.087889805 -0.074761696 -0.06497042 0.009740359
0.00549148 0.062388554 0.12945436 0.11586203 0.07163422 0.034000304 0.090351276 0.112779066
0.014965963 0.012410687 0.011610813 -0.09851666 -0.0013022737 0.023548856 0.06470662 0.055890653
0.03471036 0.027636023 0.020588659 0.06140786 0.09067983 0.025732618 -0.014159342 -0.069935985
-0.053935777 -0.096886136 -0.019663308 -0.0043536527 -0.13418868 0.014642485 0.076130025 0.13390622
0.16402525 0.07414393 0.07717808 -0.015173858 -0.015249573 0.0429246 -0.051099222 -0.07668064
-0.03737007 0.035034776 0.03533526 0.07416554 0.021935714 0.07358426 0.068507135 0.025103789

linear1.bias f4 [32]
00000000: 5e6e 4d3d cf37 693c 53bb ce3d f61c f5bb
00000010: 6a6a 63bd 64ac 66bd 44c9 623c 24e6 883b
00000020: b097 cd3c 0cae 053b ec8a 233c fcd0 e43c
00000030: 2388 52bd 7cd3 403b d48a a03c 7ce9 49bc
00000040: 5a89 243d 2906 ff3c 42df 123d 7772 8c3c
00000050: 1540 5d3d 2e32 253a 95e8 dbbb d379 e33d
00000060: 54a0 953d 54e8 a63d 7086 fa3b f2d3 06bd
00000070: c325 55bd 9432 e0bb 3c4f 553c bab3 10bd
0.050154082 0.014234497 0.10094323 -0.007480259 -0.055521406 -0.05631675 0.013841931 0.0041778255
0.025096744 0.002039793 0.009981852 0.027931683 -0.05139936 0.002942293 0.019597448 -0.012323733
0.04017005 0.031130867 0.035857446 0.017144425 0.05401619 0.0006301728 -0.0067110755 0.111072205
0.07305971 0.08149782 0.0076454207 -0.03291697 -0.052037966 -0.006841967 0.013019379 -0.03532765

linear2.weight f4 [10, 32]
00000000: 183f 833b 9729 8fbe d230 9cbe 4207 c6bc
00000010: d61d cb3c c011 eb3c 402c b53a 7414 83bc
00000020: 96a0 d53d 2593 d53d 0b2f 0f3e 5cf6 2e3e
00000030: 602c 94be d6ef 2e3d f31e 523e 1cb0 09be
00000040: 0702 38be 3edc 65be 4390 563d 8091 903e
00000050: 6478 033e cdde 973e 6fd9 483e 226b e1be
00000060: aa2d 43bd 1870 fdbd d975 81bd 83dd 5e3d
00000070: 1bee 0abe 4e9e b5bd daec 36bd 02f4 18bd
00000080: 134d a93e 28ef a83e bc84 6a3e d5f9 66bd
00000090: 3724 53bc 9e43 383d 1a60 bbbc 743a 18be
000000a0: 932f c0be 23cf 243c b700 e43d d66f 8dbd
000000b0: 610e 80be 03be 003e 1782 d03c 8354 efbd
000000c0: 58c8 98bd b591 73be cbfa b3be ecd4 d4bd
000000d0: 8e57 8abe d2f4 bdbd 5ab2 1ebe 0611 c93d
000000e0: e12f 70bd 0f1d 363e d12d 66be 15ef 683d
000000f0: 332f 72be b618 82be 32d0 8c3d eadd d2bd
00000100: c33b 733e 9f1f 35bd 805c 44be 2c7b 0bbe
00000110: 1f08 0c3e 2e5f dcbd 5a14 2dbe 6cf6 823d
00000120: 34a7 653e 18a0 2abd 17bf 743d 9173 8ebd
00000130: d708 abbe 29ce eebe bbe8 0dbe cfe0 103e
00000140: f2f3 5d3e a055 0cbe 6a61 40be 3c8f 143e
00000150: c52a 9e3d d887 7c3d d605 eabd 7224 4e3e
00000160: 3aef 4cbc 8a7e dabe 3655 cdbc 98de f23d
00000170: 40e3 75bd b108 1e3e bd35 71bc 06d4 d63d
00000180: 9100 413e 0124 cf3c d20f 86bd 9178 93bd
00000190: 14a5 823c 3c07 b3bd 9427 46be bcbd 5abe
000001a0: b615 61bd 4b7b 473d 9863 d83d 3541 91be
000001b0: 5494 3fbe d0d3 e8bd 4425 7abd e37b ce3d
000001c0: 7088 3ebe 4d0e 673d a8ff 22bd 77d1 07be
000001d0: 2bf4 073d bd3c 56bd f906 63bd a635 0ebe
000001e0: f5a9 7dbd d308 a83e c2ea 893e 4438 013e
000001f0: ae45 0f3d 13f2 663e 7b30 743e 7ffb 393e
00000200: dfd5 01be f56a 93be 93ff 44bd ba4e 993c
00000210: 4f22 28be 5404 b3bc 93c0 d0bd da3a ccbd
00000220: 2fca ffbd 7b0b d63d a78b 3fbd 3e45 143e
00000230: 110f 5e3e c712 b7be 1241 19be f0b4 cbbc
00000240: d161 a03e bb15 3b3e 917c 3a3c 9a42 8ebd
00000250: 7cba f9bd 110f 19bd 1c20 43be a3fc 3abd
00000260: 596c afbe 5c58 b7bd c77b 273e 59be 23bd
00000270: ffe0 073e 6c56 cabe 8ba9 19be e717 17be
00000280: 1d5a c5bd bb3b 98be e8ae 143e 404c 36bd
00000290: c547 acbd 7edc 15be 18ee 80bd aef6 e3be
000002a0: 98c9 e43d cfb7 2e3e 8aa7 a3bd 287a 01be
000002b0: b918 1b3c 86aa 003e 3347 89bd 4ea5 cabc
000002c0: 33de d1bd 6e3d 85be a1ab 2d3e ce42 49be
000002d0: 6b80 cdbc c9bb a9bd f2f5 493c a1af 07be
000002e0: 0703 f83d fc6a 37bd 73f5 193e 8d42 dabd
000002f0: fd6d c4bc 7782 ed3d dfbe 3c3e 6203 163e
00000300: af11 d8bc abda 28be 52c5 bdbe 4152 863d
00000310: dbdb d23d bc84 623b f88f b23d 3522 25be
00000320: b6d7 cabe b2e9 d7bd a6be 0d3e fe5a 2a3e
00000330: 62eb 143e 9787 3fbe a1f4 8dbd c07f 63bd
00000340: 3e77 873e 9063 59be d380 ccbc 5c87 16be
00000350: 1644 353e cbd0 023e cb47 1fbe 1a6c c73d
00000360: cd9f bf3e 1109 d9bd a538 d4be 10a0 f33c
00000370: 1825 3ebe c705 9abe e5e1 943d 2e6c 1ebe
00000380: a4fa 72bd 9db6 95be d32a 443e d5ff b53d
00000390: 5db4 93be eff3 41be 0a63 7fbd 2e93 683e
000003a0: ae45 a83d 93d0 21be 88c4 11bd 6f2c dfbd
000003b0: c2dd 9abd a771 a7be d037 e13d 9cea 2cbe
000003c0: 2d83 29be 9b5c 5a3e a9ef 25be 41fe 193d
000003d0: e665 babe 7cb9 113e 0336 213e 7fab 3dbe
000003e0: 672b afbe 600f 87be 95ab 723d 309c f13d
000003f0: c101 673c 701e f23c 2f48 a0bd a1c8 b63c
0.004005324 -0.27961418 -0.30505997 -0.024173383 0.0247945 0.028694987 0.0013822392 -0.016000964
0.1043102 0.10428456 0.13982789 0.17086166 -0.28940105 0.042709194 0.20519619 -0.13446087
-0.17969523 -0.22447297 0.052383672 0.28236008 0.12838894 0.2966217 0.19614194 -0.44027048
-0.04765097 -0.12374896 -0.06321306 0.05441047 -0.13567393 -0.08868085 -0.044659473 -0.03734208
0.33066615 0.32994962 0.22902197 -0.056390602 -0.012887052 0.04498636 -0.022872973 -0.14866048
-0.37536296 0.010059151 0.11132949 -0.06906097 -0.2501097 0.12572484 0.025452657 -0.11686041
-0.074600875 -0.23786052 -0.35152277 -0.10392174 -0.27019924 -0.092752114 -0.15497723 0.098177
-0.05863941 0.17784522 -0.22478415 0.05686863 -0.23650818 -0.25409478 0.068756476 -0.10296233
0.23753266 -0.04421961 -0.19175911 -0.13621205 0.13674973 -0.107603416 -0.16902295 0.063946575
0.22427064 -0.041656584 0.05975255 -0.06955636 -0.33405182 -0.46641663 -0.13858311 0.14148258
0.21675089 -0.13704538 -0.1878716 0.14507765 0.077230014 0.06165299 -0.11426894 0.2013109
-0.012508208 -0.42674667 -0.025065046 0.11858863 -0.060031176 0.15433003 -0.014722285 0.10489659
0.18847872 0.025285723 -0.06545986 -0.072007306 0.015947856 -0.08741614 -0.19351035 -0.2136144
-0.054952346 0.048701566 0.10565871 -0.28370062 -0.18708926 -0.11368525 -0.061070696 0.10082223
-0.18606734 0.056410123 -0.039794594 -0.13263498 0.03319184 -0.05230402 -0.05542657 -0.13887653
-0.06192966 0.32819232 0.26936918 0.1261912 0.03497856 0.22553281 0.23846619 0.18162344
-0.12679242 -0.2879254 -0.048095297 0.018714298 -0.16419338 -0.02185265 -0.101929806 -0.099721625
-0.12489735 0.104514085 -0.046764042 0.14479539 0.21685435 -0.35756513 -0.14966229 -0.024866551
0.31324628 0.18270008 0.011382238 -0.06946297 -0.12193772 -0.037367884 -0.19055218 -0.04565109
-0.3426235 -0.089524 0.16355811 -0.03997645 0.13269423 -0.3951906 -0.15006082 -0.14755212
-0.09636328 -0.2973307 0.14519846 -0.04450631 -0.084121265 -0.14634892 -0.06295413 -0.4452414
0.111712635 0.17062305 -0.0799094 -0.12644255 0.009466344 0.1256505 -0.06703033 -0.024737027
-0.10247459 -0.2602343 0.16960002 -0.1965439 -0.025085649 -0.0828777 0.012326704 -0.13250591
0.121099524 -0.044779763 0.15035038 -0.10657225 -0.023978228 0.1159715 0.18432187 0.14649728
-0.02637562 -0.16489665 -0.37064606 0.065586574 0.1029584 0.003456398 0.08718866 -0.1612633
-0.396177 -0.10542621 0.13842258 0.16636273 0.14542916 -0.18704067 -0.06931425 -0.055541754
0.26458162 -0.21229386 -0.024963772 -0.14700073 0.17701754 0.1277496 -0.1555473 0.097374156
0.37426606 -0.105974324 -0.41449466 0.02973941 -0.18568838 -0.30082533 0.072696485 -0.15470955
-0.05932106 -0.29240885 0.19156961 0.08886687 -0.28848544 -0.1894071 -0.06235031 0.22712395
0.08216415 -0.15802221 -0.035587817 -0.10897147 -0.07561828 -0.32703897 0.109969735 -0.16886371
-0.16553946 0.21324389 -0.16204704 0.03759599 -0.36405867 0.14230913 0.1574326 -0.18522452
-0.342128 -0.26378918 0.059245665 0.117973685 0.014099539 0.02955553 -0.07826268 0.022312464

linear2.bias f4 [10]
00000000: c8cd 31bd 7286 ce3c 29f8 4d3e 98d1 b0bd
00000010: de0d 383e 5875 213e d426 a13d 4253 2b3e
00000020: 4c17 043e c96b 343e
-0.04340914 0.025210593 0.20114197 -0.08633727 0.1797404 0.1576742 0.07868734 0.16730979
0.12899512 0.17619242
