alternative_rnn_optimizer/training_fast_2layer_keepmemory/meta_model_best.pth (torch_old, 102557 bytes, 4 tensors)

linear1.weight f4 [32, 784]
00000000: b647 e8bc 1a7c eabb be18 6fbb 4acf 56bc
00000010: d2e8 053d d6b6 2abb 621d a3bc 8e05 173d
00000020: c6d3 42bc f78b 053b 6ead 803c 5b92 093d
00000030: a53c a7bc 6a77 083d 7df3 52bc 9480 d4bc
00000040: d8b8 aa3c 327a b93b 1d07 a5bc 27e0 c4bc
00000050: c930 003c 7557 c43b 4df8 c6bc 103d 94ba
00000060: 094c eab9 b8a3 783c 9625 293c 8f3f 103d
00000070: 7558 21bc 4cd4 42bc 7009 9a3c dca9 88bc
00000080: 192f 143c 9eec dcbc 8cc1 8f3c 41fb e43c
00000090: b770 aa3c fa7a aa3c 0dbf 6b3c 3644 1dbc
000000a0: 5a8a 203d ab71 cf3b 4f6a c83c d381 abbc
000000b0: 4290 6d3b 2ce3 6e3c 188c f53c 1a65 dc3c
000000c0: 11c1 05bc 6285 0f3d d109 3e3c 037a bd3c
000000d0: ce16 a53c 95bc 95bc 40b3 a23b 5130 24bc
000000e0: 51c4 ca3b b913 0e3c 5776 d53c f942 3cbc
000000f0: d732 b4bc 98da 5d3c cc40 9dbc 0b01 243d
00000100: e32b 80ba 14c0 193d 7ad2 d0ba 831c 283d
00000110: f0ea 6f3d 4b8c 6d3d 7791 3f3d b3fe 833c
00000120: 5d39 383d 12fe 443d b7dc 6a3d f08e 1f3d
00000130: 28ec 8c3c 97ce d03c 8a74 d2bc 35e2 d4bb
00000140: 4afa c93c 0b4a f2ba 33a9 b33b 8008 893b
00000150: bc42 0b3d b9f1 df3c d7a3 4c3c acc9 3f3c
00000160: 8e9e 37bc c2c1 baba bb9a 523b 2e10 72bc
00000170: ae9b e4bb 7c83 fcbb 5950 c23c 17ff 463d
00000180: f596 193c 2eda 9f3c 2a85 8c3d ccef 973d
00000190: 2cce 493d c93b b33d 3f73 983d d3fb 3e3d
000001a0: e3e7 273d 9f11 943c 1e35 0c3d 57ca 6e3c
000001b0: a129 b23b 6bb8 633b c1c5 d43c b158 a4bc
000001c0: 6e71 1c3d aae1 f33c 08d4 8e3a e86d 923c
000001d0: 3d54 3c3a 520c 193c e28f c0ba 4b9f 283d
000001e0: 55ef 063c 36eb 9e3c 20df ec3c aaa2 d03c
000001f0: 2214 903c 09d7 4bbc d3d4 3c3c c97d 3e3d
00000200: e623 873c 69ab 783d eaee a03d 398a c03d
00000210: 8ed0 853d ecaa 7f3d e478 b03c 10bb 263c
00000220: 39f4 603c 0ce7 ee39 c197 3abc 84cb 073d
00000230: dfa9 d83c a77a 0d3d f2a7 213c 5128 82bc
00000240: 108e e5bc f80d ec3c 38dc 163d 8cd2 c73c
00000250: 367d 1cbd af35 043d 4cc7 e53c bcd3 233b
00000260: 2c48 273c d826 ed3c b36e 423d 5238 103d
00000270: 33b2 4f3d 7927 793d bddc 783d 81b7 823d
00000280: 14e0 103d 9caf 923c 8636 ccbc abd1 1f3c
00000290: 8eac 683c 8f66 aebc 8a72 0a3d 078b 47bc
000002a0: c8d1 cdbc f3fb c83b 1b89 e3bc 3bfb 183d
000002b0: e413 8f3c fbde 073c d0d9 933c 5a60 0f3c
000002c0: 6e85 4c3d 1419 dc3c 2fac d4bb e6ee 5a3b
000002d0: d02f d73c ab99 f53c 581e ca3b 0d6f 2c3c
000002e0: 680a 8abb dbd2 333d f1c5 733c 9ebc 9e3b
000002f0: e39f 8e3c 85f5 b03c 1289 b93b 1b2c 5e3b
00000300: 6b67 123b dcdc 0e3d 8b32 d3bc 2b62 dd3c
00000310: 108a 81bc 3334 263b 2988 053d 13b8 ebbc
00000320: d89e 21bc 485d 39bd 8603 29bd d88e 893b
00000330: 691c a53c 88cd d43c 6aa9 b8bb 3834 a33c
00000340: b9ae 803b 75bf 3b3d 5e5e a23b 5c28 7b3c
00000350: 8eb4 033c 5e7a c0bc 2eeb cfbd 9db3 f2bd
00000360: 6a42 603a 6e42 aaba c5e8 fbbc e9ff 95bb
00000370: a9fd 503d 2cde 083d 69b6 c0bc 56be d9bb
00000380: a0de edbc 08e1 843b 0564 713c 4e2b c13b
00000390: 4a51 bfbc 55fb 7a3c 30b6 323d 4a6d ad3c
000003a0: 853e 623c e0fb 933a aeba 5b3d 254b d93c
000003b0: b3e1 f03b 4ba8 88bc 6c31 4ebd 9648 053d
000003c0: e893 edbc e4fc 10be 2df2 babd 3b4c d9bd
000003d0: c2f9 f8bd c6e5 a0bc 92fc 64bd 7eb1 8bbc
000003e0: 771e 5f3c 7b32 f93c e5dc 083d 9788 af3c
000003f0: 9257 9a3c 3397 9cbc 51d2 993c 7d02 53bc
-0.028354507 -0.0071559073 -0.0036483253 -0.013110945 0.032692738 -0.002604892 -0.019911472 0.03687053
-0.011891311 0.0020377615 0.015707698 0.03358684 -0.02041466 0.033317007 -0.012875435 -0.025940217
0.020840093 0.005660319 -0.020144993 -0.024032665 0.007824131 0.005991871 -0.02428832 -0.0011309702
-0.0004468861 0.015175752 0.010323903 0.035216864 -0.00984775 -0.011891436 0.018803328 -0.016682558
0.009044432 -0.026968297 0.017548345 0.027951838 0.0208057 0.020810593 0.014388812 -0.009598782
0.039194442 0.006330689 0.024464754 -0.020935928 0.0036249314 0.014580529 0.029974028 0.026903678
-0.008163706 0.035039313 0.01159902 0.023129469 0.020152476 -0.0182784 0.004965216 -0.010021285
0.0061879535 0.008671694 0.026057405 -0.011490577 -0.021996899 0.013540886 -0.019195937 0.040040057
-0.0009778704 0.037536696 -0.0015931868 0.041042816 0.058573663 0.057995122 0.046769585 0.016112661
0.04497658 0.048093863 0.057339396 0.038954675 0.017202452 0.025489135 -0.025690336 -0.0064966925
0.02465548 -0.0018485201 0.0054828166 0.0041819215 0.03399919 0.027336942 0.012490234 0.011705797
-0.011207236 -0.0014248418 0.0032135684 -0.014774365 -0.0069765663 -0.007706104 0.023719953 0.048583116
0.00937437 0.019513216 0.068613365 0.074187845 0.049268886 0.087516375 0.074438564 0.046626877
0.04099263 0.018074809 0.034230344 0.014574609 0.0054370915 0.0034747373 0.025973203 -0.020061823
0.038194112 0.029770691 0.001089693 0.017874673 0.00071841833 0.009341316 -0.0014691318 0.04116754
0.008235772 0.019399267 0.028914988 0.02546819 0.017587725 -0.012441405 0.011525351 0.046506677
0.01649661 0.060710344 0.07858069 0.09401364 0.06533919 0.062418863 0.02154202 0.010176435
0.013730102 0.0004556704 -0.01138872 0.033153072 0.026448188 0.0345408 0.009866701 -0.015888365
-0.028021842 0.028815255 0.03683111 0.024392389 -0.038205348 0.03227776 0.028049134 0.002499803
0.010210078 0.028949186 0.047468852 0.03520996 0.050707053 0.06082866 0.060757387 0.06382657
0.035369948 0.017906003 -0.024928343 0.009754579 0.0142012965 -0.021289138 0.03380064 -0.012179143
-0.025124446 0.0061335503 -0.027775338 0.037348967 0.01746554 0.008292909 0.018048197 0.008750999
0.049931936 0.026867427 -0.0064902524 0.0033406555 0.026267916 0.029980501 0.006168168 0.010524523
-0.0042126663 0.04390226 0.014878736 0.0048442623 0.017410224 0.021601448 0.005662092 0.00339008
0.0022339474 0.034878597 -0.025780937 0.02702435 -0.015812904 0.0025360703 0.032600556 -0.028774297
-0.009864531 -0.045254976 -0.041263126 0.0041979365 0.020155149 0.025976911 -0.00563543 0.01992236
0.0039270786 0.045836885 0.004955097 0.015329447 0.008038653 -0.02349585 -0.10152279 -0.11850665
0.00085548183 -0.0012989768 -0.030750642 -0.004577626 0.05102316 0.033415005 -0.02352448 -0.0066450043
-0.02903682 0.004055146 0.014733319 0.005895055 -0.023354191 0.015318711 0.04363078 0.021170277
0.013808851 0.0011290275 0.05364483 0.02652509 0.007351124 -0.01668181 -0.0503401 0.032539926
-0.029001191 -0.1415897 -0.091282226 -0.10610243 -0.121570125 -0.019640815 -0.055904932 -0.017052408
0.013618103 0.030419579 0.033413786 0.021427436 0.018840585 -0.019115066 0.018777044 -0.012879011

linear1.bias f4 [32]
00000000: d12d 9c3c d708 f93c c18e 2c3c 0c55 1f3d
00000010: 055f 023d 67dc 403c 6739 3a3d 947a d63c
00000020: 7ce4 383c ab48 24bd 559f 243d 1373 1d3d
00000030: 6ea3 113c 4e1f fd3c 42aa d63b af4a 023d
00000040: c203 773d 999a 0abd 60b9 343d 4054 353d
00000050: c549 563c 7177 debc b77a d9bb 8f49 1e3c
00000060: 55a7 e23c 9270 3dbb 48a7 da3c 5694 77bc
00000070: 3bed 123a 56a3 6abc 666e 493d 8f5e 003d
0.019064816 0.030399723 0.010532082 0.038899466 0.0318289 0.011771298 0.0454649 0.026181497
0.011284944 -0.040108364 0.040191013 0.03843982 0.008889062 0.030898716 0.006551058 0.031809505
0.060306318 -0.033838842 0.0441221 0.0442698 0.013079111 -0.027156563 -0.006636943 0.009661092
0.02766768 -0.0028906208 0.026691094 -0.01511105 0.0005604808 -0.014321169 0.04917755 0.031340178

linear2.weight f4 [10, 32]
00000000: 5aeb 2dbe ba39 a6be d84f 9fbb a8dc a5bd
00000010: 17c3 313e d041 0a3e d70b f4bd 750f c5bd
00000020: c2c4 df3c de62 19bd 9395 3ebd f0e5 0bbd
00000030: 35ba 5a3d 4c3c 363d f7b2 b2bd c19d 80be
00000040: 21e6 5f3e 4bd3 b3bd 4c1a 8dbe 2597 ebbe
00000050: 235e 533e a547 143e 6b25 583e b243 a2be
00000060: a9e2 2cbe ce2a 163d 5103 d23d b56c b2bc
00000070: 94eb ed39 6f9c bdbc 556b edbd d214 1f3e
00000080: c322 97bd b79a 5b3e d95a 91be d50c b1bd
00000090: 042c eb3d 8903 933c dcd3 15be e5b3 00be
000000a0: ad6f 193e 0a94 b2bd 4e60 093e 54e2 d8bc
000000b0: 6b8f a3be 8091 92be 3b89 75be bbb6 57be
000000c0: ff3e 02bf ded6 953d cf80 d03d 05e0 3f3e
000000d0: 9163 26be 9423 a23d 725d 0c3d ab99 653e
000000e0: f751 9fbd fff0 8d3d b592 a8be decb 933c
000000f0: b9a3 1f3e 3298 02bf abf5 f83d 0524 14bf
00000100: 1c9f 1f3e 00a4 b4bd f044 de3d 674f 1f3e
00000110: 9483 78be eb51 6f3d 08ca 263c de1c a1bd
00000120: d53b 143e 1922 fd3c 0770 2e3e f4ff 9e3d
00000130: c9cb 27bd abe7 cb3d e130 e5be c000 05be
00000140: 041a 803d 585d e1bd 6c5b 3c3e b6ee 853c
00000150: 1ae3 523c a73b 8dbe fc0b 493d 2219 dcbe
00000160: c7d2 cb3b 2a4a 1d3e 5132 0fbd f81a 9c3d
00000170: 7fe5 b43d 8433 9b3d 43ff 4b3e c9ff 1e3d
00000180: a10a 3bbe 5251 333d aadb c8be 7503 13be
00000190: 276c 12be cfb4 47bc 6dcc 04be 8cdf 363e
000001a0: fed3 183e 176e 013e dccb ab3d 70a1 253e
000001b0: f9ed 353e f822 823c eb7d 4d3d 68ad 143e
000001c0: d683 c63d 638e bb3d cf1c fa3d 44ce f0be
000001d0: f3a9 e83d 2908 8c3d 05a5 73be 73f9 5e3d
000001e0: e753 f53d fa5a 0f3e 4398 c6bd 3780 af3c
000001f0: 274b 173e 35e0 e63c 2731 173e 7a0b e8bc
00000200: e04d cdbe 50c6 42be dd71 203e 08a8 3d3e
00000210: 848b 1a3e c29a 39be 408a a8be 39dd 6dbe
00000220: 83a6 6d3b 158b e63d 5e52 39bf 5588 c13d
00000230: 05cb 1a3d 026f e83d 4462 5d3e 1bce cabc
00000240: 2053 14bf 9a6c 0bbe 69fd 8bbe bb5d 493c
00000250: 19c5 073d fc4f 843d 4e32 003e 027b 063e
00000260: 7247 85bd 8473 08be ed3a b8be 12c2 b7bd
00000270: 52ee c23d 1e36 423e 2531 243e d43b 16be
00000280: d52d b13d 697c 23be 3260 5fbd 026f e5bc
00000290: 7401 5c3e fa0e 62be 12cc e3bd 4bf2 513e
000002a0: 5fc6 0bbf cc40 ea3d 5670 223d 446d 383d
000002b0: 8191 383e 68f8 f03d 04c5 033e eb19 063d
000002c0: 2017 d2bb be34 bcbd d9e3 223e 6409 aa3d
000002d0: ca2b 9a3b 2665 50be 4550 10bf af67 883d
000002e0: 24d6 043e 2415 8bbc 553b 213e c0df 063e
000002f0: f80b 113d ca7b 35be b3ed 39be 1a62 593e
00000300: 9a73 573e 383d 0cbe 244d 3e3e e853 f63d
00000310: 19ad 023e 589b 233d 190d cd3c b22d a1bd
00000320: 846e babd 8d6f c5bd 2be2 85bd aca0 5a3e
00000330: aa81 073e 3e44 efbe 98d4 44be b1f5 89be
00000340: e3b6 c8be adbb e8ba 3871 debe a91f 14be
00000350: 37a3 2b3e ec6f e7bc 8428 92bd 7ca7 4e3b
00000360: 625c f23d 060a e73d d34e d93d aa81 16be
00000370: 816f b13c 4ee6 443e 44a2 5ebe 7b2d ecbe
00000380: fae2 80bd d0a6 243d a013 e4be b564 75be
00000390: dca5 fbbd 9643 2abd 243b 603e 61c7 9cbe
000003a0: 30d1 2f3e 61c4 4b3d 8779 22be d614 47be
000003b0: fc34 61be ad38 5a3e d27d 083e 32dc 533e
000003c0: e881 843d 4318 e8bc 560f e7bd 52fb 423e
000003d0: 242a 0bbe fbb3 cbbb 67aa 13bd ef42 9cbe
000003e0: 779a 203e 351e 3cbd 7f73 bebe 2f51 27bd
000003f0: e9da 27be b613 523d aa7a b0be b512 01be
-0.16984311 -0.32465917 -0.004861813 -0.080987275 0.17359577 0.13501668 -0.11916321 -0.09622089
0.027315501 -0.037447803 -0.046529364 -0.034154832 0.053400237 0.044491097 -0.08725541 -0.25120357
0.21865131 -0.08780535 -0.27559125 -0.46013752 0.20641379 0.14480455 0.21108024 -0.31692272
-0.16883339 0.036661915 0.10254539 -0.021780351 0.00045379682 -0.023145882 -0.115927376 0.15535286
-0.07379677 0.21445738 -0.28389624 -0.08645026 0.11483005 0.017946022 -0.14631599 -0.12568624
0.14984007 -0.087196425 0.13415644 -0.02647511 -0.31945357 -0.28626633 -0.2397813 -0.210658
-0.50877374 0.07316373 0.10180818 0.187378 -0.16248919 0.07916942 0.034268804 0.22421901
-0.077793054 0.06930732 -0.3292443 0.018041547 0.15589799 -0.5101348 0.121562324 -0.5786746
0.15588039 -0.08820343 0.108529925 0.15557633 -0.24268943 0.058427732 0.010180004 -0.07866834
0.14475949 0.030900048 0.17034923 0.07763663 -0.04096583 0.099562965 -0.44763854 -0.12988567
0.06254962 -0.11004132 0.1839425 0.016349178 0.012871528 -0.27584574 0.049083695 -0.42987925
0.006220195 0.15360323 -0.034960095 0.076223314 0.088328354 0.07578185 0.19921593 0.038818154
-0.18265773 0.043778725 -0.3923009 -0.14356788 -0.1429907 -0.012189104 -0.12968607 0.17858714
0.14924619 0.12639652 0.083884925 0.16174865 0.1776656 0.015885815 0.050168913 0.14519274
0.096931145 0.091580175 0.12212526 -0.47032368 0.1136054 0.06837494 -0.23793419 0.054437112
0.11978894 0.13999549 -0.0969701 0.021423442 0.14774762 0.028183082 0.14764844 -0.028325785
-0.40098476 -0.19020963 0.15668435 0.1852113 0.15092283 -0.18125442 -0.32917976 -0.23228921
0.0036262579 0.112569965 -0.7239131 0.094498314 0.03779127 0.11349298 0.21619517 -0.024756482
-0.5793934 -0.13615647 -0.27341774 0.0122904135 0.03314695 0.06460568 0.1251919 0.13132861
-0.06507768 -0.13325316 -0.35982457 -0.08972563 0.09518112 0.18965957 0.16034372 -0.1467126
0.0865132 -0.15965427 -0.0545351 -0.028007034 0.2148493 -0.22076026 -0.11122908 0.20502584
-0.54599565 0.1143814 0.039657913 0.04502608 0.18024255 0.1176613 0.12868124 0.03273956
-0.006411448 -0.09189747 0.1590723 0.08302572 0.004704927 -0.20351085 -0.5637248 0.06660401
0.12972313 -0.016977854 0.1574529 0.13171291 0.035411805 -0.17723003 -0.18157081 0.21228829
0.21040192 -0.13695228 0.18584114 0.120277226 0.12761344 0.03994307 0.02503066 -0.07870044
-0.091031104 -0.09640417 -0.06537279 0.21350354 0.13233057 -0.46731752 -0.19221723 -0.2694526
-0.39202031 -0.0017756127 -0.43445754 -0.14465202 0.1676148 -0.02825161 -0.07136634 0.0031532934
0.11834027 0.11281209 0.10610738 -0.146979 0.021659615 0.1922848 -0.21741587 -0.4612845
-0.06293292 0.040198147 -0.44546223 -0.23964198 -0.122874945 -0.04156836 0.2189756 -0.30620864
0.17169642 0.04974783 -0.15866672 -0.19441542 -0.21992868 0.21310683 0.13329247 0.20689467
0.0647009 -0.028331881 -0.11282222 0.19041184 -0.13590294 -0.0062165237 -0.03605118 -0.30519816
0.15683924 -0.045927245 -0.37197492 -0.040848907 -0.16392101 0.05128833 -0.34468585 -0.12604792

linear2.bias f4 [10]
00000000: f9db 6abc e880 b13d 8833 48bd e1b9 113d
00000010: c687 ecba 6a1f 083d 7d27 443d 4bd1 0cbe
00000020: 4f05 acbd ed9d 62bd
-0.014334672 0.08667165 -0.04887727 0.03557766 -0.0018045835 0.033233084 0.04788922 -0.13751714
-0.0839945 -0.05532639
