alternative_rnn_optimizer/training_LSTM_1layer_final_2/meta_optimizer_last.pth (torch_old, 901 bytes, 3 tensors)

linear1.weight f4 [10, 2]
0	0xbd1eb136	-0.03874322
1	0x3ed95c40	0.42453194
2	0xbf03c57d	-0.5147322
3	0x3e1821c4	0.1485663
4	0xbe99da45	-0.3004934
5	0xbee3b1b3	-0.4447151
6	0x3f0e0e9a	0.5549103
7	0xbe9197b7	-0.28436062
8	0x3ec9fd69	0.3945115
9	0xbe5023d5	-0.20326169
10	0x3ec6cfee	0.38830513
11	0x3f08b530	0.5340147
12	0xbd80d88f	-0.06291305
13	0xbe56d69c	-0.20980304
14	0xbefd492d	-0.4946989
15	0xbf267918	-0.65028524
16	0xbed2bf0c	-0.41161382
17	0xbe695d12	-0.2278941
18	0xbeb42d81	-0.35190967
19	0xbf14fcb8	-0.5819812

linear1.bias f4 [10]
0	0x3d1a94d6	0.037739597
1	0x3da37f44	0.07983258
2	0x3f20f21b	0.62869424
3	0xbf844be1	-1.0335656
4	0xbf5ef9a3	-0.87099665
5	0xbebf2334	-0.37331545
6	0x3eb394b6	0.35074395
7	0x3f86f164	1.0542417
8	0x3def55f8	0.11686319
9	0xbe19e80a	-0.15029922

linear2.weight f4 [1, 10]
0	0xbe97f66a	-0.29680187
1	0xbf28a2e8	-0.65873575
2	0xbdcb703a	-0.09933515
3	0x3f49f035	0.7888215
4	0xbe217f56	-0.15771231
5	0x3e220e98	0.1582588
6	0xbd8ae358	-0.06781644
7	0x3ccfb3e1	0.025354328
8	0xbeb863d2	-0.36013657
9	0xbec3c12e	-0.38233322
