alternative_rnn_optimizer/training_LSTM_1layer_final_2/meta_optimizer_300epoch.pth (torch_old, 901 bytes, 3 tensors)

linear1.weight f4 [10, 2]
-0.40673298 0.02152393 -0.5089459 -0.10145671 -0.14922424 -0.52510315 0.69520444 -0.12152676
0.55342054 -0.91098416 0.5074457 0.8656052 0.026327325 -0.34002805 -0.5971682 -0.6506765
-0.463496 -0.00060123904 0.11317846 -0.24429028
00000000: 4e3f d0be f452 b03c 474a 02bf 89c8 cfbd
00000010: 3dce 18be 296d 06bf ebf8 313f 06e3 f8bd
00000020: f8ac 0d3f 4236 69bf f6e7 013f 4d98 5d3f
00000030: 67ac d73c 2818 aebe 04e0 18bf bc92 26bf
00000040: 594f edbe 789c 1dba 1cca e73d 3b27 7abe

linear1.bias f4 [10]
0.11840495 0.16700979 0.6995864 -1.2293608 -0.9924359 -0.23626128 0.24738954 0.96129644
0.071190715 -0.17894405
00000000: 4b7e f23d 9d04 2b3e 1818 333f b25b 9dbf
00000010: 4710 7ebf 7aee 71be af53 7d3e 8617 763f
00000020: 70cc 913d 1c3d 37be

linear2.weight f4 [1, 10]
-0.057179607 -0.5745438 -0.088079855 0.74474204 -0.12234453 0.16626847 -0.06975221 -0.11274253
-0.32628667 -0.27690464
00000000: 2a35 6abd 4d15 13bf 3663 b4bd 6aa7 3e3f
00000010: c58f fabd 4842 2a3e 3fda 8ebd 8ee5 e6bd
00000020: 0c0f a7be 72c6 8dbe
