alternative_rnn_optimizer/training_LSTM_1layer_final_2/meta_model_last.pth (torch_old, 102495 bytes, 4 tensors)

linear1.weight f4 [32, 784]
00000000: c197 febe 0d2e 0cbf 6752 febe 2446 0bbf
00000010: af0b 09bf 446f 00bf 310b febe 9d0b f6be
00000020: c46f 02bf b361 07bf 0c63 02bf 4d98 fcbe
00000030: 8c4f 03bf 8796 09bf 110f 03bf 5919 0cbf
00000040: a1a0 06bf ec91 01bf f8de 00bf f582 fcbe
00000050: bf3f f5be e9cb f7be 5321 f5be 27f5 f5be
00000060: 5a0b 02bf a23d 09bf 557f f9be e22c 03bf
00000070: 4d7a 08bf 2bf7 fabe 4129 01bf 93b8 f8be
00000080: e385 fbbe 49a4 fcbe e98f fdbe 7fb8 febe
00000090: 17a9 f7be 433b f9be 24f1 0fbf 17e5 13bf
000000a0: c26c 1ebf 31be 06bf d7e3 fcbe 659c f8be
000000b0: 7c02 05bf acd1 0abf 5d61 18bf 3ac3 19bf
000000c0: 4fab fdbe 79c8 fcbe 7495 0abf e505 05bf
000000d0: 5ff1 fabe aade 01bf 7c75 03bf 813b 08bf
000000e0: cee4 04bf 49d0 06bf 77dc f4be bfb9 02bf
000000f0: 9906 05bf 3442 06bf aaf6 00bf e538 08bf
00000100: 6ce4 04bf e9c6 07bf 8e6f 1cbf bdbf 1cbf
00000110: ab46 f7be 2a03 f9be 0f1b 23bf 8ac4 1ebf
00000120: f3e3 ecbe 5510 19bf 9006 16bf b449 05bf
00000130: 5410 03bf 1d02 ffbe 2f76 f6be 30d8 01bf
00000140: 7daf 03bf 6119 09bf cda8 03bf 4d8e fbbe
00000150: 0f51 01bf a95e 09bf fd76 fbbe 593f fbbe
00000160: bfa8 01bf f921 04bf 34fb 07bf 19eb fabe
00000170: bd15 f5be e67d 0dbf 8e34 08bf 7149 e2be
00000180: 6039 f6be da12 14bf f27c 15bf cf85 17bf
00000190: bd91 21bf 7780 1fbf ac45 25bf 3faa 18bf
000001a0: 508c 08bf 0c9b 04bf 3f27 f6be 705d 01bf
000001b0: 207b 04bf b4fc 05bf 1ba5 06bf d920 07bf
000001c0: 37c8 f4be 0077 01bf e123 01bf 0973 08bf
000001d0: 88d8 02bf 3bb9 04bf 9a8b febe 9b6d 01bf
000001e0: 757b 0abf 223f 08bf 3f49 00bf 31c5 dfbe
000001f0: 862f e7be 1d9c 16bf 5770 10bf 9d66 18bf
00000200: 511b 1ebf 0759 1dbf 356f 07bf a046 05bf
00000210: 3f4e 08bf be3a fabe a036 10bf 1d2b 13bf
00000220: 112f 09bf ab76 07bf a0d9 06bf aade 0abf
00000230: 5b0f fbbe 4967 0abf b4bc 03bf 240f 00bf
00000240: 22d4 01bf 534e 09bf cb49 e3be 38a2 12bf
00000250: 7459 e5be d4ee 07bf a4b0 17bf 322a 0ebf
00000260: 881e 1bbf 1b53 fcbe efee dcbe 5627 05bf
00000270: a84f 0dbf fcad 0dbf 0fb9 07bf 9ec4 1dbf
00000280: 7b29 17bf 74bf 1bbf e5ca 11bf d083 0abf
00000290: 8380 01bf b8ad 08bf 4abd 09bf cf4d 08bf
000002a0: 7bf7 fabe 5bda f4be 5ffd 05bf 794c fdbe
000002b0: 0ad9 0bbf ce76 03bf f91f 00bf af6c e8be
000002c0: bc13 f8be e641 0fbf ca48 35bf 814e 08bf
000002d0: 5380 1dbf 3355 02bf 74cb 17bf 26de 0abf
000002e0: c949 1abf 4cab 24bf 6fbf 1dbf 1ae2 23bf
000002f0: 7452 26bf 2610 35bf f520 1ebf 7ea0 16bf
00000300: d97b 0ebf c493 0ebf 78ea 0abf 4b07 0bbf
00000310: a05c 06bf 13fe 0bbf 3679 08bf 1c58 02bf
00000320: 27b2 ffbe 4832 0abf 9461 05bf f593 ecbe
00000330: 554f 02bf da71 36bf 41a6 1dbf 135a 07bf
00000340: 35bb 0abf fa3c f9be 0bca 1ebf affa f4be
00000350: eb99 ecbe 8222 20bf 00b3 36bf fe3d 3cbf
00000360: 665f 3cbf b767 2bbf 2d27 1dbf ca9a 10bf
00000370: c4c3 12bf 98ed 08bf 76a2 06bf 47ef 0abf
00000380: e2c1 07bf 58bb 05bf 946e 0abf 82b9 fbbe
00000390: 25de 09bf 015a 0abf b95f 0fbf 42fc 0ebf
000003a0: 2a6b 2fbf 557b 2abf bcb9 24bf 3b7f 27bf
000003b0: 48a8 5dbf 5869 5bbf 7e6a 35bf 08ca 19bf
000003c0: df73 fcbe 26fb 08bf 9d61 23bf c43c 2fbf
000003d0: 8349 30bf ddfb 30bf 55bb 24bf f4d7 28bf
000003e0: e9d9 1cbf 7c2e 16bf 4009 0ebf b902 f5be
000003f0: ffab 02bf 49bb 0bbf 5655 01bf 2dbe 00bf
-0.49725154 -0.5475777 -0.49672243 -0.544039 -0.5353345 -0.5016978 -0.49617913 -0.48055735
-0.5095179 -0.5288345 -0.50932384 -0.49334946 -0.51293254 -0.5374531 -0.51194865 -0.5472618
-0.5258885 -0.50613284 -0.50340223 -0.49318662 -0.47900197 -0.4839776 -0.47876987 -0.480386
-0.5079857 -0.5360967 -0.4872996 -0.5124036 -0.53311616 -0.490167 -0.50453573 -0.4857832
-0.49125585 -0.4934409 -0.49523857 -0.49750134 -0.48371193 -0.48678026 -0.56227326 -0.5777144
-0.618847 -0.5263396 -0.49392578 -0.4855682 -0.51956916 -0.54226184 -0.59523565 -0.6006352
-0.4954476 -0.49371698 -0.541343 -0.5196212 -0.49012277 -0.50730383 -0.5135114 -0.53215796
-0.5191163 -0.5266157 -0.4782445 -0.51064676 -0.5196319 -0.5244477 -0.5037638 -0.53211814
-0.51911044 -0.5303789 -0.6110772 -0.6123007 -0.48296103 -0.48635226 -0.63713163 -0.62018645
-0.4626766 -0.59790546 -0.58603764 -0.5206559 -0.5119679 -0.498063 -0.48137042 -0.507205
-0.5143965 -0.5355435 -0.51429445 -0.49132004 -0.5051431 -0.53660065 -0.49114218 -0.49071768
-0.5064811 -0.5161434 -0.5311768 -0.4900749 -0.47868147 -0.5527023 -0.5320519 -0.44196656
-0.4809065 -0.57841265 -0.58393776 -0.5918855 -0.63113004 -0.62305397 -0.64559436 -0.59634775
-0.533391 -0.5179908 -0.48076817 -0.505332 -0.51750374 -0.5233872 -0.5259568 -0.52784497
-0.47809002 -0.50572205 -0.5044537 -0.5330053 -0.5111165 -0.5184514 -0.49715883 -0.5055787
-0.5409463 -0.53221333 -0.50111765 -0.43705133 -0.45153445 -0.5883196 -0.56421417 -0.59531575
-0.6176043 -0.6146397 -0.52904063 -0.5206089 -0.53244394 -0.48872942 -0.5633335 -0.5748766
-0.5358744 -0.5291545 -0.5267582 -0.5424601 -0.49035153 -0.5406385 -0.51459813 -0.500231
-0.50714314 -0.5363514 -0.44392237 -0.57278776 -0.4479481 -0.530988 -0.5925391 -0.55533135
-0.6059346 -0.49282154 -0.43151042 -0.52013147 -0.5519967 -0.55343604 -0.5301675 -0.6162814
-0.5904767 -0.6083901 -0.5695022 -0.5410738 -0.5058672 -0.53390074 -0.5380446 -0.53243726
-0.49016938 -0.47822842 -0.5233974 -0.49472407 -0.5462805 -0.51353157 -0.50048786 -0.4539542
-0.48452556 -0.5595993 -0.7081419 -0.5324479 -0.6152393 -0.50911254 -0.5929482 -0.5424522
-0.6026884 -0.6432388 -0.6162023 -0.6401688 -0.64969563 -0.70727766 -0.6176904 -0.5883864
-0.55657727 -0.5569422 -0.5426402 -0.54308003 -0.52485085 -0.5468456 -0.53309953 -0.50915694
-0.49940607 -0.53982973 -0.5210202 -0.46206632 -0.509023 -0.71267474 -0.6158181 -0.5287182
-0.54191905 -0.48679334 -0.62027043 -0.47847506 -0.4621118 -0.62552655 -0.7136688 -0.7353209
-0.73583066 -0.6695513 -0.613879 -0.5648619 -0.57329965 -0.5348754 -0.52591646 -0.5427136
-0.53030217 -0.5223899 -0.5407498 -0.4916497 -0.5385459 -0.54043585 -0.56005436 -0.55853665
-0.68522894 -0.6659444 -0.6434591 -0.65428513 -0.865849 -0.85707617 -0.7086562 -0.600739
-0.49307153 -0.5350822 -0.6382082 -0.68452096 -0.6886217 -0.6913431 -0.64348346 -0.6595452
-0.61270005 -0.5866468 -0.55482864 -0.4785364 -0.51043695 -0.5458265 -0.5052084 -0.50290185

linear1.bias f4 [32]
00000000: 1e29 42bf 7054 3cbf a6c7 61bf 319d 0fbf
00000010: a1a2 54bf cb3a 3ebf 8178 34bf 012c 48bf
00000020: 8cf7 14bf da7c 1cbf 3153 26bf 9501 2bbf
00000030: 9b7c 4ebf 5b9e 16bf bc13 1cbf 6919 31bf
00000040: ac1d 4abf b6d0 1abf 561d 22bf 85c2 55bf
00000050: c193 52bf ecb0 63bf e6ab 4abf 519a 05bf
00000060: 8bce 5dbf c1f2 3dbf 1303 53bf 9d05 21bf
00000070: 0465 43bf fbec 44bf 0b95 45bf e0b6 43bf
-0.7584399 -0.7356634 -0.88195264 -0.5609923 -0.8306065 -0.7430846 -0.70496374 -0.78192145
-0.58190227 -0.6112801 -0.6497069 -0.6679929 -0.8065888 -0.5883538 -0.6096761 -0.691794
-0.78951526 -0.6047472 -0.63326013 -0.8349994 -0.82256705 -0.88941836 -0.79168546 -0.52188593
-0.86643285 -0.7419854 -0.82426566 -0.6289919 -0.7632601 -0.76924103 -0.77180547 -0.7645092

linear2.weight f4 [10, 32]
00000000: 2a57 12bf 8ab1 51bf aa5c 22bf 55ba afbe
00000010: 0c8c dfbe 42d3 37bf 2826 89bf f3fe 1fbf
00000020: b4d4 34bf 2e63 94bf 8799 12bf 1e8a 24bf
00000030: 4846 0dbf c064 43bf 5a2d 17bf 8acc 5fbf
00000040: 0470 02bf 148d 4bbf bb7b adbf 8782 4ebf
00000050: 3d99 01bf 32e1 83bf a60f 80bf f699 98bf
00000060: b372 45bf afa8 d4be 12e0 90bf c529 91bf
00000070: 9542 31bf 13bb f7be d45e c7be 9b02 3fbf
00000080: fa18 2dbf 1eb4 fabe 085e 28bf 4c63 6dbf
00000090: 649e 55bf 5c73 4cbf 8485 06bf f1e3 50bf
000000a0: 18ce 92bf 83b5 54bf 35ca 13bf 1d4f 76bf
000000b0: 9b39 3abf 6590 87bf 55d1 50bf 68f9 33bf
000000c0: c0d0 21bf 7a11 01bf 3438 71bf b674 cbbe
000000d0: 1f09 32bf 8036 11bf fc6e debe 498c 7dbf
000000e0: e46d 11bf b5e4 39bf eabf 0abf 6079 3ebf
000000f0: ffa0 52bf ff67 71bf 5c15 56bf 046f 5cbf
00000100: 13d9 debe 3ed6 69bf 533e 01bf fe06 6abf
00000110: 70a8 2abf fa6e 40bf 11f4 14bf d22e 42bf
00000120: 07bc 16bf cc6e 81bf 9344 1fbf bd0e a0bf
00000130: 2534 1dbf 70d8 1abf c6e0 48bf 88d6 45bf
00000140: de9f 50bf 4204 4bbf a4ce 3ebf ffb7 80bf
00000150: 1019 22bf f39e 8abf a19a 31bf e0e7 00bf
00000160: ac09 3ebf 4e31 36bf 5017 6fbf 55a5 78bf
00000170: 9e78 03bf e27b 63bf ec93 41bf 5929 e5be
00000180: ff9c 0ebf e08b 47bf e710 1abf 7e4b 41bf
00000190: 6881 7dbf 99df 2ebf 2502 23bf d47e 27bf
000001a0: 6cf2 61bf 453d 15bf e1df 89bf 1e9a 6ebf
000001b0: 1e7e fdbe 98c4 16bf 9cc2 83bf ce2b 5abf
000001c0: 9018 acbe d731 22bf ddba 84bf a1a5 72bf
000001d0: d763 28bf 21e9 2ebf 9f1e 89bf c290 31bf
000001e0: 8216 31bf 3729 18bf 885f 70bf e974 10bf
000001f0: a491 2bbf 0d8c 27bf c1ba 56bf 9571 3ebf
00000200: 378c 38bf 58cf 77bf 09a1 0ebf 2440 70bf
00000210: 4dc2 80bf faaa 37bf 2185 6bbf 6c44 14bf
00000220: d8ac 08bf 4d22 3cbf fd30 79bf 9d40 6fbf
00000230: 9009 41bf 5a94 53bf 28f3 40bf c4b1 41bf
00000240: e010 19bf 7118 45bf f74d 08bf b4e1 7bbf
00000250: 8137 52bf 0a45 67bf 85c6 5fbf 5449 6fbf
00000260: 14e7 03bf 03c6 55bf bdf3 11bf dd93 24bf
00000270: 9924 10bf 3ec3 36bf 7d78 3bbf 4e88 3abf
00000280: 8c34 5abf b95b 53bf 2817 44bf 32ff 11bf
00000290: a525 77bf d6b7 64bf a0c1 36bf 8e7a 61bf
000002a0: 0cd5 6abf d63b 42bf 8af1 4ebf d58c 3dbf
000002b0: d918 11bf a55e 38bf 4f10 83bf 3b38 22bf
000002c0: ad1c 21bf 004c 5cbf 22be 4fbf 227d 4ebf
000002d0: 5124 29bf 9603 73bf 1483 93bf 3374 38bf
000002e0: 829c 33bf 971f 4dbf 7263 66bf 0415 3dbf
000002f0: a13b 32bf d285 20bf c06b 63bf 6c40 08bf
00000300: 11f5 4ebf 6b43 67bf efd3 15bf 05cc 81bf
00000310: a2be 1fbf 087e 35bf 04ab 2cbf 56b9 60bf
00000320: bcc6 1cbf 54bb 16bf e007 67bf b252 8cbf
00000330: 47ea 44bf bcb0 5bbf 80d7 edbe ec2a eebe
00000340: 1f17 d3be a418 6bbf e077 28bf 0f1e 55bf
00000350: bd53 27bf bf8c 41bf 4edc 80bf 7947 7abf
00000360: 86e1 20bf a8a7 25bf b586 7bbf 39ce 89bf
00000370: 93de 11bf 0843 70bf 5051 1bbf 3c97 1cbf
00000380: 0fc8 32bf 5aa3 8bbf 52b2 40bf dd98 84bf
00000390: 6399 28bf 4487 2cbf ba31 44bf 2474 3ebf
000003a0: 95fc 4bbf f42a 1bbf 62a7 c8be 4485 21bf
000003b0: 620d 4ebf 9e3e 6fbf 9052 86bf 3d31 67bf
000003c0: 76b7 edbe 9ddb 07bf d308 6ebf 1030 44bf
000003d0: 10ae 47bf 9bf8 20bf 80b6 76bf c888 41bf
000003e0: 1f35 5bbf 0129 79bf 0aa6 2fbf 4f8d 03bf
000003f0: de12 27bf 37a5 2fbf 8b54 3dbf b237 08bf
-0.5716425 -0.8191153 -0.63422644 -0.34321848 -0.43661535 -0.7180673 -1.0714769 -0.62498397
-0.7063706 -1.1592767 -0.57265514 -0.6427325 -0.55185366 -0.7632561 -0.59053576 -0.87421477
-0.5095217 -0.79512143 -1.3553385 -0.8066792 -0.5062445 -1.0303099 -1.0004776 -1.1921985
-0.7712814 -0.41534945 -1.1318381 -1.1340872 -0.6924222 -0.48384914 -0.38939536 -0.7461335
-0.67616236 -0.48965544 -0.6576848 -0.9272964 -0.8344481 -0.79863524 -0.5254748 -0.8159781
-1.1469145 -0.83089465 -0.5773042 -0.9621447 -0.7274415 -1.0590941 -0.81569415 -0.7030244
-0.6320915 -0.5041729 -0.94226384 -0.3973748 -0.6954517 -0.56723785 -0.4344405 -0.99042183
-0.56808305 -0.72614604 -0.5419909 -0.74403954 -0.8227691 -0.9429931 -0.8362634 -0.86106896
-0.4352499 -0.9134253 -0.50485724 -0.9141692 -0.66663265 -0.75169337 -0.58184916 -0.7585269
-0.58880657 -1.0111938 -0.6221401 -1.2504498 -0.6140769 -0.6048651 -0.7846798 -0.77280474
-0.8149394 -0.7930337 -0.7453406 -1.0056151 -0.6331949 -1.0829757 -0.6937657 -0.50353813
-0.7423351 -0.71168983 -0.9339495 -0.97127277 -0.5135592 -0.88860905 -0.75616336 -0.44758108
-0.5570831 -0.7794781 -0.6018204 -0.75505817 -0.99025583 -0.6830993 -0.6367515 -0.654279
-0.8826053 -0.58296615 -1.0771447 -0.93203914 -0.49510282 -0.5889373 -1.0293765 -0.8522309
-0.3361249 -0.633573 -1.0369526 -0.9478398 -0.65777344 -0.68324476 -1.071247 -0.6936151
-0.6917497 -0.5943789 -0.9389577 -0.5642839 -0.67019105 -0.65448076 -0.83878714 -0.7439206
-0.7208895 -0.96800756 -0.5571447 -0.9384787 -1.0059296 -0.71745265 -0.92000014 -0.57916903
-0.5338874 -0.7348984 -0.97340375 -0.9345797 -0.75405216 -0.8264824 -0.75371027 -0.75661874
-0.59791374 -0.7699042 -0.53243965 -0.9839127 -0.8211594 -0.9033972 -0.8741229 -0.93471265
-0.5152447 -0.83505267 -0.5701254 -0.6428812 -0.56305844 -0.71391666 -0.73230726 -0.72864234
-0.8523643 -0.8256183 -0.76597834 -0.5703002 -0.96541816 -0.8934301 -0.713892 -0.8807763
-0.91731334 -0.7587255 -0.8083731 -0.7404302 -0.5667854 -0.72019416 -1.0239352 -0.6336705
-0.6293438 -0.86053467 -0.81149495 -0.8065969 -0.6607104 -0.94927347 -1.1524377 -0.72052306
-0.70160687 -0.8012633 -0.8999549 -0.7386019 -0.69622236 -0.62704194 -0.8883629 -0.532233
-0.8084269 -0.90337247 -0.5852651 -1.0140387 -0.6240026 -0.70895433 -0.6744845 -0.877828
-0.61240745 -0.5887959 -0.9024639 -1.0962737 -0.7691998 -0.8581655 -0.46453476 -0.46517122
-0.41228577 -0.91834474 -0.65807915 -0.8324899 -0.6536215 -0.75605386 -1.0067232 -0.9776531
-0.6284412 -0.6470895 -0.9825242 -1.0766059 -0.56980246 -0.9385228 -0.6067095 -0.61168265
-0.69836515 -1.0909226 -0.75272095 -1.035915 -0.6585905 -0.673939 -0.76638377 -0.74395967
-0.79682285 -0.60612416 -0.39190203 -0.6309397 -0.8048917 -0.9345492 -1.0493946 -0.90309507
-0.46429032 -0.5306948 -0.92982215 -0.7663584 -0.77999973 -0.6287934 -0.9637222 -0.75599337
-0.8562793 -0.9732819 -0.6861273 -0.51387495 -0.65263164 -0.6861147 -0.7395713 -0.53209984

linear2.bias f4 [10]
00000000: e015 f6be 2ab1 9ebf 2dc7 cabe 387a acbe
00000010: 2c6e 56bf 1621 2fbf 9fd7 1dbf 9d7d 5cbf
00000020: f8d6 c4be 44d9 34bf
-0.48063564 -1.2397816 -0.39605084 -0.33686996 -0.8376186 -0.6840986 -0.61657137 -0.8612917
-0.38445258 -0.7064402
