alternative_rnn_optimizer/training_LSTM_1layer_final_2/meta_optimizer_400epoch.pth (torch_old, 901 bytes, 3 tensors)

linear1.weight f4 [10, 2]
000000 43 a6 8e be c7 e5 74 3e c9 66 f6 be aa e6 ba 3c
       -0.27861223 0.23915778 -0.48125294 0.022815067
000010 e4 cf 6e be ba 4c d7 be 7d c7 25 3f 28 87 8f be
       -0.23321491 -0.42050725 0.6475752 -0.28032804
000020 85 ed ba 3e 46 8b 0f bf 34 5d e4 3e be 0c 3b 3f
       0.36509338 -0.5607189 0.44602358 0.7306632
000030 60 3e 6f bd 30 f6 82 be 78 61 04 bf 77 e7 25 bf
       -0.058409095 -0.2557845 -0.51711226 -0.6480631
000040 0b a2 e1 be da 1e 3b 3c f3 3a 63 be 34 c6 df be
       -0.4406894 0.01142093 -0.22190456 -0.43705904

linear1.bias f4 [10]
000000 d7 3d 76 3d 24 66 ea 3d 6d 91 27 3f 3e d6 80 bf
       0.06011757 0.11445263 0.6545628 -1.0065382
000010 8c 5e 7d bf d6 f8 a7 be 20 9d 96 3e c1 1d 7f 3f
       -0.9897239 -0.32807034 0.29416752 0.99654776
000020 93 dd db 3d 42 f8 05 be
       0.10735621 -0.13082984

linear2.weight f4 [1, 10]
000000 dc 1f 08 be b7 a8 18 bf f9 8a a9 bd 1f ea 47 3f
       -0.13293403 -0.5963244 -0.0827846 0.78091615
000010 b9 8b 0e be 20 8b 1e 3e 07 7e a2 bd a9 41 04 bd
       -0.13920487 0.1548276 -0.07934194 -0.03228918
000020 a9 8e aa be a5 0a 96 be
       -0.33311966 -0.29304996
