alternative_rnn_optimizer/training_LSTM_1layer_final_2/meta_optimizer_100epoch.pth (torch_old, 901 bytes, 3 tensors)

linear1.weight f4 [10, 2]
-0.50898093 -0.26079655 -0.7196991 0.095136 -0.18609807 -0.33684918 0.12549977 0.5613138
0.3454948 -0.48683807 0.4185173 1.2927315 0.0025523347 -0.30629718 0.08986343 -0.28099892
-0.5151222 -0.018258221 -0.4606371 -0.30903357
00000000: 934c 02bf 2087 85be 333e 38bf aad6 c23d
00000010: 7e90 3ebe 7f77 acbe 0383 003e 43b2 0f3f
00000020: b2e4 b03e d742 f9be e647 d63e 3a78 a53f
00000030: 1245 273b fcd2 9cbe 510a b83d 17df 8fbe
00000040: 0cdf 03bf 4492 95bc a0d8 ebbe a639 9ebe

linear1.bias f4 [10]
0.052490328 0.19954115 0.62839293 -0.81304765 -0.5954835 -0.21241984 0.03384321 0.7836491
0.09956265 0.4792137
00000000: 1900 573d 8454 4c3e 5cde 203f e423 50bf
00000010: 9b71 18bf 9684 59be 2e9f 0a3d 3a9d 483f
00000020: 81e7 cb3d 805b f53e

linear2.weight f4 [1, 10]
0.04889856 -0.41914076 -0.09267692 0.3853491 -0.053105574 0.11288605 -0.052694827 -0.1736235
-0.14062922 -0.27863875
00000000: db49 483d 9e99 d6be 66cd bdbd 7a4c c53e
00000010: 3b85 59bd cd30 e73d 88d6 57bd 5cca 31be
00000020: 1b01 10be bda9 8ebe
