alternative_rnn_optimizer/training_RNN_2layer_keepmemory/meta_optimizer_best.pth (torch_old, 901 bytes, 3 tensors)

linear1.weight f4 [10, 2]
0	0xbeca73f4	-0.3954159
1	0xbef4f7e8	-0.47845387
2	0x3ec35b87	0.38155767
3	0x3f03bc6e	0.51459396
4	0xbc01f03e	-0.007930813
5	0x3e821532	0.25406796
6	0x3e9faba7	0.31185648
7	0x3dc694e1	0.09696365
8	0x3e7b077c	0.24514574
9	0x3f5e3e07	0.86813396
10	0xbe90dee5	-0.28295055
11	0xbee7c3d5	-0.45266595
12	0xbcf4a773	-0.029865002
13	0xbeb7ad64	-0.35874474
14	0x3ecf558d	0.40494958
15	0x3eb7b87e	0.35882944
16	0xbd872d0d	-0.0660039
17	0xbe7470e7	-0.23871194
18	0xbd776349	-0.06039742
19	0x3e171e16	0.1475757

linear1.bias f4 [10]
0	0x3e350c2b	0.17680423
1	0xbf1a6ec7	-0.6032528
2	0xbf204e54	-0.6261952
3	0xbe8b2935	-0.27179876
4	0xbf083769	-0.5320955
5	0x3f38d772	0.72203743
6	0x3ee951f0	0.45570326
7	0x3f8de591	1.1085683
8	0x3e1709b5	0.14749797
9	0xbdf6d0a2	-0.12051512

linear2.weight f4 [1, 10]
0	0xbdca88b2	-0.09889354
1	0xbcbb9dac	-0.022902332
2	0xbd805c6d	-0.06267629
3	0x3d5bcd93	0.053662848
4	0x3db3f84b	0.087875925
5	0x3d2f26de	0.042761676
6	0x3d47cea3	0.04878105
7	0x3c4d7d79	0.012542122
8	0x3cacaed5	0.02107946
9	0x3d875b18	0.06609172
