alternative_rnn_optimizer/training_RNN_2layer_keepmemory/meta_model_best.pth (torch_old, 102557 bytes, 4 tensors)

linear1.weight f4 [32, 784]
0.1861291 0.14624238 0.16017288 0.16444758 0.19413441 0.14441487 0.20110178 0.20834678
0.15200433 0.17001867 0.16678292 0.19416162 0.16137761 0.20063645 0.1802614 0.14984667
0.15788281 0.19478989 0.18051392 0.19902122 0.15199038 0.18438736 0.1831102 0.15373957
0.1620962 0.20299089 0.19583806 0.18262666 0.18923268 0.14152193 0.20934102 0.16198412
0.1689659 0.2064209 0.1535382 0.18149188 0.1914596 0.16502252 0.17810199 0.1843524
0.1885261 0.21071142 0.21017459 0.2101709 0.19547018 0.15032178 0.18838009 0.19113514
0.16807964 0.20505992 0.15086418 0.1823797 0.14656645 0.1493513 0.17165577 0.14645141
0.18005571 0.21043998 0.18210825 0.20136493 0.15525815 0.20707709 0.16733176 0.19004798
0.1539985 0.16927135 0.15128636 0.14979213 0.13223866 0.17680782 0.16495724 0.17249234
0.20797467 0.184318 0.17793462 0.18698896 0.16644624 0.18124199 0.1684112 0.19816032
0.20646909 0.16981223 0.20448768 0.19989526 0.1754944 0.15148857 0.18437913 0.16180226
0.14648715 0.19321668 0.186043 0.15201959 0.14039847 0.17195402 0.16207194 0.1286822
0.14042905 0.15051003 0.15370579 0.15884265 0.15023464 0.1428215 0.1812696 0.12381255
0.1622906 0.19443272 0.1922398 0.17301324 0.18859932 0.19267091 0.1550577 0.20710123
0.18422899 0.17422763 0.15230733 0.1945006 0.20958528 0.14486331 0.20881473 0.17081864
0.17037381 0.2067382 0.19817452 0.15286164 0.13348325 0.11285169 0.14684099 0.12829335
0.17004056 0.11520246 0.12924054 0.17309472 0.18424506 0.16699338 0.17942914 0.1424369
0.16359296 0.14581689 0.2092002 0.19006997 0.16579664 0.16523048 0.16674545 0.19897458
0.1795912 0.22418243 0.16794589 0.20221841 0.1649934 0.1622881 0.14240855 0.14240237
0.12140757 0.0956953 0.1399092 0.14779378 0.14032722 0.18207298 0.1408271 0.16125527
0.14854917 0.13573954 0.14726257 0.15027045 0.17361253 0.19247869 0.16700053 0.14323941
0.18500766 0.16882336 0.15051869 0.14416718 0.13891795 0.158753 0.119497 0.12786174
0.11419437 0.09488039 0.12165204 0.17960003 0.102919966 0.0786916 0.09154037 0.086006984
0.07981549 0.07939689 0.060629763 0.09323959 0.13153596 0.22804144 0.18624532 0.16234279
0.1340391 0.17795321 0.1688078 0.20614347 0.20057642 0.19558701 0.19576567 0.16083021
0.15857455 0.16031267 0.09036295 0.09598442 0.08064125 0.073078364 0.14240284 0.17200245
0.16018732 0.051787987 0.09922243 0.0913544 0.050911885 0.08084427 0.05649054 0.09601135
0.1138698 0.14679204 0.16988581 0.16564298 0.17863093 0.20956571 0.15273243 0.1542247
0.20095667 0.16601461 0.158028 0.13991278 0.16970381 0.16387162 0.09209113 0.079222314
0.033970676 0.11725608 0.13097769 0.10842938 0.08800958 0.058618337 0.056333527 0.06711088
0.039450604 0.060436644 0.067768835 0.07357542 0.102600805 0.114495814 0.1462963 0.11447315
0.17883226 0.1855948 0.20072037 0.19249499 0.15754789 0.17836234 0.18748614 0.11509666
00000000: a098 3e3e 90c0 153e 5c04 243e f264 283e
00000010: 2ccb 463e 7ee1 133e a0ed 4d3e dc58 553e
00000020: 06a7 1b3e 6019 2e3e 24c9 2a3e 4ed2 463e
00000030: 2c40 253e a473 4d3e 7296 383e 6871 193e
00000040: 08ac 213e 0077 473e a4d8 383e 38cc 4b3e
00000050: 5ea3 1b3e 0ad0 3c3e 3e81 3b3e e86d 1d3e
00000060: 8cfc 253e d8dc 4f3e c689 483e 7c02 3b3e
00000070: 36c6 413e 20eb 103e 7e5d 563e 2adf 253e
00000080: 6605 2d3e 0060 533e 1e39 1d3e 02d9 393e
00000090: fc0d 443e aafb 283e 5e60 363e e0c6 3c3e
000000a0: fc0c 413e bcc4 573e 0238 573e 0a37 573e
000000b0: 5629 483e f4ed 193e b6e6 403e eeb8 433e
000000c0: 121d 2c3e 3afb 513e 247c 1a3e bec1 3a3e
000000d0: 8415 163e 8cef 183e 88c6 2f3e 5cf7 153e
000000e0: 8660 383e 947d 573e 967a 3a3e 9c32 4e3e
000000f0: fefb 1e3e 040c 543e 0459 2b3e f09b 423e
00000100: c8b1 1d3e 7855 2d3e d0ea 1a3e 1c63 193e
00000110: 9269 073e 1c0d 353e 8dea 283e d5a1 303e
00000120: 50f7 543e dcbd 3c3e 7e34 363e 097a 3f3e
00000130: e270 2a3e 8097 393e fc73 2c3e 8aea 4a3e
00000140: a26c 533e 42e3 2d3e 3865 513e 58b1 4c3e
00000150: ceb4 333e d21f 1b3e e2cd 3c3e 7eaf 253e
00000160: ba00 163e 98da 453e 0e82 3e3e 06ab 1b3e
00000170: 9ec4 0f3e b714 303e 30f6 253e 44c5 033e
00000180: a2cc 0f3e 4d1f 1a3e 0d65 1d3e a6a7 223e
00000190: 1cd7 193e cd3f 123e bd9e 393e 6f91 fd3d
000001a0: 822f 263e 5f19 473e 83da 443e 622a 313e
000001b0: 2e20 413e 864b 453e 72c7 1e3e 5812 543e
000001c0: 86a6 3c3e ba68 323e 74f6 1b3e 2a2b 473e
000001d0: 869d 563e 0c57 143e 87d3 553e 15eb 2e3e
000001e0: 7976 2e3e 2eb3 533e 43ee 4a3e c387 1c3e
000001f0: d5af 083e c91e e73d 7c5d 163e 555f 033e
00000200: 1d1f 2e3e 44ef eb3d a257 043e be3f 313e
00000210: bdaa 3c3e 5000 2b3e 46bc 373e fbda 113e
00000220: ea84 273e 0651 153e 9438 563e b4a1 423e
00000230: 98c6 293e 2e32 293e 52bf 2a3e febf 4b3e
00000240: c1e6 373e 1490 653e 02fa 2b3e 5812 4f3e
00000250: 08f4 283e da2e 263e 8cd3 113e edd1 113e
00000260: 88a4 f83d e6fb c33d 5b44 0f3e 4157 173e
00000270: f0b1 0f3e 5771 3a3e fb34 103e 1a20 253e
00000280: 461d 183e 4eff 0a3e 00cc 163e 7fe0 193e
00000290: 7cc7 313e 2219 453e 3002 2b3e 5aad 123e
000002a0: a672 3d3e 08e0 2c3e 9221 1a3e 90a0 133e
000002b0: 8240 0e3e 2590 223e d8ba f43d 30ee 023e
000002c0: bdde e93d a650 c23d b424 f93d 12e9 373e
000002d0: b4c7 d23d 1029 a13d 8479 bb3d 6e24 b03d
000002e0: 4e76 a33d d69a a23d ea56 783d 66f4 be3d
000002f0: 5db1 063e b283 693e 18b7 3e3e 303d 263e
00000300: 8c41 093e 5e39 363e f4db 2c3e 4617 533e
00000310: e863 4d3e f647 483e cc76 483e adb0 243e
00000320: 5e61 223e 0129 243e 3610 b93d 7b93 c43d
00000330: 3d27 a53d 1caa 953d 0dd2 113e 6921 303e
00000340: 2508 243e a41f 543d 2135 cb3d 0418 bb3d
00000350: fb88 503d ae91 a53d a062 673d 99a1 c43d
00000360: 9234 e93d a750 163e 8cf6 2d3e 509e 293e
00000370: 07eb 363e 6598 563e e465 1c3e 14ed 1d3e
00000380: 96c7 4d3e bcff 293e 18d2 213e 4c45 0f3e
00000390: d6c6 2d3e f6cd 273e 469a bc3d 4f3f a23d
000003a0: d624 0b3d f523 f03d 041f 063e 3910 de3d
000003b0: 5e3e b43d c819 703d fcbd 663d 6e71 893d
000003c0: f596 213d 6a8c 773d 63ca 8a3d b6ae 963d
000003d0: 5f20 d23d c87c ea3d b3ce 153e e670 ea3d
000003e0: ce1f 373e 900c 3e3e a489 4d3e 681d 453e
000003f0: 3c54 213e 9ea4 363e 5efc 3f3e ccb7 eb3d

linear1.bias f4 [32]
0.10758494 -0.076350145 0.0431758 0.017505344 0.011385353 -0.001593411 -0.004886305 -0.049834598
0.016755885 0.0014174469 0.07852459 0.03614199 -0.00019823201 -0.02200699 0.002477754 -0.03640569
-0.008195166 0.07306306 0.03326807 0.0045391917 0.08476255 -0.004429426 -0.07317549 -0.017263595
0.10382265 0.017962772 0.00966993 0.0004693959 0.027992906 0.020186432 -0.03074926 -0.016417421
00000000: 7e55 dc3d 775d 9cbd 1cd9 303d 5e67 8f3c
00000010: a289 3a3c 00da d0ba 4c1d a0bb 5d1f 4cbd
00000020: a343 893c a0c9 b93a 80d1 a03d a009 143d
00000030: 80dc 4fb9 0148 b4bc d061 223b 221e 15bd
00000040: 0445 06bc 16a2 953d 1a44 083d 80bd 943b
00000050: fd97 ad3d b824 91bb 08dd 95bd 626c 8dbc
00000060: f8a0 d43d aa26 933c a06e 1e3c 4019 f639
00000070: 6151 e53c 045e a53c dfe5 fbbc d47d 86bc

linear2.weight f4 [10, 32]
0.0026402157 -0.3750039 -0.028547367 -0.04472561 -0.28633344 0.041548464 -0.08856785 -0.05408536
-0.06618718 -0.326035 -0.08042569 0.030958157 -0.2928023 -0.023856597 0.09533225 -0.37444556
-0.09387542 -0.373546 0.010871831 0.08998929 0.00858606 0.13731717 0.017083809 0.13060339
-0.1652858 0.07489321 -0.47545424 -0.27042428 -0.15143716 -0.22310936 -0.2166135 -0.004933547
0.24511585 0.062341645 0.056637313 -0.19913258 0.029756917 -0.3426913 -0.16606507 -0.31560633
-0.32360438 0.05669441 -0.04810098 0.27190566 -0.4291285 -0.1770601 -0.26389554 0.19476748
-0.2246291 -0.09581287 0.12013872 -0.5466767 0.03160946 -0.24958488 -0.46056068 -0.22280379
0.07586179 -0.18033677 0.08683155 -0.42166248 -0.25965232 0.13964054 0.010081774 -0.43939152
0.12085825 -0.22035785 0.22640093 -0.3930478 -0.060925238 0.1253724 -0.35657942 -0.33965555
-0.05055954 0.092815295 -0.15464956 0.16794139 -0.4589188 -0.22689229 -0.13338298 0.11951336
-0.44613427 0.12970515 -0.051463842 0.034297578 0.12702893 -0.20127556 0.10198678 -0.33331996
0.043544233 -0.2091673 -0.33387876 0.19371964 -0.027932065 0.00443648 0.06699713 -0.14838839
0.08411671 0.17566541 0.19160947 -0.06770034 -0.16778736 -0.31869566 0.069259435 0.031419173
-0.46074122 -0.10345622 -0.050656844 0.0047856662 0.014594864 -0.3338587 -0.2199421 -0.28759328
-0.17871198 0.06678888 -0.22272095 -0.41923577 0.08064346 -0.333883 0.05322977 -0.33548188
0.013800073 -0.0063697565 -0.41093612 -0.2636247 -0.023496121 0.13422078 -0.3148683 -0.3361045
0.006860299 -0.15434344 -0.03867495 -0.020643957 0.05676478 0.2275859 -0.1115871 -0.27117792
-0.07104387 -0.20290646 -0.22048083 -0.035633676 0.08681249 0.090332925 -0.59090126 -0.34170198
-0.0029165614 -0.32888746 -0.36898497 -0.24872363 0.112495005 -0.25338742 -0.14660543 -0.33711824
-0.14698994 -0.42245182 0.018588843 -0.256297 -0.15077764 -0.32017237 -0.19356182 0.18346217
-0.08438181 -0.3485067 0.15235339 -0.10386214 -0.00733521 -0.264901 0.08543968 0.22367384
-0.27447468 -0.21297416 -0.07742065 -0.10185744 -0.0045981277 -0.120693654 -0.13296193 0.079754844
-0.20564647 -0.10410402 -0.1312503 -0.45582762 -0.041889444 -0.37740016 0.10113149 0.14844257
-0.2563077 0.058416136 -0.0036048088 -0.50381196 -0.083017185 -0.18050034 -0.06674014 -0.16629
-0.06552109 -0.42242166 0.19255519 -0.6197124 0.005033696 0.08345049 -0.052348133 -0.042976514
0.106053516 -0.34427387 0.16766609 0.094334476 -0.3836349 0.02003347 -0.3257427 -0.07922687
-0.20849508 -0.3762883 -0.25282848 -0.18997672 0.012030667 -0.24314101 -0.33321327 0.09698421
0.20211026 -0.15093641 -0.2133158 0.17817084 0.038947284 -0.06389074 -0.4206321 0.010881251
0.09008017 0.1687303 0.1563642 0.25924814 -0.41565895 -0.30835345 -0.2571264 -0.12654983
0.13569672 -0.12288739 -0.17187995 0.16938068 0.17385761 -0.24413326 -0.17920744 -0.027708182
-0.28817257 -0.09666661 -0.012523491 -0.36932996 0.054493282 0.13095567 -0.28603175 -0.00074696913
-0.36679032 -0.20244476 0.18615264 -0.4712017 0.010165557 -0.17358835 0.2096803 0.06659323
00000000: 7807 2d3b 8300 c0be 2bdc e9bc 3432 37bd
00000010: 4c9a 92be b92e 2a3d 1063 b5bd 9c88 5dbd
00000020: 258d 87bd 0fee a6be 39b6 a4bd f69b fd3c
00000030: 2fea 95be e96e c3bc 8e3d c33d 54b7 bfbe
00000040: c241 c0bd 6c41 bfbe c41f 323c 4e4c b83d
00000050: 8cac 0c3c df9c 0c3e 58f3 8b3c e5bc 053e
00000060: ae40 29be 9c61 993d bd6e f3be 0d75 8abe
00000070: 5812 1bbe c876 64be eecf 5dbe 98a9 a1bb
00000080: a6ff 7a3e f459 7f3d 87fc 673d 69e9 4bbe
00000090: c7c4 f33c 3c75 afbe f60c 2abe 2797 a1be
000000a0: 79af a5be 6638 683d 8905 45bd 3837 8b3e
000000b0: bbb6 dbbe 3e4f 35be 511d 87be 2071 473e
000000c0: 2c05 66be 8a39 c4bd 4a0b f63d 01f3 0bbf
000000d0: ec78 013d 2e93 7fbe 9cce ebbe ad26 64be
000000e0: 6d5d 9b3d 34aa 38be bdd4 b13d 25e4 d7be
000000f0: 26f1 84be eefd 0e3e 062e 253c edf7 e0be
00000100: 8884 f73d 7da5 61be a5d5 673e 903d c9be
00000110: be8c 79bd 9f61 003e 9491 b6be 55e7 adbe
00000120: 8517 4fbd f215 be3d 745c 1ebe d4f8 2b3e
00000130: 68f7 eabe 7456 68be 8c95 08be 6cc3 f43d
00000140: b66b e4be 6dd1 043e c0cb 52bd 9e7b 0c3d
00000150: df13 023e 2e1b 4ebe 72de d03d eaa8 aabe
00000160: 705b 323d f42f 56be 28f2 aabe 715e 463e
00000170: c9d1 e4bc e45f 913b cb35 893d 20f3 17be
00000180: 6245 ac3d a2e1 333e 4635 443e 7aa6 8abd
00000190: 73d0 2bbe 142c a3be e4d7 8d3d 64b1 003d
000001a0: 46e6 ebbe dbe0 d3bd 8d7d 4fbd 14d1 9c3b
000001b0: 4c1f 6f3c 87ef aabe 8038 61be 6d3f 93be
000001c0: 4600 37be 9cc8 883d f610 64be 12a6 d6be
000001d0: 6628 a53d b6f2 aabe 7607 5a3d 48c4 abbe
000001e0: b419 623c 64b9 d0bb 3866 d2be d1f9 86be
000001f0: f07a c0bc 2c71 093e 6b36 a1be e415 acbe
00000200: 5ccc e03b 350c 1ebe a069 1ebd 841d a9bc
00000210: 3082 683d 470c 693e c787 e4bd d5d7 8abe
00000220: 737f 91bd b6c6 4fbe bac5 61be 9ef4 11bd
00000230: bfca b13d 7800 b93d 4e45 17bf 90f3 aebe
00000240: c823 3fbb f063 a8be 99eb bcbe 68b1 7ebe
00000250: c863 e63d ffbb 81be bc1f 16be c39a acbe
00000260: 8884 16be 9b4b d8be a147 983c 5c39 83be
00000270: 7465 1abe a2ed a3be 1235 46be 82dd 3b3e
00000280: 5fd0 acbd 786f b2be 8702 1c3e acb5 d4bd
00000290: 345c f0bb 1ba1 87be 00fb ae3d c10a 653e
000002a0: f287 8cbe e615 5abe b88e 9ebd a29a d0bd
000002b0: e4ab 96bb 3c2e f7bd 2c27 08be 8256 a33d
000002c0: fd94 52be 7d34 d5bd 7b66 06be 3d62 e9be
000002d0: 4494 2bbd 983a c1be 071e cf3d 5401 183e
000002e0: c33a 83be c245 6f3d a83e 6cbb d2f9 00bf
000002f0: ea04 aabd 15d5 38be 0eaf 88bd ed47 2abe
00000300: ec2f 86bd a747 d8be 302d 453e 79a5 1ebf
00000310: b4f1 a43b 17e8 aa3d ff6a 56bd 2408 30bd
00000320: 9632 d93d aa44 b0be a9b0 2b3e 6f32 c13d
00000330: cb6b c4be 3b1d a43c bfc7 a6be b241 a2bd
00000340: bc7f 55be dca8 c0be bc72 81be 4289 42be
00000350: 461c 453c f5f9 78be ee9a aabe a89f c63d
00000360: fef5 4e3e 138f 1abe 756f 5abe 6b72 363e
00000370: 3087 1f3d 26d9 82bd 175d d7be 4647 323c
00000380: f47b b83d a3c7 2c3e f01d 203e 2cbc 843e
00000390: 40d1 d4be 81e0 9dbe 12a6 83be 4796 01be
000003a0: 15f4 0a3e 62ac fbbd 4c01 30be 2172 2d3e
000003b0: bb07 323e 12fe 79be 2882 37be 45fc e2bc
000003c0: 5b8b 93be 25f9 c5bd 542f 4dbc d118 bdbe
000003d0: 5934 5f3d 3e19 063e c172 92be 40d0 43ba
000003e0: f1cb bbbe ae4d 4fbe cc9e 3e3e 5941 f1be
000003f0: 708d 263c 25c1 31be 6fb6 563e 0862 883d

linear2.bias f4 [10]
-0.17384017 -0.17248952 -0.053237006 0.011730464 0.047960885 -0.061762292 -0.026088709 -0.0773899
0.16449812 0.05660644
00000000: 2803 32be 18a1 30be 0c0f 5abd 2231 403c
00000010: a272 443d 75fa 7cbd fdb7 d5bc 997e 9ebd
00000020: 3272 283e 28dc 673d
