alternative_rnn_optimizer/training_GRU_1layer_final_2/meta_model_best.pth (torch_old, 102557 bytes, 4 tensors)

linear1.weight f4 [32, 784]
00000000: 27cc 0ebc 6c4a ba3c f7e7 3fbc 4665 9abc
00000010: a6cb dabc 7f71 84bb 7f1c 46bc f78e 25bc
00000020: 781a d53b d09d f73a a7bf 09bc 8eca f5bb
00000030: 906c 913a ac32 0e3c 12f7 893b 58ec 1d3c
00000040: ac28 28bd 5bb4 09bd 0068 01b8 4f2f bbbb
00000050: 9396 833b ae8a 34bb 30b6 963c db82 39bd
00000060: 0f32 d9bb 277c 0ebc 2156 693c dc9f 30bd
00000070: 5fc9 6dbc c441 30bd 76e2 f5bc cfb5 b1bb
00000080: 5031 f43b 3044 b1bc 2027 beba c2e6 a0bc
00000090: 4068 c0bc 8783 693c f0b9 c03a 2ca2 85bc
000000a0: 0049 dcb9 5896 72bc ac97 063c d39c 1cbc
000000b0: 84c1 b23c 8b89 04bc 9c18 863c e399 05bd
000000c0: f4a5 b83c 5a1c 9a3b 4767 6e3c 787e 083c
000000d0: 2064 d6ba 109e a13c ff13 7ebc 911c 02bd
000000e0: b04b d63b d89e 983c 7bea 163c 4bde 39bd
000000f0: 7816 c9bc c0c4 243c 64fd 9b3c 5621 c73c
00000100: 7cff 993c 6ed8 18bd d022 bdbc 74b6 2d3c
00000110: 52e0 493c 03af 8abc b7b9 81bd 46b9 dbbc
00000120: b12d 0bbd 4c69 383b 6e04 64bc 5cf3 eeba
00000130: e2f2 c1bc ba82 f0bc 7e02 e8bc 0a6f 38bd
00000140: 009f 5cb9 f04f 963c 068d 18bd f68e a9bc
00000150: c865 e53b 67cf 6ebc 4c1d ba3c 6053 343c
00000160: 096f 0fbd af67 c7bb a77a 64bc e81e 5b3c
00000170: 440f a33c 10c7 f8bc 2a2f 13bd c04d 60bb
00000180: 9a39 3dbc 4ea8 b2bd e7c4 3ebd 1804 69bd
00000190: cd4c 2abd 3c4b 24bd 99fa 39bc 1008 90bd
000001a0: da1b 90bc 7ccf 40bc 2c1b 31bc f584 0ebd
000001b0: 987b bf3c 077a 3fbd 3bae 14bd e0f2 99ba
000001c0: 3e87 283c b375 6c3c c4a0 27bd c717 26bc
000001d0: 5242 963b f9c4 04bd 50bb 4bba ba96 38bb
000001e0: 34c7 ba3a 5ea1 35bc 2e0b 39bc a826 3bbc
000001f0: b224 5cbd ec0d c5bc 07b2 87bd 8ec1 c1bc
00000200: 323e 263d ae09 31bd 79f4 61bd da65 21bc
00000210: d49b 043b a253 a6bd d981 12bd 0c4b 15bc
00000220: dd6e 273c 03cc a7bc a0fa a8ba 3c4d 5d3c
00000230: c0e3 c2bc 4e3e 53bb b303 853b 70bb 00bb
00000240: 7c45 9e3c 2a94 88bc 9eda 32bd 0249 c5bc
00000250: e5ad d03c 3e6a 61bd 577f 963c c733 f5bb
00000260: db86 cebd 1e62 6cbd f601 14bd 7208 89bd
00000270: 4086 1639 6a0d eabc 3aff 25bc 321a e7bc
00000280: 50b1 aa39 1a3a c3bd e90c 87bd 0ffd 593c
00000290: 449a 6dbb ea7c 34bd e282 143b 441f be3c
000002a0: 265a e7bc 376d 00bc 5612 f9bc acd0 6bbc
000002b0: 6819 ddbc 48ba 0ebb 2c63 21bc 5a6c 6d3c
000002c0: 7d2b 0dbd 11ba 17bd 3e61 9bbc 36ad 80bd
000002d0: 3a16 77bd ed86 d0bd 76b6 01be 8681 67be
000002e0: 3f80 2cbe 96c1 56bd 1619 efbc b1a6 8e3d
000002f0: f1e8 d8bb ff36 1ebd 86d5 5cbd 36f1 05bd
00000300: ac96 f1bc 22e2 633b 12b5 1abd 4e3c a9bc
00000310: c676 5b3b 90c1 b23c 5ff7 6ebc e041 313c
00000320: 1502 b33b 21ed 00bd 84e3 04bd 5049 d0b9
00000330: 475e 94bc cae4 cbbb e735 9cbd 3e5b a7bd
00000340: f30f d9bd eca8 97bd 82d2 86be 3bca 3bbe
00000350: 9ad1 3bbe c88e ccbd 277c 16bd de59 54bd
00000360: fa43 5f3d e39c 6ebc 22ce bf3b d73a f93c
00000370: c280 d73b b3a6 843c fe9c a83c d2a0 acbc
00000380: ba54 e7bc bf81 bbbb b89f bebc 4ce5 6cbd
00000390: b356 1fbd a9ce efbc 5c9d 5dbd 3f2e 70bd
000003a0: 2334 88bd 3e7c 92bc 4796 02bd 9acc c3bd
000003b0: dbf1 f2bd 0119 81be d41b 77be be6b 1dbe
000003c0: 6c4d 3ebd 94d3 9dbd 405d 9b39 3f46 c6bd
000003d0: cfbd 883c ca86 813d c6f6 8c3d 2ec5 0c3e
000003e0: cadb 443d 6112 a33c c91b c6bc 882e e53b
000003f0: 0857 9a3c f523 13bd 4c3b d0bc 38aa 2e3c
-0.008715666 0.022740565 -0.01171302 -0.018847119 -0.026708435 -0.00404185 -0.012091755 -0.010104886
0.0065033995 0.0018891636 -0.00840751 -0.007500953 0.0011094976 0.008679073 0.0042103613 0.009638868
-0.041054413 -0.033619266 -3.0852854e-05 -0.0057124267 0.0040157526 -0.002754848 0.01839742 -0.04529081
-0.006628282 -0.008696592 0.014241726 -0.043121204 -0.014513343 -0.04303147 -0.030015212 -0.0054232846
0.0074521676 -0.02163896 -0.001450751 -0.019641284 -0.02348721 0.01425255 0.0014703851 -0.016312681
-0.0004201606 -0.014806353 0.008214872 -0.009558874 0.021820791 -0.008089433 0.016369157 -0.03261746
0.02254007 0.004703087 0.01455099 0.008330934 -0.0016356744 0.01972869 -0.015507697 -0.031765524
0.0065397844 0.01863043 0.009211178 -0.04537801 -0.024546847 0.0100566745 0.019041725 0.024307888
0.018798582 -0.03731578 -0.023087889 0.010602582 0.012321549 -0.016929155 -0.063342504 -0.026821744
-0.03397912 0.0028138934 -0.013917072 -0.0018230486 -0.023675386 -0.02935921 -0.0283215 -0.04502777
-0.00021040067 0.018348664 -0.037243865 -0.020698052 0.0070006587 -0.014575816 0.022719048 0.011006206
-0.035018 -0.006085358 -0.013945258 0.013374068 0.01990474 -0.030368358 -0.03593365 -0.003422603
-0.011549378 -0.08723508 -0.0465745 -0.05688867 -0.04157715 -0.04011081 -0.011351251 -0.07032788
-0.017591406 -0.011768218 -0.010809701 -0.034794766 0.023374364 -0.046747234 -0.03629897 -0.0011745356
0.0102861505 0.014432359 -0.040924802 -0.010137505 0.0045855427 -0.03241441 -0.0007771747 -0.0028166012
0.0014250041 -0.011085836 -0.011294169 -0.011422791 -0.053745933 -0.02405449 -0.06625753 -0.023651864
0.040586658 -0.043222122 -0.055164788 -0.009850943 0.0020234482 -0.081214204 -0.035768364 -0.009112131
0.010219303 -0.020483023 -0.0012892075 0.013507184 -0.02379024 -0.0032233181 0.004059279 -0.0019642971
0.019320242 -0.016672213 -0.04366552 -0.024082664 0.025473544 -0.05503296 0.018371267 -0.007482979
-0.100843154 -0.05771076 -0.036134683 -0.06691064 0.00014355127 -0.02857085 -0.010131652 -0.028210733
0.00032557035 -0.09532566 -0.06594259 0.013304963 -0.003625528 -0.04406444 0.002266102 0.023208268
-0.028241228 -0.007838539 -0.030404251 -0.014393013 -0.026989654 -0.0021778513 -0.009850305 0.014491165
-0.0344653 -0.03704268 -0.018967267 -0.06283037 -0.06032393 -0.10181985 -0.1266726 -0.22608003
-0.16845797 -0.05243071 -0.029186767 0.069653876 -0.0066195657 -0.038626667 -0.05391457 -0.03270074
-0.029490791 0.0034772237 -0.03777034 -0.020658638 0.0033487543 0.021820813 -0.014585345 0.0108189285
0.0054628947 -0.031476144 -0.03244354 -0.00039727474 -0.018111361 -0.006222342 -0.076274686 -0.081717
-0.10598745 -0.07405266 -0.2633248 -0.18338864 -0.18341675 -0.09988171 -0.036739495 -0.051843517
0.054508187 -0.014563772 0.0058534304 0.030423565 0.0065766284 0.01619277 0.020582672 -0.021072779
-0.028238643 -0.005722254 -0.02326952 -0.057835862 -0.038901042 -0.029273348 -0.054105148 -0.058637854
-0.06650569 -0.017881509 -0.031881597 -0.09560509 -0.118625365 -0.2521439 -0.2413171 -0.15373132
-0.046460554 -0.07706371 0.0002963338 -0.09681367 0.01669207 0.06324537 0.06883006 0.13747093
0.04806117 0.019906225 -0.02418317 0.0069940723 0.018840328 -0.035922963 -0.0254189 0.0106607005

linear1.bias f4 [32]
00000000: 5f9a 4cbd 1c67 943c f7e3 2a3c 493a c43b
00000010: 5832 feb9 283b 2e3d 40f0 1ebc 89ba 95bc
00000020: 36f3 83bc 8ea7 c93a 0a33 0bbd a636 44bc
00000030: 4fb0 2ebd 43e1 57bd 0e4e 91bc 2d1e f3bc
00000040: 155a 00be cf97 55bd 9a27 d4bc 61bd 60bd
00000050: 2d44 0bbd e7a1 e4bd 6303 80bc ab9e af3d
00000060: 53d2 49bd 15b4 3cbd e868 6c3b f218 f8ba
00000070: 18b8 4ebd d768 02bd fea3 f63c c8fe 6cba
-0.049951907 0.018115573 0.010430328 0.0059883934 -0.00048484164 0.042536885 -0.009700835 -0.018277423
-0.016107183 0.0015385018 -0.03398422 -0.01197592 -0.04264861 -0.05270506 -0.017737415 -0.029677475
-0.12534364 -0.05214673 -0.02589779 -0.054868106 -0.034000564 -0.11163693 -0.015626615 0.085751854
-0.049272846 -0.046070177 0.0036073271 -0.0018928333 -0.050468534 -0.031838264 0.030107494 -0.0009040651

linear2.weight f4 [10, 32]
00000000: 167f c7bd 1a5e 66be 628c 15bf 8e84 bdbe
00000010: e227 70bd d121 aabe 503a 0dbe afb1 9abe
00000020: 7e87 b0be 5580 4b3d 33b1 01bf 3fe9 bebe
00000030: 1e44 bdbd f44b d2be b80d f5bd 835a 5b3e
00000040: 8e0d a5be 5dbe 9fbe 0696 883d 3005 67be
00000050: 7d5c 86be 614f b1be 0730 323d cb14 7bbe
00000060: 9169 99be a41d 3bbe c16e fbbe ffce f6be
00000070: bd1a 96be 01bb c6be 4edc dfbe 05e9 59bd
00000080: 43c7 9dbe 0879 aabe e765 003e d694 15be
00000090: f676 bbbe 6b93 5cbd 9ef4 8fbd 3853 b8be
000000a0: 569d 46be 7b83 a0be ac6c bbbe 9243 133e
000000b0: fc59 5dbd c646 f03d e109 63bd e25c 7fbb
000000c0: 93cf 61bd 6c67 713e a26e 9fbe a4be cdbe
000000d0: 4be9 7cbd 8606 4abe 43c8 a5be 459f 2cbe
000000e0: d207 d2bd 34b4 dabe 0a00 383c b758 ccbd
000000f0: 16f5 57be 0cd5 03bd 95cb bfbd 8149 69be
00000100: 9945 bdbe 80e5 dbbe 67cd 39be 5c2f 443e
00000110: 7c93 da3d 8593 9bbd efc5 8bbe 7e58 42bd
00000120: 8181 d1be 673d afbe 472d d4be d9e8 c4be
00000130: f3fe babe 4ce5 0cbe 8a82 03bd 564a b9be
00000140: dd4f 0ebf 216a ccbe 3d83 0cbe 6822 f9be
00000150: 104b 193e c948 48be e069 f8bd 63c2 1fbe
00000160: 1b6d 44be 8cfa 7cbe 8f50 4fbe 49c2 bcbd
00000170: 1503 bfbe e2b5 293d 30da ebbe 3eeb 12bd
00000180: 3de0 c9be 1078 cb3d 3f35 2dbd 68bf b2be
00000190: 76a7 f03d 8634 73bd 78fc 023e a1b4 c1bd
000001a0: 1eeb 6d3d 2fa2 86be 1e82 21be edcd c3be
000001b0: 4d8f 2cbe 0f46 2abd 7680 5d3d 72ed d6be
000001c0: b3f6 bbbe 1651 02bf 59e2 8cbe d51d 71be
000001d0: 7629 493d 395d 6fbe 0adf 81be 5721 0dbe
000001e0: cd55 883d 565c 0bbf ae90 b1be 045d b5be
000001f0: fbc3 12bf 2f5d 0cbd 9c8f e9be 8fd5 923d
00000200: b3ee 20be 0e07 0dbe 38ae 56be 2699 1dbe
00000210: f9cc 12be f36c 53be 27e1 293d b9fb 393c
00000220: e5e0 5fbe 2824 36be 897f d2be 751a c6be
00000230: 08e4 163d ab95 02bf ac5a a4be b444 97be
00000240: 984d 55be e62b 31be c91e 78be d82d c13d
00000250: b58d b6be f108 d8be 1db2 febd a49b 1dbe
00000260: d90f 93be 22ee dbbe 0fe4 dfbd fc72 9b3d
00000270: 4f5d 123e 02da b7be 468f 9abd 6bea b4be
00000280: f78b f2bd 5938 213d f81a 75be e628 da3b
00000290: 2da9 8dbe 59cf a7bd a406 8b3d 46fc 30be
000002a0: 1be9 653d f028 11bd f794 54be 2b4a 52bd
000002b0: 28b6 a0bb d643 3dbe 3008 6bbe e4bb d9be
000002c0: 486b 18be 35d9 5bbe deae 083d 130e aebe
000002d0: 66f2 20be b44e b0be 6a78 84be 1c79 debd
000002e0: 116f 33bd 9b0d 8fbe a2e4 a9be 4df4 d3bd
000002f0: 53d5 81be 9708 f0be 3242 d4be 56bd 42be
00000300: 8ab2 babe 5a6e e8be 6781 edbe a0eb ab38
00000310: 8cff 75be 515c 0bbe ad5a 37be ed8d a5bd
00000320: 7eb5 b0bd 8add 34bd 2c6c ecbe 7ab0 9f3c
00000330: 0457 4a3d 48d0 c3be acfb ebbe 3f12 07be
00000340: bc84 6abe 4fff b4be 196b 88be 3687 3ebe
00000350: e281 bfbd 04c1 4cbe 4616 af3c 27b7 4bbe
00000360: bf58 ccbe bd87 003e 0fca 04bd 043b 6a3a
00000370: 2ad4 01bf 6c55 bfbe 0572 9dbe 4962 24bd
00000380: cd0c bdbe 11bc 073d 1fa9 61be 041a 5fbe
00000390: 04d3 d9bd e02e 53be 945e 8ebe f6a9 a6be
000003a0: 0610 bb3c 73e2 8abe 49b1 3fbe fa16 40be
000003b0: 581a c3be 6389 863d 703c babe b6c0 d2be
000003c0: 92f2 d5be 0fda efbe 2b79 a3bd 301b 8b3d
000003d0: be0c dbbe 69f5 81be 0133 68be 18f2 6b3d
000003e0: 3575 13bd a4d9 abbe 4341 56be 8465 f2be
000003f0: 2cdb 62be 7141 6fbe 4f12 233d e7ec 17be
-0.097410366 -0.22496834 -0.5841733 -0.37015194 -0.058631785 -0.33228925 -0.13791776 -0.30213687
-0.34478372 0.049682934 -0.5066101 -0.37287328 -0.09241508 -0.41073573 -0.11965507 0.21421246
-0.32236904 -0.31199923 0.0666924 -0.22560573 -0.26242438 -0.34630874 0.043502834 -0.2451965
-0.29963353 -0.18273026 -0.49107936 -0.482048 -0.29317275 -0.38814548 -0.43722767 -0.05320074
-0.30816087 -0.33295465 0.12538873 -0.14607558 -0.36614197 -0.053851526 -0.07029079 -0.3600099
-0.19395956 -0.31350312 -0.36606348 0.14381245 -0.054040894 0.11732249 -0.055429343 -0.0038965275
-0.0551296 0.23574609 -0.31139094 -0.4018451 -0.061745923 -0.19729051 -0.3237935 -0.16857632
-0.10255398 -0.4271561 0.011230478 -0.099778585 -0.21089587 -0.0321856 -0.09365002 -0.22781946
-0.3696716 -0.42948532 -0.18144761 0.19158691 0.10672662 -0.075964965 -0.2729945 -0.047447674
-0.40919116 -0.34226534 -0.41440794 -0.384589 -0.36522636 -0.13759345 -0.032106914 -0.36189526
-0.5559061 -0.3992472 -0.13721938 -0.48659062 0.1497004 -0.19559015 -0.12129569 -0.15601496
-0.19182245 -0.24704951 -0.20245574 -0.092167445 -0.3730704 0.041433223 -0.460649 -0.035868876
-0.39428893 0.099350095 -0.042287108 -0.34911656 0.11750691 -0.059376262 0.12791622 -0.0945828
0.058085553 -0.2629561 -0.15772292 -0.38243046 -0.1685154 -0.04157072 0.054077588 -0.4197803
-0.36711654 -0.5090498 -0.2751644 -0.23546536 0.049111806 -0.23375405 -0.25365478 -0.1378225
0.0665699 -0.5443777 -0.34680694 -0.35422528 -0.5733029 -0.034268554 -0.45617378 0.07169639
-0.15716057 -0.13772222 -0.20964897 -0.15390453 -0.14336003 -0.2064703 0.041474488 0.011351519
-0.21863134 -0.1778723 -0.41112927 -0.3869206 0.03683856 -0.51009625 -0.32100427 -0.29544604
-0.20830381 -0.17301902 -0.24230494 0.09432572 -0.3565499 -0.42194322 -0.12436316 -0.15391403
-0.28723028 -0.42955118 -0.109321706 0.07590291 0.14293407 -0.35908514 -0.075468585 -0.35335097
-0.118431024 0.039360378 -0.23936069 0.0066577075 -0.27668133 -0.08193845 0.06788376 -0.17283735
0.05613051 -0.03543943 -0.2075995 -0.051340263 -0.004904527 -0.18482909 -0.22952342 -0.42526162
-0.14884675 -0.21469577 0.03336989 -0.33995113 -0.15717468 -0.34435046 -0.2587312 -0.108629435
-0.043807093 -0.27940068 -0.33182245 -0.10349331 -0.25358066 -0.46881554 -0.41456753 -0.19017538
-0.3646434 -0.45396692 -0.4638779 8.197804e-05 -0.24023265 -0.13609435 -0.17905684 -0.08083711
-0.08628367 -0.04415659 -0.4617628 0.01949333 0.04939939 -0.38244843 -0.46090448 -0.13190554
-0.22902197 -0.35351035 -0.2664421 -0.18606266 -0.09350945 -0.19995505 0.021372925 -0.19894086
-0.39911458 0.1255178 -0.03241926 0.00089351856 -0.5071436 -0.3736986 -0.30751052 -0.040132795
-0.3692383 0.03313834 -0.22037171 -0.21787268 -0.10635951 -0.2062335 -0.27806532 -0.32551545
0.022834789 -0.27125892 -0.18719973 -0.18758765 -0.38106036 0.06569173 -0.36374235 -0.41162652
-0.4178663 -0.46846053 -0.07982095 0.06792295 -0.4278316 -0.25382546 -0.22675706 0.057603925
-0.03600045 -0.33564484 -0.20923333 -0.47343075 -0.2215392 -0.23364808 0.039812382 -0.14836465

linear2.bias f4 [10]
00000000: c1c4 1e3d e86b 51be 65e2 5abe 59a5 dbbd
00000010: 98fd 8a3d 3a1c 08be 2076 34be f3bd e9bd
00000020: 749b b03d 4de6 b9bb
0.038761858 -0.20451319 -0.21375425 -0.10724897 0.067866504 -0.13292018 -0.17623186 -0.11413183
0.086234 -0.005673206
