alternative_rnn_optimizer/training_GRU_1layer_final_2/meta_optimizer_100epoch.pth (torch_old, 901 bytes, 3 tensors)

linear1.weight f4 [10, 2]
00000000: 4877 c13d 0a53 863d db48 e6bd ebb1 53be
00000010: b3f0 abbe 8755 a5be 72fe 74bd db68 633f
00000020: 13aa bd3e d510 933e bcae 693e e745 94be
00000030: d5b4 b5bd d2ab b43e 7606 45bf 8ab1 95be
00000040: edeb 79be 35f1 c83e 870a 1bbf 88d0 243f
0.09446579 0.06558807 -0.11244365 -0.20673339 -0.33582076 -0.32291815 -0.05981297 0.8883187
0.3704382 0.2872378 0.22820562 -0.2895958 -0.088723816 0.35287338 -0.76962984 -0.29237014
-0.24406405 0.39246526 -0.6056294 0.64380693

linear1.bias f4 [10]
00000000: 643b 9b3e e0d8 b23d 9265 763e de88 823e
00000010: d762 ec3e df6d b73e e7f7 f33d aa6c 8fbe
00000020: d2f8 f53e 3f8a 90be
0.3031875 0.08732772 0.24062183 0.25495046 0.4616916 0.35826012 0.11912518 -0.28012592
0.48041397 -0.28230473

linear2.weight f4 [1, 10]
00000000: e1d0 c4bd 3175 323e 5527 ed3d fa7e 0cbe
00000010: a04f 3e3e 9495 2f3c daaa 703d 0e2a 88be
00000020: fc30 1fbd c3cd 41be
-0.09610153 0.17427517 0.115797676 -0.13720313 0.18585062 0.010716815 0.058756687 -0.26594585
-0.038865075 -0.18926148
