alternative_rnn_optimizer/training_GRU_1layer_final_2/meta_optimizer_last.pth (torch_old, 901 bytes, 3 tensors)

linear1.weight f4 [10, 2]
00000000: 85f1 e53d 802b 183e 63a6 8fbd 972a 24be
00000010: 7a09 8cbe cb56 9bbe 85b4 b83b f516 6c3f
00000020: 0942 043f 61f0 443e 935a 953e faf0 3ebe
00000030: e4b2 c0bd 6a76 653e 3366 51bf 2ce4 b2be
00000040: 2682 82be bdd5 fd3e 88e1 22bf 3e18 093f
0.11227707 0.14860344 -0.070141576 -0.16031872 -0.2735098 -0.30339655 0.005636754 0.9222253
0.5166326 0.19232322 0.29170665 -0.18646613 -0.09409121 0.22408453 -0.8179657 -0.34939706
-0.2548992 0.49577132 -0.63625383 0.53552616

linear1.bias f4 [10]
00000000: ed0b a13e 4e46 b83d e40e 573e 5dda 683e
00000010: d40c fc3e f291 b13e e798 e03d 3b65 73be
00000020: b949 fe3e 7160 6fbe
0.3145441 0.089977846 0.21001774 0.22739549 0.49228537 0.3468166 0.10966664 -0.23769085
0.4966562 -0.23376633

linear2.weight f4 [1, 10]
00000000: 2df2 16be 17a6 503e 21be 133e 9bb2 4abe
00000010: 60e9 623e 596e ccbd 7157 2e3e 4b3f bdbe
00000020: 7fde c0bd 3c8e 59be
-0.1474082 0.20375858 0.14427997 -0.19794695 0.22159338 -0.09981985 0.17025544 -0.3696235
-0.09417438 -0.21245664
