alternative_rnn_optimizer/training_LSTM_2layer_keepmemory/meta_model_best.pth (torch_old, 102557 bytes, 4 tensors)

linear1.weight f4 [32, 784]
000000 26 a9 da bc 3c 4c 82 bd fc c9 0f bd 0c c9 12 bd
       -0.026691984 -0.06362197 -0.035104737 -0.035836264
000010 c8 0e 10 bd 80 62 ac bd b0 ca 9f bd 00 a3 87 bd
       -0.035170346 -0.08417225 -0.078023314 -0.06622887
000020 35 cd 24 bd 95 c3 76 bd 14 a5 a9 bd b7 37 8c bd
       -0.040234763 -0.060245115 -0.08283439 -0.06846564
000030 b6 e0 b2 bc c8 aa aa bc 88 7f b0 bd a3 40 44 bd
       -0.021835666 -0.020833388 -0.08618075 -0.047913205
000040 9b c1 64 bd c8 fc a5 bc 9c 15 af bd f4 85 9c bc
       -0.0558487 -0.020262137 -0.085490435 -0.019106843
000050 ac 6f 15 bd 1c 3c fe bc 6f 6d 61 bd 6b d7 5e bd
       -0.03648345 -0.031034522 -0.055036005 -0.054404657
000060 9e 0c 22 bd 28 6e a2 bd 68 0d b5 bd 8f 40 5d bd
       -0.039562814 -0.07931167 -0.08840448 -0.054016646
000070 0e 28 c9 bc 6f cd 27 bd 66 70 a0 bd c8 6e 06 bd
       -0.024555232 -0.0409674 -0.07833938 -0.032820493
000080 75 25 5b bd 1c d8 a3 bc aa 08 ca bc 75 b1 38 bd
       -0.05350252 -0.02000051 -0.024662334 -0.04509111
000090 31 a3 6a bd 22 85 97 bd d1 fd 88 bd 23 73 81 bd
       -0.057284538 -0.0739844 -0.06689037 -0.06320789
0000a0 10 cc 67 bd df b0 58 bd 0e da a1 bd 34 43 80 bd
       -0.056591094 -0.052903052 -0.07902919 -0.06262818
0000b0 88 e1 8f bd f4 f1 56 bd 20 30 75 bd d2 29 fc bc
       -0.070254385 -0.05247684 -0.05986035 -0.03078166
0000c0 1c 36 49 bd 76 71 05 bd f3 01 4e bd e1 90 50 bd
       -0.04912387 -0.032578908 -0.050294828 -0.050919417
0000d0 4e d7 9a bd c9 42 7d bd 86 62 c8 bc 12 36 94 bd
       -0.07560597 -0.06183127 -0.024461042 -0.072368756
0000e0 3a fa 98 bd e3 57 77 bd 07 cd 33 bd a9 77 50 bd
       -0.07469602 -0.06038655 -0.0438967 -0.050895367
0000f0 35 99 73 bd f1 c0 1b bd 31 e2 1f bd 4d e0 a7 bd
       -0.05947228 -0.0380258 -0.039034072 -0.08197079
000100 92 d4 c3 bc cf 94 ac bd f4 b2 11 bd 57 d8 bb bd
       -0.023905072 -0.084268205 -0.035571054 -0.09172123
000110 97 d3 b8 bd ad 11 b4 bd ca e8 8e bd f3 10 5c bd
       -0.090247326 -0.08792434 -0.06977995 -0.0537271
000120 15 31 76 bd 01 6e 9e bd b5 ce 37 bd 1b e4 8c bd
       -0.060105402 -0.07735825 -0.044874866 -0.06879445
000130 00 f8 5c bd 85 57 2c bd 69 86 92 bd 27 eb 8a bd
       -0.05394745 -0.042075653 -0.07154543 -0.06783133
000140 3b f1 31 bd ae 12 9c bd b9 37 3d bd 02 ec e3 bc
       -0.043442946 -0.0762075 -0.04619572 -0.027822498
000150 43 01 18 bd 1c 07 af bd 20 82 b1 bd 0d 24 25 bd
       -0.03711058 -0.08546278 -0.086673975 -0.040317584
000160 a0 75 e9 bc 29 b1 13 bd 14 b8 57 bd f8 06 1a bd
       -0.02849847 -0.036057625 -0.052665785 -0.037604302
000170 c2 87 a8 bd 2e df c8 bd 41 fe bf bd 65 c6 97 bd
       -0.08229019 -0.09808193 -0.09374667 -0.07410888
000180 e6 47 97 bd 6e 94 4f bd 5f 70 9a bd 21 cd 23 bd
       -0.073867604 -0.050678663 -0.07540964 -0.039990548
000190 e5 ae f0 bd a9 bf 80 bd a9 02 b5 bd 23 99 51 bd
       -0.117521085 -0.06286556 -0.08838398 -0.051171433
0001a0 6a 67 26 bd ef e2 92 bd 61 38 45 bd e2 4d 56 bd
       -0.040625967 -0.071721904 -0.04814947 -0.05232037
0001b0 c8 fb b7 bd 5c a1 70 bd c4 20 88 bd 38 32 a0 bd
       -0.0898357 -0.058747634 -0.066468745 -0.078220785
0001c0 f0 6f 30 bd a1 cb 72 bd fe 43 22 bd a3 e7 18 bd
       -0.043075502 -0.059276227 -0.039615624 -0.03733028
0001d0 71 1d 65 bd 04 06 a3 bd ad 18 43 bd 22 70 e5 bd
       -0.05593628 -0.07960132 -0.047630955 -0.11203028
0001e0 5d 23 5b bd 51 a8 d5 bd da e6 9d bd ff f9 3c bd
       -0.053500522 -0.104324944 -0.07710047 -0.046136852
0001f0 b2 c9 55 bd df b0 cb bd 2c 4c b5 bd 51 4d 0a bd
       -0.052194305 -0.09945845 -0.08852419 -0.03376514
000200 f8 5e 41 bd e4 e8 dc bc d0 79 99 39 30 49 3c bd
       -0.04720971 -0.02696652 0.00029273191 -0.045968235
000210 0c 22 5a bd 7a 36 ed bc 5b bf 1f bd ff a9 bf bc
       -0.053255126 -0.02895664 -0.03900085 -0.02339649
000220 72 ab 49 bd 89 43 93 bd 98 8a 9c bc 0a c6 63 bd
       -0.04923577 -0.07190616 -0.019109055 -0.055608787
000230 6e 07 b7 bd f1 48 65 bd c5 c8 4b bd 04 0b 2e bd
       -0.08936964 -0.055977765 -0.049752016 -0.042490974
000240 08 86 33 bd a6 40 68 bd 68 1b ec bd 40 3f f1 bd
       -0.043828994 -0.05670228 -0.11528665 -0.11779642
000250 ec db d7 bd bb 95 b1 bd a3 6d 71 bd 15 c7 b1 bb
       -0.10539994 -0.08671137 -0.05894245 -0.0054253438
000260 96 c4 93 bd 47 f8 94 bc 16 2b 62 bc c8 ec 51 3a
       -0.0721523 -0.018184794 -0.013804218 0.00080080004
000270 73 2d 0e 3d f1 db ab bb 18 08 fc bc 75 e5 09 3d
       0.034711313 -0.005244725 -0.030765578 0.033666093
000280 d8 5c 24 ba 5d 18 3c 3c ee 56 f0 3c e6 44 e1 3c
       -0.00062699383 0.011480418 0.029338326 0.027498674
000290 02 c3 2b bd 15 af 91 bd d6 36 a3 bd c4 43 ec bc
       -0.04193402 -0.07113472 -0.079694435 -0.028840907
0002a0 5f b1 64 bd d4 59 94 bd 9d fe 8e bd 41 75 1a bd
       -0.055833217 -0.07243696 -0.069821574 -0.03770948
0002b0 e8 38 eb bc 21 d9 a8 bd a0 7c 83 bd 39 49 7d bd
       -0.028713658 -0.08244539 -0.06420255 -0.06183741
0002c0 63 8b 65 bd 8a b9 a6 bd c9 95 18 bd ee b1 06 bd
       -0.056041133 -0.081408575 -0.03725222 -0.03288453
0002d0 06 ab 2f 3c 90 75 d3 3a 30 1d 00 3d b7 c9 08 3d
       0.0107219275 0.0016133059 0.031277835 0.033395495
0002e0 87 29 6e bc b8 cf 08 3d 4e fa 13 3c 0b 31 1b 3c
       -0.014536268 0.03340122 0.009031845 0.009472142
0002f0 fd 00 de bb 39 97 e5 3c 0f 3b 2d 3d e9 eb b1 3c
       -0.00677502 0.02802621 0.04229265 0.021718936
000300 c6 87 b5 bc 7b 74 44 bd fe 6e 07 bd b8 9d 42 bd
       -0.022159468 -0.047962647 -0.033064835 -0.047513694
000310 20 b7 9c bd fd 47 27 bd 07 3d 10 bd 89 ad b3 bd
       -0.07652116 -0.040840138 -0.03521445 -0.087733336
000320 76 12 73 bd 5f 12 90 bd 25 04 d5 bd 49 41 95 bd
       -0.059343778 -0.07034754 -0.10401181 -0.07287843
000330 5c fc 86 bd 74 28 03 bd 00 8d 6a bc b6 10 29 bc
       -0.065911025 -0.032021 -0.014315844 -0.010318926
000340 c3 2e 2c bd df 7e bf bc f7 da 3b 3d 9a f0 44 3c
       -0.042036783 -0.023375927 0.045863118 0.0120202545
000350 c3 3f 9c 3c 0a 4a d2 3c f2 8e fc 3c a4 25 94 3d
       0.019073373 0.02567007 0.03082988 0.07233742
000360 13 51 9e 3c f4 f8 f9 3c 68 ce 80 3d 09 40 78 3d
       0.019325769 0.030514218 0.06289369 0.060607944
000370 14 df 24 3d 17 6f 21 3d 2f 31 ac bc e1 b6 a5 bd
       0.040251806 0.039412584 -0.021019546 -0.08091522
000380 7d f0 27 bd 3b 3a 60 bd 84 2a 99 bd dc 2d a1 bd
       -0.041000832 -0.054743033 -0.07478812 -0.07870075
000390 fe 7c e2 bd 79 40 d4 bd 5e 85 9b bd 20 dc 76 bd
       -0.110589966 -0.1036386 -0.07593797 -0.06026852
0003a0 88 cf 9d bb 5c fa 71 bb 80 7d a6 ba e0 09 ad 3c
       -0.0048159994 -0.0036922907 -0.0012702197 0.021122873
0003b0 9a a4 0d 3d 83 ad eb bc 80 08 82 bc f3 c7 cd bc
       0.034580804 -0.02876926 -0.015873194 -0.025119757
0003c0 72 b4 4a bc d6 05 bf bb 28 2f 13 ba 9c b4 6f 3c
       -0.012372123 -0.005829553 -0.0005614632 0.014630463
0003d0 da fd e5 3c fc dd 67 3d 38 eb 5e 3d 50 0e 76 3d
       0.028075147 0.056608185 0.05442354 0.060072243
0003e0 d7 d4 a1 3d e8 e4 77 3a 07 27 d8 bc b9 04 56 bd
       0.07901924 0.0009456412 -0.026385797 -0.052250598
0003f0 d8 58 95 bd eb 13 7d bd d0 79 7f bd 87 75 ac bd
       -0.07292336 -0.061786573 -0.06237203 -0.08420854

linear1.bias f4 [32]
000000 24 2d 4e 3b 06 44 ca bc 54 01 5f bb 20 a7 34 bd
       0.0031460011 -0.02469064 -0.0034027891 -0.044104695
000010 7c 2e 91 bc 1c 2c 5a 3d f8 4e 8b 3c 2f d4 2e 3c
       -0.01772236 0.053264722 0.017005429 0.010670706
000020 80 eb 26 bc 1d 14 c5 bc fb 7b dd bc 4b 14 02 bd
       -0.0101879835 -0.024057442 -0.027036658 -0.031757634
000030 de cf ec bc 00 75 c7 bb 79 62 8d 3c 53 f4 2b bc
       -0.028907713 -0.0060869455 0.01725887 -0.010495263
000040 8b 13 22 3d aa 75 03 bd c4 39 12 bd 74 08 89 3c
       0.03956942 -0.032094635 -0.03569962 0.016727664
000050 c8 72 bd ba 18 13 81 3c d1 d6 1b bd 2d 28 86 bc
       -0.0014453763 0.015756175 -0.03804666 -0.01637658
000060 58 c9 64 3c 4a 74 12 3d d0 4d d7 bb 27 37 2f 3d
       0.01396402 0.035755433 -0.0065705553 0.042777207
000070 02 fe 4f 3c 55 95 1d bd e4 4b b3 3c ee 9a ec bc
       0.0126948375 -0.038472492 0.021886773 -0.02888247

linear2.weight f4 [10, 32]
000000 52 aa ac 3d 40 c7 82 b9 65 ce af bd 04 9e 4e bd
       0.084309235 -0.00024943985 -0.085842885 -0.050443664
000010 bc 7a 22 be 9d 2e 98 bd 96 f1 1f be 75 95 4a be
       -0.15867132 -0.07430766 -0.15619501 -0.19783576
000020 a9 3f 86 be 08 ee 15 bb e7 77 bd 3d c9 17 a3 be
       -0.26220444 -0.0022877473 0.09251385 -0.31854084
000030 c2 dd 6b bd 2f 78 3a be 07 28 ff 3c cf 5f 74 be
       -0.05758453 -0.18209909 0.031147016 -0.23864673
000040 e3 30 a8 3d 38 17 aa bb 29 84 92 3d 4a ba 36 be
       0.082124494 -0.005190756 0.07154114 -0.17844501
000050 10 8e 38 bd 76 68 02 be 05 4c 96 3d f9 e0 32 be
       -0.045057356 -0.12735161 0.07338718 -0.17468633
000060 e8 35 f3 3a a1 73 aa bc c4 1a a4 bc d2 c7 85 3d
       0.0018555494 -0.02080709 -0.020032294 0.06532253
000070 ef 7f 98 be 49 04 da bd 20 26 36 be 21 a2 f3 bd
       -0.29785106 -0.106453486 -0.17787981 -0.11896158
000080 da 56 18 be d7 67 81 bd 22 da 81 be e6 d4 2b be
       -0.14876881 -0.06318634 -0.25361735 -0.16780433
000090 c6 d3 3a be 89 22 03 3e 7b 59 a8 bd b4 b5 b5 3d
       -0.18244848 0.12806143 -0.08220192 0.08872548
0000a0 72 5a 02 bd 98 67 75 be 68 4c 93 be 07 00 4f be
       -0.031824537 -0.23965299 -0.2876923 -0.20214854
0000b0 41 3d d3 3d 02 b6 80 3d 9f ce 13 3d 34 09 1e be
       0.10314418 0.06284715 0.03608572 -0.15433198
0000c0 67 4a 3f 3e 71 18 86 be b5 20 f9 bd f8 a6 c8 bc
       0.18680726 -0.26190522 -0.121644415 -0.02449368
0000d0 73 e7 01 bd df df b8 bd 73 08 91 be 86 e3 0c 3e
       -0.031714868 -0.09027075 -0.2832676 0.13758668
0000e0 33 2b e2 bd 55 11 81 bc 5d 0c 26 be 1e ae 84 3d
       -0.11043396 -0.015755335 -0.16215654 0.06478523
0000f0 64 bd 7a 3d 42 46 06 be 0b eb 06 be 35 05 2d bc
       0.061215773 -0.13112739 -0.131756 -0.0105603235
000100 86 a6 8a be a4 ef 9e 3d d8 23 a3 bd 9f 21 60 be
       -0.27080172 0.077605516 -0.07965821 -0.21887825
000110 89 f8 ae 3c ea 6c 09 3e 05 01 6d bd 3c bf 57 be
       0.021358745 0.13420454 -0.0578623 -0.21069044
000120 6b b2 9d bc 71 e6 7a be c4 55 7d 3b 27 f9 94 3d
       -0.019250115 -0.24501969 0.0038655857 0.072740845
000130 08 b2 44 3d b4 38 29 be a6 28 7a be a7 70 b9 3d
       0.048021346 -0.16525537 -0.24429569 0.0905469
000140 7c a6 17 3e 66 3d af bc a5 b7 03 3e 7a 24 93 bd
       0.14809602 -0.021391582 0.12863024 -0.07184692
000150 b3 7a 09 bd f7 12 6e be ab 43 1a 3d 89 6a 88 3d
       -0.03356428 -0.23249422 0.03766219 0.06660945
000160 ed 62 5f be b8 95 e7 3d 18 a4 70 bc 4d bd bc 3d
       -0.21815081 0.113078535 -0.0146875605 0.09215794
000170 ad 8e 9e bd dc ed 4e bd 90 6f a5 3d ee 65 c9 3d
       -0.07742057 -0.05051981 0.080779195 0.09833895
000180 b9 ed 20 be 68 a1 4b be a1 e6 01 be c7 07 09 3e
       -0.15715684 -0.1988579 -0.12685634 0.13381873
000190 f3 38 04 3e c5 e3 d1 bd 4c 0c a0 be 3e 48 56 3d
       0.1291235 -0.10248522 -0.31259382 0.05231499
0001a0 ff 2e c1 3d e5 a1 83 be 9f 88 88 bc 5e 1a 25 3d
       0.09432792 -0.25709453 -0.016666709 0.04030835
0001b0 7a b9 46 3d 48 38 d7 3d 59 2f 3a be 77 61 af bd
       0.048516728 0.10508782 -0.18182124 -0.08563512
0001c0 c5 88 4c 3e 73 72 79 be 9b 23 4e 3d ee a6 82 be
       0.19974048 -0.24360065 0.050326925 -0.25517982
0001d0 df 05 78 bd c9 53 5b be 66 96 8d bd a1 2b f1 bb
       -0.060552474 -0.2141868 -0.06913452 -0.0073599373
0001e0 de 34 8c bd 0c 40 96 bc ee e8 28 be 30 01 0e bc
       -0.06846021 -0.018341087 -0.16495106 -0.008667275
0001f0 67 14 03 be d1 c7 14 be b5 61 58 bc d7 72 c4 3b
       -0.12800752 -0.14529349 -0.013206889 0.0059951353
000200 15 b1 02 be bc af 87 be 21 03 55 be 26 12 86 bc
       -0.12762864 -0.26501262 -0.20801975 -0.016366076
000210 67 93 56 be a0 92 8a bc 46 dc 46 3d ae 49 7b bd
       -0.20954667 -0.01691562 0.048549913 -0.061349563
000220 52 1c c5 3d 3c c9 5e be 5f df a2 3d 09 76 ef bc
       0.09624542 -0.21756452 0.07952761 -0.029231088
000230 9b 3c e3 bd ba 9a e4 bd 53 e3 39 be 27 22 80 3d
       -0.11095544 -0.11162324 -0.18153124 0.06256514
000240 7f bb 10 3e d0 8d 3d 3c 86 2f 32 be 91 1a f7 3c
       0.14134024 0.011569455 -0.17400941 0.030164035
000250 db 7e 27 be 74 eb 19 3c d7 c8 7f bd 39 7b 6f be
       -0.16356985 0.009394515 -0.062447395 -0.2338685
000260 dc be 97 3d ac 34 06 bd c4 2b 6a be c1 a0 9a be
       0.074094504 -0.032765076 -0.22868258 -0.3020077
000270 c8 be 47 3d 21 2e 58 be 19 40 23 be 7f 76 90 bd
       0.048765928 -0.21111347 -0.1594242 -0.07053851
000280 ae 14 42 3e b4 6c 07 be 62 8c fa 3c ff 83 87 bc
       0.18953201 -0.1322506 0.030584518 -0.016542433
000290 b0 61 70 3d 99 d7 85 bd 60 56 f4 bd ee 7c 09 3e
       0.058686912 -0.065352626 -0.11930537 0.13426563
0002a0 58 2d de 3a 86 3b 13 3e c8 15 ee 3b 1a ec 63 be
       0.0016950769 0.14378175 0.00726578 -0.22258034
0002b0 22 41 6a be e5 67 c0 3c 67 ee 8c bd d9 8f 57 3d
       -0.22876409 0.02348704 -0.06881409 0.05262742
0002c0 88 68 e4 3c 44 35 1a be 24 62 c7 bd 73 04 63 be
       0.027881876 -0.15059382 -0.09735516 -0.22169666
0002d0 13 ff 42 be 40 52 1d be 5b 50 30 be b6 d2 7b be
       -0.19042616 -0.15363407 -0.17218153 -0.24592099
0002e0 00 cd bd 37 a6 53 cd 3d 39 4f 8b be 3f fb 8d be
       2.2626016e-05 0.1002572 -0.2720888 -0.27730748
0002f0 a0 a8 0b be a9 f8 bf 3d 50 9e de bd 2c a3 11 3d
       -0.13638544 0.093736 -0.108700395 0.035556003
000300 30 98 60 be 32 ed 64 bc 26 f0 dd 3d a0 a4 6c be
       -0.21933055 -0.013972567 0.1083682 -0.23109674
000310 ad 55 9d be d4 7b d3 3c 87 c6 a7 3d 59 e4 b6 bd
       -0.30729428 0.025815882 0.08192163 -0.089302726
000320 8b af 42 be 30 86 49 be b4 4f 80 3d a3 64 27 be
       -0.19012277 -0.19680095 0.06265202 -0.16346984
000330 82 76 5e 3d 28 45 3d 3a 96 26 83 be 38 92 7a ba
       0.054312237 0.0007220083 -0.25615376 -0.00095585315
000340 70 a6 f2 bc 5e a3 72 be 20 96 66 be f6 f7 63 be
       -0.02962038 -0.23695132 -0.22518206 -0.22262558
000350 cd 9b 97 be 8a b8 ca 3b 65 1a 1f 3d 96 69 3c bc
       -0.29611054 0.0061865496 0.03884353 -0.011499783
000360 f0 18 2c be ff b4 b0 bd da ef 7d be 74 56 a4 3d
       -0.16806388 -0.08628272 -0.24798527 0.08024302
000370 f2 50 1c 3e 91 2b 2a 3e 7a 3c 24 3e 09 00 f4 3c
       0.15265253 0.16618182 0.16038695 0.029785173
000380 5c 25 3c be a0 38 66 be 2e b5 df bd 62 08 cd bd
       -0.18373626 -0.22482538 -0.10923229 -0.100113645
000390 4c 37 11 3e f8 cd a1 bc 64 14 56 be c8 c7 96 be
       0.1418125 -0.019751534 -0.20906216 -0.29449296
0003a0 db 42 95 be 0e 1c 36 be ec f5 26 bd 90 55 c9 bd
       -0.2915257 -0.1778414 -0.040761873 -0.09830773
0003b0 74 ca 5e 3c 55 af 2a 3e ec 9a da bd bc cd 7c be
       0.013598073 0.16668446 -0.1067408 -0.24687856
0003c0 1a a3 6c 3d 34 49 fb bd cd 46 6d bd dd a5 f3 3d
       0.057772733 -0.12269822 -0.05792885 0.1189687
0003d0 bc 16 69 3c 79 4f 88 3d e5 f6 10 be a4 6b c3 3d
       0.014226612 0.06655783 -0.14156683 0.09542015
0003e0 a9 c4 b4 3d 81 c6 80 be c7 5b 13 bd 11 cc 8c 3c
       0.088265724 -0.25151446 -0.035976198 0.01718715
0003f0 96 d4 9e be b3 6c 23 be b7 2a be 3d f0 9f 90 be
       -0.31021565 -0.15959434 0.09285491 -0.28247023

linear2.bias f4 [10]
000000 1d 11 8f be 34 6f 1c 3e d7 3b 48 be 3a f3 8e 3d
       -0.27942744 0.15276796 -0.19554077 0.069799855
000010 fe 12 ad 3d 08 8a 89 3d aa 63 7b 3d d9 0d 55 bd
       0.08450888 0.067157805 0.061374344 -0.05201516
000020 b4 c8 81 be 32 1e f9 3c
       -0.25348437 0.030409906
