alternative_rnn_optimizer/training_LSTM_2layer_keepmemory/meta_model_last.pth (torch_old, 102495 bytes, 4 tensors)

linear1.weight f4 [32, 784]
0.46016365 0.45495498 0.43671465 0.41361886 0.44268543 0.47037166 0.40829659 0.4400279
0.41366023 0.46220815 0.46891052 0.4253264 0.45646432 0.4543437 0.4547377 0.4504465
0.43089157 0.40598541 0.4615146 0.46765321 0.46929508 0.46775597 0.42260575 0.4726683
0.4576463 0.46067554 0.43567598 0.42607796 0.4157104 0.4152074 0.47289693 0.41943842
0.4129042 0.45882905 0.4029382 0.43391535 0.3988092 0.41762662 0.4720164 0.4328902
0.47178504 0.4736708 0.4115704 0.42960918 0.42363876 0.433024 0.47073483 0.40403473
0.39333433 0.43138376 0.41233334 0.43549383 0.42438078 0.41837835 0.47093028 0.44475156
0.43708456 0.4275062 0.42028826 0.4510629 0.42561352 0.47002578 0.44873884 0.41991982
0.41357568 0.44362098 0.45266965 0.45458373 0.4628391 0.4781348 0.485293 0.49149096
0.40061188 0.36816406 0.37288463 0.33825243 0.35285142 0.37582624 0.40483207 0.46145383
0.4172976 0.44498134 0.41675568 0.4457541 0.40796268 0.43727863 0.4690743 0.4134251
0.46331495 0.4328844 0.454694 0.461846 0.4167601 0.4632913 0.48857844 0.46182597
0.42379504 0.43451098 0.5171254 0.5800283 0.59051013 0.44976625 0.4238401 0.4039822
0.3811109 0.38993576 0.41763142 0.4618445 0.4234532 0.40992355 0.44951218 0.47108668
0.45158458 0.43961978 0.4153788 0.4197107 0.4517489 0.46365038 0.4260792 0.53644437
0.506782 0.51577455 0.5007944 0.44090924 0.44780597 0.4683061 0.52678406 0.45546794
0.3287837 0.25213936 0.28617877 0.30845752 0.41900158 0.39777535 0.41835868 0.3937881
0.4039147 0.40998626 0.45253748 0.47089618 0.4040447 0.4309675 0.41961724 0.46409142
0.42296973 0.45615125 0.4730068 0.5257814 0.5567334 0.43989483 0.32610372 0.2706921
0.2348641 0.2728833 0.3455633 0.3741292 0.34296417 0.28890637 0.20921971 0.13075526
0.2480285 0.37062734 0.36008888 0.4010714 0.39735746 0.44978213 0.44665766 0.41948974
0.43013072 0.4538765 0.43804884 0.4427087 0.49498367 0.51500505 0.4046242 0.43159974
0.3642922 0.34953013 0.21526882 0.2038138 0.1644302 0.26039055 0.25082913 0.26709157
0.24026728 0.27906457 0.30413112 0.20111847 0.2737655 0.36835814 0.39890385 0.38511813
0.3403337 0.45519322 0.44956398 0.40964156 0.46868813 0.47123837 0.45680165 0.40948817
0.44465184 0.4428982 0.36301985 0.38043836 0.17415915 0.2801042 0.14643331 0.106539115
0.2867186 0.22569534 0.19269028 0.30082828 0.21695116 0.27858958 0.1872579 0.26544943
0.38379505 0.39637154 0.41601604 0.45920604 0.43284836 0.42547527 0.4457531 0.4500695
0.4673708 0.42201078 0.4111691 0.44119096 0.4363184 0.38914585 0.3629768 0.30312052
0.28078598 0.16469777 0.18838538 0.1509606 0.20933728 0.16057736 0.20922917 0.19224408
0.14281903 0.16853191 0.17021066 0.34131387 0.30593225 0.3717326 0.47394264 0.46299386
0.4093144 0.41007504 0.46058047 0.4505459 0.40523744 0.46343565 0.42149317 0.42872614
00000000: 929a eb3e dcef e83e 1099 df3e dac5 d33e
00000010: aaa7 e23e 8ed4 f03e 400c d13e 564b e13e
00000020: 46cb d33e 8ca6 ec3e 0a15 f03e 62c4 d93e
00000030: b1b5 e93e bd9f e83e 61d3 e83e eca0 e63e
00000040: d29d dc3e 52dd cf3e a44b ec3e 3e70 ef3e
00000050: 7247 f03e b67d ef3e c85f d83e 9401 f23e
00000060: 9e50 ea3e aadd eb3e ec10 df3e e426 da3e
00000070: fed7 d43e 1096 d43e 8c1f f23e a2c0 d63e
00000080: 2e68 d33e a4eb ea3e ea4d ce3e 272a de3e
00000090: b830 cc3e 28d3 d53e 22ac f13e c9a3 dd3e
000000a0: cf8d f13e fb84 f23e 5bb9 d23e bcf5 db3e
000000b0: 2ee7 d83e 52b5 dd3e 2804 f13e a4dd ce3e
000000c0: 1e63 c93e 55de dc3e 5b1d d33e 0cf9 de3e
000000d0: 7048 d93e b035 d63e c61d f13e 7ab6 e33e
000000e0: 8cc9 df3e 18e2 da3e 0630 d73e b7f1 e63e
000000f0: 04ea d93e 38a7 f03e 19c1 e53e bbff d63e
00000100: 31c0 d33e 4a22 e33e 51c4 e73e 33bf e83e
00000110: 3ff9 ec3e 16ce f43e 5378 f83e b4a4 fb3e
00000120: 001d cd3e 0080 bc3e bcea be3e 6c2f ad3e
00000130: f1a8 b43e 4c6c c03e 2646 cf3e ad43 ec3e
00000140: 08a8 d53e 98d4 e33e 0061 d53e e239 e43e
00000150: 7ce0 d03e fce2 df3e 822a f03e 74ac d33e
00000160: 9e37 ed3e 06a3 dd3e a7cd e83e 1477 ec3e
00000170: 9461 d53e 8434 ed3e f426 fa3e 7474 ec3e
00000180: aafb d83e 3978 de3e 5562 043f bc7c 143f
00000190: ac2b 173f c347 e63e 9201 d93e c1d6 ce3e
000001a0: f820 c33e a9a5 c73e c9d3 d53e e276 ec3e
000001b0: dcce d83e 80e1 d13e 7626 e63e 4632 f13e
000001c0: 1836 e73e d815 e13e 88ac d43e 52e4 d63e
000001d0: a24b e73e 9563 ed3e 0e27 da3e 6b54 093f
000001e0: 77bc 013f cd09 043f 1034 003f dbbe e13e
000001f0: d346 e53e d1c5 ef3e 52db 063f 1833 e93e
00000200: 5656 a83e 6918 813e 0686 923e 25ee 9d3e
00000210: 6087 d63e 36a9 cb3e 1c33 d63e 989e c93e
00000220: e8cd ce3e b8e9 d13e feb2 e73e 4e19 f13e
00000230: f2de ce3e c6a7 dc3e 12d8 d63e 649d ed3e
00000240: 7d8f d83e a88c e93e f32d f23e 9c99 063f
00000250: 1586 0e3f e539 e13e 11f7 a63e 2898 8a3e
00000260: 3780 703e 5cb7 8b3e aced b03e dd8d bf3e
00000270: 0099 af3e 89eb 933e b13d 563e b5e4 053e
00000280: 2ffb 7d3e dec2 bd3e 925d b83e 3b59 cd3e
00000290: 7072 cb3e d849 e63e 50b0 e43e 5cc7 d63e
000002a0: 183a dc3e 8062 e83e f047 e03e b7aa e23e
000002b0: 806e fd3e 5fd7 033f e72a cf3e a4fa dc3e
000002c0: 8284 ba3e 9df5 b23e 6e6f 5c3e 91b4 503e
000002d0: 6460 283e e951 853e ad6c 803e 3ac0 883e
000002e0: a008 763e 8de1 8e3e 13b7 9b3e 00f2 4d3e
000002f0: fe2a 8c3e 7099 bc3e 203d cc3e 342e c53e
00000300: 3840 ae3e 160f e93e 402d e63e 8abc d13e
00000310: e4f7 ef3e 2846 f13e e8e1 e93e 6fa8 d13e
00000320: 68a9 e33e 8ec3 e23e bddd b93e d1c8 c23e
00000330: c756 323e d169 8f3e 9df2 153e 2e31 da3d
00000340: c8cc 923e ae1c 673e 9a50 453e 2a06 9a3e
00000350: 7228 5e3e 4ba3 8e3e 89c0 3f3e fde8 873e
00000360: c980 c43e 36f1 ca3e 0e00 d53e 0e1d eb3e
00000370: 4d9e dd3e e5d7 d93e c039 e43e 826f e63e
00000380: 3a4b ef3e cc11 d83e c284 d23e c8e3 e13e
00000390: 2065 df3e 203e c73e 18d8 b93e 9d32 9b3e
000003a0: 2ec3 8f3e 88a6 283e 19e8 403e 6a95 1a3e
000003b0: 835c 563e 646e 243e 2c40 563e a2db 443e
000003c0: 273f 123e a193 2c3e b44b 2e3e b1c0 ae3e
000003d0: 27a3 9c3e bc53 be3e 9ca8 f23e 880d ed3e
000003e0: a891 d13e 5bf5 d13e 34d1 eb3e f4ad e63e
000003f0: 487b cf3e 7047 ed3e f4cd d73e fe81 db3e

linear1.bias f4 [32]
0.1934144 0.26719826 0.2832641 0.21649368 0.24312872 0.28057492 0.2847177 0.2100697
0.20369545 0.31786257 0.26302725 0.3347374 0.21057245 0.28839576 0.20622925 0.2804801
0.2898123 0.24525969 0.23574716 0.26237482 0.23398633 0.34498444 0.18500306 0.27661246
0.24931653 0.25836977 0.1902389 0.31269714 0.22076644 0.23218557 0.3313414 0.21732149
00000000: 6d0e 463e 36ce 883e fe07 913e 85b0 5d3e
00000010: bcf6 783e 84a7 8f3e 85c6 913e 831c 573e
00000020: 8a95 503e e2be a23e 82ab 863e b362 ab3e
00000030: 4ea0 573e 9ca8 933e c32d 533e 169b 8f3e
00000040: 4762 943e 5b25 7b3e b467 713e fe55 863e
00000050: 1d9a 6f3e cda1 b03e 7171 3d3e 26a0 8d3e
00000060: d54c 7f3e 0b49 843e fccd 423e d719 a03e
00000070: 9910 623e 0ec2 6d3e 94a5 a93e 8689 5e3e

linear2.weight f4 [10, 32]
0.49817514 0.33196563 0.4847258 -0.12822583 -0.045495614 0.33162132 0.20209475 0.2742154
-0.012769869 0.3613906 0.5560972 0.5953556 0.301218 0.025474913 -0.0303228 -0.102618575
0.5506418 0.26482704 0.10813165 0.05712483 0.39239076 0.57329977 0.2707239 0.3250647
0.1997015 0.09197985 0.18631984 0.41840044 -0.004150998 0.31470615 0.573438 0.369195
0.3309607 -0.14920731 0.070437945 0.030089702 0.13958283 -0.052740894 0.046828963 -0.14219292
0.21737789 0.6739717 0.5584933 0.5969288 0.61289 0.6560193 -0.00089452043 0.28713718
0.66237175 0.5532834 0.44222355 0.13875324 0.5004194 0.7043552 0.045723498 -0.28518128
0.19536343 0.26540267 0.10675181 0.4405462 0.096233025 0.19182512 0.63891363 0.08904644
0.49290788 0.046125263 0.1056541 0.24897173 0.006102873 0.5416777 0.349366 0.17464954
0.557088 0.2795018 0.38679373 0.48579085 0.36873633 0.058164988 0.12481571 0.03539835
0.42315757 0.14576323 0.16398084 0.17927057 0.21868166 0.2921181 -0.0021320432 0.060417064
0.42670527 0.46141142 0.36521053 0.48011255 0.03974095 0.5447362 0.4360358 0.55765855
0.49711826 0.10130912 0.2491235 0.13753134 0.00055087917 0.49378476 0.05146768 0.4072314
-0.039737813 0.24098463 0.5244442 0.39996466 0.2232495 0.018252656 0.29812473 0.008057617
0.5740021 0.15242118 0.31564677 0.47471562 0.31480402 0.55126065 0.20778255 0.13246304
0.3041983 0.08250463 0.030109776 0.32632542 0.1852246 0.23708136 0.49205327 0.45270056
0.44090876 0.48905557 0.1893142 0.3406776 -0.062000103 -0.08692357 0.11089826 -0.21670066
0.26297924 0.43374497 0.5716079 0.46250612 0.42862973 -0.07241465 0.08978911 0.046839174
0.29208493 0.20790322 0.03972645 0.35379425 0.46796316 0.6168289 0.2137472 0.4422414
0.04790815 0.1429351 0.35463262 0.5558578 -0.04952041 0.12940298 0.39497453 0.3854489
0.44009957 0.19058488 0.32009503 -0.065606944 0.2895403 0.072273724 0.24075875 0.36085796
-0.021412103 0.16235037 0.29368246 0.49423587 0.36457464 0.04825005 0.28357667 -0.03811026
0.32407752 0.25114033 0.3264255 0.24568821 0.32126975 0.49920118 0.15832767 0.2677947
0.22564855 0.17608155 0.06389183 0.30153853 0.04109472 0.33312118 0.5154866 0.31960663
0.35843176 -0.0023274012 -0.1003403 0.16189809 0.27579275 0.16399252 0.11563136 0.10853544
0.19711329 0.62125325 0.4056646 0.40534163 0.30858725 0.19433178 0.13737203 -0.1048583
0.5393426 0.2551213 0.016041268 -0.044416673 0.40737143 0.6458796 0.2790703 0.41736665
0.4132949 0.5350764 0.29399475 0.3397624 0.1852858 0.5619566 0.3648534 -0.08868006
0.24080555 0.13763452 0.44273993 0.3346086 -0.11437905 0.15708826 0.46715817 0.2294579
0.07387002 0.23654388 0.5054735 0.5550791 0.33282477 0.13146514 0.049044482 0.31273282
0.5485929 0.160414 -0.1646899 0.10633307 0.34049082 0.6084766 -0.07387078 -0.012678249
-0.18636939 0.12421405 0.4284473 0.44825912 0.5592698 0.25444093 0.4042693 0.0068434197
00000000: d010 ff3e 66f7 a93e fb2d f83e a24d 03be
00000010: 9c59 3abd 45ca a93e edf1 4e3e f665 8c3e
00000020: b638 51bc 3008 b93e 635c 0e3f 3969 183f
00000030: 3f39 9a3e c4b0 d03c 8567 f8bc b029 d2bd
00000040: dcf6 0c3f 6997 873e 2074 dd3d bafb 693d
00000050: 71e7 c83e c6c3 123f 539c 8a3e e16e a63e
00000060: 8d7e 4c3e ee5f bc3d a1ca 3e3e 9538 d63e
00000070: 1805 88bb 2a21 a13e d5cc 123f 2107 bd3e
00000080: ae73 a93e cdc9 18be c541 903d ae7e f63c
00000090: cdee 0e3e d606 58bd bacf 3f3d 059b 11be
000000a0: 4f98 5e3e 6989 2c3f 6bf9 0e3f 53d0 183f
000000b0: 5ce6 1c3f e1f0 273f 407e 6aba a503 933e
000000c0: 3291 293f fba3 0d3f 206b e23e 5415 0e3e
000000d0: 7c1b 003f 9f50 343f 9048 3b3d 4803 92be
000000e0: 5a0d 483e dce2 873e b1a0 da3d 468f e13e
000000f0: d215 c53d ce6d 443e d88f 233f fb5d b63d
00000100: 6c5e fc3e d8ed 3c3d 2d61 d83d 72f2 7e3e
00000110: 9cfa c73b 64ab 0a3f 1ae0 b23e 54d7 323e
00000120: 529d 0e3f dc1a 8f3e d409 c63e 94b9 f83e
00000130: 02cb bc3e 693e 6e3d 619f ff3d dcfd 103d
00000140: 1ca8 d83e f542 153e 98ea 273e b492 373e
00000150: 16ee 5f3e 8190 953e c0b9 0bbb e277 773d
00000160: 1d79 da3e 1e3e ec3e e0fc ba3e 50d1 f53e
00000170: 68c7 223d d573 0b3f 1640 df3e b6c2 0e3f
00000180: 4986 fe3e 287b cf3d 3b1a 7f3e 04d5 0c3e
00000190: e068 103a 5bd1 fc3e c6cf 523d a280 d03e
000001a0: 1ec4 22bd adc4 763e fa41 063f 2bc8 cc3e
000001b0: 849b 643e 9886 953c cea3 983e 1804 043c
000001c0: cdf1 123f 4c14 1c3e 749c a13e ed0d f33e
000001d0: fe2d a13e 6b1f 0d3f f3c4 543e 64a4 073e
000001e0: e1bf 9b3e 30f8 a83d c7a8 f63c 2014 a73e
000001f0: 84ab 3d3e 75c5 723e 68ee fb3e 5ec8 e73e
00000200: cbbe e13e 7e65 fa3e 95db 413e 4b6d ae3e
00000210: d2f3 7dbd fc04 b2bd a01e e33d c7e6 5dbe
00000220: 37a5 863e d213 de3e e554 123f 9acd ec3e
00000230: 5b75 db3e 224e 94bd 5ae3 b73d 6fda 3f3d
00000240: 288c 953e 95e4 543e 34b8 223d 8524 b53e
00000250: de98 ef3e 80e8 1d3f 8ce0 5a3e 776d e23e
00000260: 563b 443d 945d 123e 6892 b53e b24c 0e3f
00000270: ead5 4abd 3782 043e 1a3a ca3e 8f59 c53e
00000280: bb54 e13e af28 433e 7fe3 a33e ef5c 86bd
00000290: a03e 943e 3f04 943d 7689 763e 60c2 b83e
000002a0: 6f68 afbc 2d3f 263e 8c5d 963e 7c0c fd3e
000002b0: 87a9 ba3e d8a1 453d f630 913e 8119 1cbd
000002c0: 7ded a53e 7795 803e 3e21 a73e b195 7b3e
000002d0: 787d a43e 4c97 ff3e a620 223e 631c 893e
000002e0: 6a10 673e b94e 343e b8d9 823d 4263 9a3e
000002f0: f052 283d dc8e aa3e eef6 033f 7ba3 a33e
00000300: 5e84 b73e 5087 18bb 377f cdbd 9dc8 253e
00000310: b534 8d3e a8ed 273e 22d0 ec3d d447 de3d
00000320: 11d8 493e 740a 1f3f 45b3 cf3e f088 cf3e
00000330: 26ff 9d3e e9fe 463e 41ab 0c3e f3bf d6bd
00000340: 5b12 0a3f 429f 823e fa68 833c 42ee 35bd
00000350: fd92 d03e 5e58 253f 4de2 8e3e 15b1 d53e
00000360: 649b d33e c4fa 083f 7b86 963e 56f5 ad3e
00000370: 90bb 3d3e 63dc 0f3f 11ce ba3e e49d b5bd
00000380: bb95 763e 10f0 0c3e cfae e23e d251 ab3e
00000390: 903f eabd bfdb 203e 5b2f ef3e 03f7 6a3e
000003a0: 2a49 973d 8f38 723e b666 013f aa19 0e3f
000003b0: 0268 aa3e cc9e 063e dee2 483d 841e a03e
000003c0: 9670 0c3f 9143 243e 78a4 28be 27c5 d93d
000003d0: d054 ae3e 1fc5 1b3f 9049 97bd 6eb8 4fbc
000003e0: 9ed7 3ebe f063 fe3d 725d db3e 3882 e53e
000003f0: 4e2c 0f3f 1546 823e 63fc ce3e c43e e03b

linear2.bias f4 [10]
-0.13363712 0.44720283 0.2909589 0.02804063 0.20924073 0.4652269 0.3526742 0.13234976
-0.15552741 0.2381192
00000000: 2bd8 08be c5f7 e43e 91f8 943e 77b5 e53c
00000010: 3443 563e 3832 ee3e b691 b43e b286 073e
00000020: 9442 1fbe 85d5 733e
