alternative_rnn_optimizer/training_dir/model_last.pth (torch_old, 102557 bytes, 4 tensors)

linear1.weight f4 [32, 784]
0.14116994 0.12432134 0.1473 0.18190166 0.14916492 0.14724326 0.137583 0.15294543
0.17151003 0.1557319 0.15659882 0.14839943 0.16242923 0.18331929 0.1737901 0.1633007
0.16913441 0.17803596 0.15053229 0.1767025 0.1667165 0.13183697 0.142894 0.17870188
0.13263449 0.130174 0.18026337 0.12904286 0.19461165 0.18665531 0.13752219 0.14364377
0.1808631 0.19151168 0.1889639 0.13340174 0.15812185 0.15140224 0.1539331 0.16008066
0.13847949 0.13344653 0.17278579 0.17911609 0.14309989 0.12524267 0.12461502 0.18864365
0.18843313 0.16182336 0.14320149 0.12430562 0.18347763 0.19009791 0.15623118 0.16603786
0.12918843 0.19432302 0.14417663 0.15634118 0.14983732 0.17010558 0.17320555 0.12880382
0.18717536 0.18188184 0.15066285 0.16559765 0.17477569 0.19353685 0.14966638 0.15920377
0.16112074 0.17327909 0.14866517 0.15865879 0.15514857 0.14255041 0.13156769 0.17470583
0.1556313 0.16372159 0.14610122 0.17817321 0.17926845 0.16380347 0.1466816 0.14182311
0.12943403 0.13110524 0.14729129 0.12907767 0.18178827 0.13898702 0.1597176 0.16346759
0.14881893 0.14157258 0.15405637 0.15078567 0.1455672 0.15218015 0.16066825 0.2103338
0.15521865 0.13731281 0.15410417 0.1792686 0.12976587 0.16202897 0.13883524 0.15241508
0.17586508 0.15350445 0.12857457 0.14260325 0.1842806 0.14310083 0.18896575 0.15292524
0.15946272 0.16385737 0.14794326 0.18546881 0.21152656 0.19646835 0.14210011 0.20864066
0.20324937 0.17186819 0.15532176 0.1706584 0.15609168 0.14297174 0.18371533 0.17605664
0.1592916 0.13004698 0.12464124 0.13813373 0.18974586 0.17898369 0.12933084 0.18974124
0.14247485 0.17359433 0.18585472 0.14872876 0.17916393 0.1901382 0.19529064 0.15759932
0.19938515 0.16036086 0.16396229 0.18258207 0.1580585 0.17460029 0.15503342 0.15705955
0.17034574 0.12533195 0.14636016 0.15389459 0.16532093 0.13801937 0.1760859 0.1551702
0.15968442 0.15934443 0.13118504 0.1725144 0.12762125 0.18070696 0.17928247 0.13768841
0.15577328 0.16276109 0.14538963 0.1933511 0.1777669 0.14845574 0.16803691 0.17051725
0.14706646 0.17098652 0.15539497 0.1465248 0.13022 0.16174076 0.13492325 0.13087772
0.14592102 0.18014164 0.1603113 0.14391497 0.1640564 0.14978287 0.16633886 0.1533015
0.15406014 0.1974057 0.17907807 0.16664508 0.1970263 0.16670442 0.15815103 0.21901658
0.1687904 0.20084123 0.20395379 0.1774061 0.20610732 0.21190174 0.1796009 0.16924378
0.12497326 0.13021402 0.1393745 0.16625297 0.13498186 0.13441144 0.19090429 0.17882688
0.16798998 0.14021817 0.16271685 0.15262385 0.18907501 0.20992118 0.21315874 0.15296648
0.2229975 0.18211105 0.19189014 0.20998062 0.18686394 0.23796704 0.2251542 0.20638521
0.18036237 0.16880153 0.17760147 0.1999992 0.19710049 0.18849951 0.17834723 0.19213039
0.12531124 0.12560362 0.13131937 0.18295749 0.13882767 0.15372677 0.19246635 0.14314821
00000000: da8e 103e 309c fe3d d0d5 163e 6e44 3a3e
00000010: b0be 183e f0c6 163e 8fe2 0c3e ba9d 1c3e
00000020: 53a0 2f3e 2f78 1f3e 715b 203e 05f6 173e
00000030: d953 263e 0db8 3b3e 08f6 313e 4c38 273e
00000040: 9231 2d3e 0f4f 363e 2325 1a3e 80f1 343e
00000050: bbb7 2a3e 4500 073e ce52 123e a0fd 363e
00000060: 56d1 073e 554c 053e f696 383e d023 043e
00000070: 4748 473e 9222 3f3e 9ed2 0c3e 5a17 133e
00000080: 2d34 393e a31b 443e c17f 413e 779a 083e
00000090: b2ea 213e 3009 1b3e a3a0 1d3e 2fec 233e
000000a0: 91cd 0d3e 35a6 083e c2ee 303e 356a 373e
000000b0: c788 123e 9d3f 003e 2936 ff3d cd2b 413e
000000c0: 9df4 403e 06b5 253e 69a3 123e f293 fe3d
000000d0: 8fe1 3b3e 07a9 423e 11fb 1f3e d405 2a3e
000000e0: f949 043e 9dfc 463e 0aa3 133e e717 203e
000000f0: f46e 193e 2830 2e3e cc5c 313e 26e5 033e
00000100: e6aa 3f3e 3c3f 3a3e 5d47 1a3e 6e92 293e
00000110: 66f8 323e 862e 463e 2542 193e 5006 233e
00000120: d6fc 243e 1370 313e af3b 183e 7377 223e
00000130: 44df 1e3e bcf8 113e aeb9 063e 16e6 323e
00000140: d05d 1f3e a2a6 273e 8f9b 153e 0a73 363e
00000150: 2692 373e 19bc 273e b433 163e 143a 113e
00000160: 5b8a 043e 7440 063e 87d3 163e f02c 043e
00000170: b426 3a3e 9d52 0e3e 038d 233e 0c64 273e
00000180: fd63 183e 67f8 103e f4c0 1d3e 8f67 1a3e
00000190: 910f 153e 1dd5 1b3e 3886 243e be61 573e
000001a0: a3f1 1e3e bb9b 0c3e 7ccd 1d3e 3092 373e
000001b0: 58e1 043e ecea 253e d32a 0e3e b312 1c3e
000001c0: fa15 343e 4530 1d3e 0da9 033e 9606 123e
000001d0: 0eb4 3c3e 0689 123e 3d80 413e 6f98 1c3e
000001e0: 324a 233e 3aca 273e 707e 173e 89eb 3d3e
000001f0: 6b9a 583e 002f 493e b182 113e e6a5 553e
00000200: 9a20 503e 37fe 2f3e ab0c 1f3e 13c1 2e3e
00000210: 7fd6 1f3e 2f67 123e df1f 3c3e 3148 343e
00000220: 561d 233e 092b 053e e843 ff3d ee72 0d3e
00000230: bd4c 423e 8047 373e 4e6f 043e 874b 423e
00000240: ede4 113e b6c2 313e b350 3e3e 5a4c 183e
00000250: c076 373e 97b3 423e 45fa 473e b761 213e
00000260: 9f2b 4c3e a335 243e bbe5 273e cbf6 3a3e
00000270: 16da 213e 6bca 323e 15c1 1e3e 38d4 203e
00000280: 1d6f 2e3e 0557 003e 70df 153e 8b96 1d3e
00000290: e449 293e f354 0d3e dd4f 343e f0e4 1e3e
000002a0: 5084 233e 302b 233e 5f55 063e 9da7 303e
000002b0: 25af 023e 3f0b 393e d395 373e 31fe 0c3e
000002c0: 0883 1f3e d8aa 263e 05e1 143e d5fd 453e
000002d0: 8708 363e c804 183e de11 2c3e 139c 2e3e
000002e0: 9798 163e 1717 2f3e dc1f 1f3e 990a 163e
000002f0: 6458 053e 5f9f 253e 5229 0a3e cf04 063e
00000300: 526c 153e 0d77 383e a528 243e 725e 133e
00000310: 67fe 273e ae60 193e bc54 2a3e 12fb 1c3e
00000320: f1c1 1d3e b824 4a3e 3e60 373e 02a5 2a3e
00000330: 43c1 493e 90b4 2a3e 58f2 213e e245 603e
00000340: 64d7 2c3e 53a9 4d3e 43d9 503e f2a9 353e
00000350: cc0d 533e c5fc 583e 4ce9 373e 3e4e 2d3e
00000360: fbf1 ff3d d356 053e 30b8 0e3e 383e 2a3e
00000370: af38 0a3e 27a3 093e 6a7c 433e 651e 373e
00000380: 9105 2c3e 5a95 0f3e 3f9f 263e 6d49 1c3e
00000390: e19c 413e 94f5 563e 4946 5a3e 3fa3 1c3e
000003a0: 7559 643e 527b 3a3e d97e 443e 2905 573e
000003b0: 4359 3f3e a2ad 733e d38e 663e a556 533e
000003c0: eab0 383e 4fda 2c3e 29dd 353e 97cc 4c3e
000003d0: b6d4 493e 0406 413e a8a0 363e d4bd 443e
000003e0: 9751 003e 3c9e 003e 9678 063e 3559 3b3e
000003f0: d728 0e3e 8d6a 1d3e e615 453e 7295 123e

linear1.bias f4 [32]
0.1765067 0.17536214 0.17181997 0.15976106 0.21180706 0.19419686 0.19504425 0.19061512
0.19005674 0.17656168 0.18667263 0.15580644 0.15783058 0.18073018 0.18829283 0.142846
0.13562569 0.1635206 0.19401008 0.1756376 0.20381504 0.1796686 0.15037215 0.212511
0.14008044 0.19116645 0.1963668 0.19257699 0.20966636 0.14572525 0.1755157 0.16052288
00000000: 2cbe 343e 2292 333e 93f1 2f3e 6798 233e
00000010: f3e3 583e 8bdb 463e aeb9 473e 9c30 433e
00000020: 3c9e 423e 96cc 343e 1c27 3f3e b98b 1f3e
00000030: 579e 213e 5511 393e d6cf 403e 3946 123e
00000040: 76e1 0a3e f271 273e 94aa 463e 58da 333e
00000050: e4b4 503e 0cfb 373e 28fb 193e 7c9c 593e
00000060: 3f71 0f3e 23c1 433e 6114 493e e732 453e
00000070: c7b2 563e 0039 153e 63ba 333e 1c60 243e

linear2.weight f4 [10, 32]
0.035591286 0.059733327 0.03407107 0.17239562 0.21083723 0.19995177 0.056648273 0.017074902
0.123685636 0.32107133 0.34708527 0.25047353 0.030257327 0.22604807 0.046849042 0.11594555
0.041790914 0.052682627 0.1294539 0.0066921655 0.30392116 0.20371605 0.34886435 0.2824275
0.32446694 0.16154018 0.1885605 0.06471523 0.18029313 0.09430983 0.31117555 0.31733128
0.024343222 0.25255555 0.22325099 -0.013816545 0.12857851 0.09552614 0.29087722 0.2311536
0.15617485 0.119129986 0.12045759 -0.041222915 0.27993992 0.26679838 0.07312024 0.19624174
0.04550973 0.14167953 0.124128185 0.30425838 0.13109626 0.1839158 -0.0007314619 0.06654633
0.14893538 0.047193572 -0.04515043 0.057557672 -0.03580274 0.1251555 0.025789065 0.008746416
0.20688608 0.21429615 0.17271285 0.23596059 0.13575883 0.13884743 0.031114802 0.26391527
0.052585922 0.31824076 0.25614116 0.15214416 0.13412127 0.03723785 0.22773385 0.25701857
0.07964694 0.2386889 0.021576678 0.046895042 0.35323098 0.06413901 0.08737138 0.28756833
0.010593599 0.10364762 0.20875901 0.24299109 0.22525546 0.3157226 0.20435935 0.03957519
0.14941041 0.29913196 0.0988432 0.29064757 0.29283392 0.045294236 0.1438845 0.18598431
0.20415232 0.18756688 -0.0048126453 0.043954905 0.27408233 0.31344834 0.28678793 0.19353968
0.15592335 0.039219946 0.08996445 0.22016408 0.018079834 -0.011753942 0.15703715 0.23070037
0.23566893 0.2277291 0.07528572 0.10026455 0.07187941 0.1896701 0.27762198 0.3154817
0.10013522 0.17005159 0.31344083 0.32615983 0.015847007 0.119286165 0.17558976 0.076142125
0.07549394 0.10923072 0.028368114 0.18291172 0.3329852 0.25911793 0.27791852 0.2751087
0.14505875 0.301741 0.10086445 0.070506856 0.20082133 0.31067824 0.2908739 0.07823844
0.18810636 0.027172485 0.19609062 -0.014750449 0.2522294 -0.0018439844 0.08375067 0.013584971
0.14109807 0.2731811 0.10881803 0.23705456 0.19260634 0.09344174 0.012332027 0.19203687
0.25996348 0.31789935 0.10640353 0.286301 0.1229865 0.2700993 0.18125255 0.2170795
0.07681607 -0.005199159 0.019267146 0.22113782 0.30262464 0.05482728 0.20439996 0.024838591
0.17829892 0.11290486 0.20174754 0.26641214 0.14103357 0.31466222 0.12146009 0.24708185
0.20557694 -0.0041264277 0.022411685 0.2894854 0.017990198 0.124686666 0.035086587 0.026513763
0.3312922 0.046218682 0.3426753 0.32391208 0.22655767 0.26130724 0.0024366246 0.037907105
0.07655143 0.07503795 0.30362567 0.29161057 0.15327126 0.33350703 0.129662 0.08699547
0.26223156 0.0027179958 0.3058007 0.07278082 0.3218118 0.29270095 0.23696046 0.16013724
0.30692065 0.03624209 0.020119756 0.0141222505 0.25566542 0.18259268 0.15766974 0.15754133
0.03602838 0.15653497 0.022249717 0.09854323 0.21661979 0.119492695 0.15563315 0.15141866
0.012766079 0.2724088 0.33433807 0.25019473 0.33959913 0.091984905 0.2923596 0.10701656
0.18232912 0.025502378 0.05701546 0.29101703 0.09172399 0.18078984 0.08889833 0.14710985
00000000: 2bc8 113d efaa 743d 1b8e 0b3d 7a88 303e
00000010: b7e5 573e 28c0 4c3e 0508 683d aae0 8b3c
00000020: e54e fd3d 7663 a43e 29b5 b13e 113e 803e
00000030: 37de f73c 2579 673e c8e4 3f3d dc74 ed3d
00000040: f32c 2b3d bdc9 573d 908f 043e f449 db3b
00000050: 8e9b 9b3e f19a 503e 599e b23e 569a 903e
00000060: 8820 a63e ca6a 253e 0116 413e 6b89 843d
00000070: c39e 383e 8325 c13d 6752 9f3e 3f79 a23e
00000080: 706b c73c f64e 813e e89b 643e ca5e 62bc
00000090: 16aa 033e 35a3 c33d dced 943e 88b3 6c3e
000000a0: 4dec 1f3e 6cfa f33d 78b2 f63d 5cd9 28bd
000000b0: 4954 8f3e cc99 883e 10c0 953d 98f3 483e
000000c0: 6968 3a3d 7014 113e eb36 fe3d c1c7 9b3e
000000d0: 193e 063e 6c54 3c3e 94bf 3fba 7149 883d
000000e0: 8482 183e 0c4e 413d a8ef 38bd 98c1 6b3d
000000f0: e5a5 12bd c328 003e 9743 d33c 214d 0f3c
00000100: f2d9 533e 7370 5b3e a3db 303e a79f 713e
00000110: 5d04 0b3e 052e 0e3e 78e4 fe3c e71f 873e
00000120: 5664 573d 74f0 a23e ef24 833e aecb 1b3e
00000130: 1657 093e b786 183d 1033 693e f097 833e
00000140: ef1d a33d dd6a 743e 93c1 b03c 0415 403d
00000150: b1da b43e 505b 833d c4ef b23d 283c 933e
00000160: c690 2d3c 3445 d43d ecc4 553e a8d2 783e
00000170: 5ea9 663e 65a6 a13e 9443 513e 9819 223d
00000180: 0bff 183e d327 993e 4e6e ca3d c2cf 943e
00000190: 54ee 953e 7386 393d 7556 133e ac72 3e3e
000001a0: 4e0d 513e 8811 403e 65b3 9dbb 0f0a 343d
000001b0: 8554 8c3e 4d7c a03e ded5 923e 442f 463e
000001c0: 5faa 1f3e 18a5 203d 483f b83d b172 613e
000001d0: 291c 943c 9b93 40bc 59ce 203e b83c 6c3e
000001e0: 3253 713e d131 693e 662f 9a3d 8057 cd3d
000001f0: 8335 933d e138 423e 7824 8e3e d186 a13e
00000200: b213 cd3d 0122 2e3e 517b a03e 6cfe a63e
00000210: 95d1 813c 4e4c f43d cdcd 333e 67f0 9b3d
00000220: 919c 9a3d 5bb4 df3d 3f64 e83c 364d 3b3e
00000230: 097d aa3e 1bab 843e 564b 8e3e 0cdb 8c3e
00000240: 488a 143e cc7d 9a3e 0592 ce3d e665 903d
00000250: 1ba4 4d3e 3811 9f3e 6ced 943e 7a3b a03d
00000260: f49e 403e d598 de3c fbcb 483e deab 71bc
00000270: 3624 813e d9b1 f1ba 7985 ab3d 8093 5e3c
00000280: 037c 103e 65de 8b3e fddb de3d 6ebe 723e
00000290: 993a 453e 625e bf3d 450c 4a3c 50a5 443e
000002a0: ef19 853e b4c3 a23e 18ea d93d 0b96 923e
000002b0: 59e0 fb3d 754a 8a3e 459a 393e 174a 5e3e
000002c0: be51 9d3d b55d aabb 22d6 9d3c f471 623e
000002d0: 9ef1 9a3e 9292 603d 394e 513e 4d7a cb3c
000002e0: fe93 363e aa3a e73d e896 4e3e 2c67 883e
000002f0: 1b6b 103e 681b a13e 11c0 f83d 0603 7d3e
00000300: c382 523e fc36 87bb b698 b73c 6e37 943e
00000310: 2e60 933c b95b ff3d f4b6 0f3d 6433 d93c
00000320: 229f a93e cd4f 3d3d 2373 af3e ced7 a53e
00000330: bcfe 673e 10ca 853e c7af 1f3b 7b44 1b3d
00000340: ffc6 9c3d 7fad 993d d374 9b3e fb4d 953e
00000350: 24f3 1c3e 6fc1 aa3e 1ec6 043e ae2a b23d
00000360: 3743 863e 6720 323b e991 9c3e 1c0e 953d
00000370: 84c4 a43e e6dc 953e c3a5 723e 04fb 233e
00000380: b424 9d3e 9672 143d 30d2 a43c 0361 673c
00000390: 94e6 823e 93f9 3a3e 2d74 213e 8452 213e
000003a0: 7f92 133d b44a 203e 0a45 b63c 08d1 c93d
000003b0: 94d1 5d3e 96b8 f43d 4c5e 1f3e 7e0d 1b3e
000003c0: d128 513c 2b79 8b3e 5c2e ab3e 8619 803e
000003d0: f0df ad3e 9562 bc3d 28b0 953e 802b db3d
000003e0: 7cb4 3a3e 5dea d03c 0b89 693d 2f00 953e
000003f0: cad9 bb3d f920 393e 5410 b63d f7a3 163e

linear2.bias f4 [10]
0.19896172 0.29149705 0.13944434 0.29512826 0.11392496 0.04187902 0.07163621 0.18458462
0.25023237 0.33690205
00000000: 9fbc 4b3e 1a3f 953e 7fca 0e3e 0d1b 973e
00000010: 7d51 e93d 5689 2b3d 01b6 923d c003 3d3e
00000020: 751e 803e 6d7e ac3e
