alternative_rnn_optimizer/training_dir/model_best.pth (torch_old, 102557 bytes, 4 tensors)

linear1.weight f4 [32, 784]
000000 e8 1f 69 39 40 e5 04 bc 50 57 d2 bc 0e c9 8c 3c
       0.00022232498 -0.008111298 -0.0256764 0.017185714
000010 e1 c1 75 bc 72 28 6a 3c 16 fb 86 bb 88 03 0c bc
       -0.014999838 0.0142918695 -0.0041192872 -0.008545764
000020 dc 0c d4 bc e2 3b 2f bd b9 18 74 bc f7 72 14 bd
       -0.025885038 -0.042781718 -0.014898472 -0.03624245
000030 25 c0 66 bc 42 6a 30 bd 55 38 80 3c 46 57 02 bd
       -0.014083897 -0.043070085 0.015651861 -0.03182151
000040 5c 3b 1a bd 3e ea 47 3b c3 23 19 bd e9 3c 97 bc
       -0.037654266 0.003050461 -0.03738762 -0.018461661
000050 b0 9a 00 bd 17 e6 e2 ba 5c 9e cd bc d0 6c b4 3c
       -0.03139752 -0.0017311004 -0.025099926 0.022024542
000060 84 48 f9 3b 0c 55 cf bc c7 22 8f bc e2 71 17 bd
       0.0076075215 -0.025309108 -0.017472638 -0.03697384
000070 f4 61 d4 bc bc 24 b8 3c 0d 5f 93 3c 22 61 26 bc
       -0.025925614 0.022478454 0.01798966 -0.010154994
000080 7d 5e 6f bc fb 8c 81 bc 9a cc b6 bb 4a 34 2f 3c
       -0.01460993 -0.015814295 -0.0055785896 0.010693619
000090 9e d1 a5 bc b2 b8 fa 3b 7e 13 2f bc 27 1a 84 3c
       -0.020241555 0.007651412 -0.0106858 0.016125752
0000a0 d1 33 77 3c e5 e6 62 bc be 36 82 3c 3b 76 93 bc
       0.015088038 -0.013848995 0.015895244 -0.018000713
0000b0 d5 60 03 bd 9c bc 08 bc 10 a6 a6 3c 59 eb ca bc
       -0.032074768 -0.008345749 0.020342857 -0.024770426
0000c0 e6 b3 be 3b cf d6 2e bd 71 34 01 bd 24 dd 53 bb
       0.0058197854 -0.042685326 -0.031544153 -0.0032327855
0000d0 db b9 b2 bc bd 08 3b bd cd f0 a5 bc 77 bf da bc
       -0.021817138 -0.04566263 -0.020256424 -0.026702626
0000e0 ce a0 be 3b bd 8b b9 3a c7 29 03 bd 23 25 ac bc
       0.0058175093 0.0014156025 -0.032022264 -0.021013802
0000f0 4a 8f d9 bb 66 cc 40 3c 32 b7 30 bd 29 09 3b 3c
       -0.006639396 0.011767482 -0.04314346 0.011415758
000100 82 90 b4 3c 97 23 1d bd be 52 17 bd 32 d8 74 bc
       0.022041563 -0.03836402 -0.036944143 -0.014944123
000110 18 2e 7a bc c4 92 1d bd 77 1d 73 3b 9c 19 99 3b
       -0.015269779 -0.038470045 0.003709642 0.0046722423
000120 7c 5b 8d bc 04 5f 59 3c af a5 bb bc 2b 99 a4 bb
       -0.017255537 0.013267282 -0.022906153 -0.005023142
000130 2b 2a e7 3c 67 9d 13 3c 35 12 dc bc cd 31 1e bc
       0.02821835 0.009009696 -0.02686415 -0.009655428
000140 9c fb 23 bd 98 88 a0 bb e9 cd c8 bc c2 98 d0 bb
       -0.040034875 -0.0048990957 -0.024512248 -0.0063658664
000150 3c 9a d1 bc 56 64 aa 3c 59 d9 41 3c c8 f3 d2 bc
       -0.02558624 0.020799797 0.011831605 -0.02575101
000160 5c ed 9d bb 43 49 20 bd 72 c6 2b bd fc fc ac bc
       -0.004819555 -0.039132368 -0.0419373 -0.021116726
000170 73 62 b7 3b 08 f5 b7 bb 2a a7 fc bc 78 fb 84 bc
       0.005596453 -0.005613927 -0.030841429 -0.01623319
000180 32 b3 17 bd 5f 71 ac bc f1 26 f1 bc ab c1 1f 3d
       -0.03703613 -0.021050153 -0.029437514 0.039003056
000190 12 44 e0 3c 8d 8f e2 3c ff d2 6e 3d 69 24 50 3d
       0.027376208 0.027656341 0.05830669 0.050815973
0001a0 5b 6a 11 3d be 2b 83 3c 37 10 ce bb d7 26 97 3b
       0.03550182 0.016012069 -0.006288554 0.0046127844
0001b0 47 0a aa 3c bc f6 a0 3c 58 98 05 bc f8 2a 0c bd
       0.020756854 0.019648902 -0.008153997 -0.034220666
0001c0 12 6d 17 bd 9c 4a be bb e0 c9 d0 bc c1 e8 80 3c
       -0.036969252 -0.005807234 -0.025486887 0.015735986
0001d0 ef 1c 41 bd a1 3d 30 ba 4b 09 79 bb 86 1c 96 bc
       -0.047146734 -0.00067230506 -0.0037999924 -0.018324148
0001e0 6c 25 65 3b d4 9b 0d bd c0 f0 2f 3b ae ab 73 bd
       0.0034964932 -0.034572437 0.002684638 -0.0594899
0001f0 f0 6b 7f bd eb a6 2e bd 7f be 74 3c 72 44 08 3a
       -0.062358797 -0.042639654 0.014937996 0.00051981874
000200 01 c1 9b bc d3 ad 4b bb fc 1a 48 3d 76 f6 37 3d
       -0.01901293 -0.003107895 0.04885386 0.044912778
000210 2e db d8 3c 8f c5 c1 3c 02 77 b4 3c 17 e9 b4 3c
       0.0264717 0.023653774 0.022029404 0.022083802
000220 b0 e3 0e 3c c5 f7 6f bc 9f a7 29 bd d9 de 6f bc
       0.008721277 -0.014646475 -0.04141962 -0.014640533
000230 a5 8f 54 bc c6 16 b0 3b 01 33 a5 bc bc ca 7e bb
       -0.012973701 0.0053738086 -0.020165922 -0.0038878163
000240 45 c2 97 3c e5 a1 1c bd 93 ba ac 3b 45 fa 52 bb
       0.018525252 -0.038240332 0.005271265 -0.003219263
000250 b2 3f d8 bc a6 b7 17 bc ab e2 22 3c 27 b6 dd bc
       -0.02639756 -0.009260094 0.009941737 -0.027064396
000260 2f 2a d2 bc a2 19 14 bd 92 bb a7 bc 5c 5e 11 bd
       -0.02565488 -0.036157258 -0.020475183 -0.03549038
000270 24 7d 88 bb 8a bf 04 3c a0 e0 89 3c b0 1f ba 3c
       -0.0041653086 0.008102307 0.016830742 0.022720188
000280 3c 38 3c bc 27 ab 9b bc 92 ac 16 3c ed 6b 79 bc
       -0.011488017 -0.01900251 0.009196417 -0.015223485
000290 31 95 bd bc 07 48 99 ba 95 32 5c bc ed 5d 8d 3a
       -0.02314243 -0.001169444 -0.013439794 0.0010785438
0002a0 13 bc 81 ba 81 cd 0c bd 5a b2 3d bd 29 99 0a bd
       -0.000989797 -0.03437567 -0.046312667 -0.03383747
0002b0 36 26 7c bc 01 56 e0 bb ef db df bc 84 49 42 bd
       -0.01538997 -0.00684619 -0.027326552 -0.04743339
0002c0 f0 af 59 bd fb 82 29 bd 50 a8 48 bd 48 5a e5 bc
       -0.053146303 -0.04138468 -0.04898864 -0.027997151
0002d0 25 e3 0a bd 5c 77 f0 bc 53 fa 8c 3b c7 d3 b4 bc
       -0.03390803 -0.02935379 0.004302302 -0.02207364
0002e0 5f c3 11 3c 7b c7 33 3c be e4 b4 3c 3d 7f 80 bc
       0.008896678 0.010972853 0.022081729 -0.015685672
0002f0 1c 76 1b bd 30 7e b0 3c d7 79 9b 3c ac 94 93 bc
       -0.037954435 0.021544546 0.018978996 -0.018015228
000300 9d 90 0b 3d 64 0e 1d bd 5f f3 16 bd de 3c 03 3c
       0.03407346 -0.038343802 -0.03685319 0.008010117
000310 4d 1b 89 3b f6 0e 92 bc e7 a4 ec bc b1 e8 36 bd
       0.0041841627 -0.0178294 -0.028887225 -0.044655506
000320 08 c3 34 bd dd 2f 90 bc 1d fb 4a bc da 55 12 bd
       -0.04413131 -0.017600948 -0.012388972 -0.035726406
000330 8b ab 86 39 b4 e8 22 bd db 12 31 bd 6a 74 45 3b
       0.0002568628 -0.039772704 -0.043230873 0.0030129203
000340 14 7f 40 bd f8 a9 38 3c ec 31 15 bc 2e 34 75 3c
       -0.04699619 0.011270992 -0.009106141 0.014966054
000350 93 28 b1 bb 1d d2 ea bc 54 9a ed bc 3e 52 94 bc
       -0.005406448 -0.028664643 -0.029004253 -0.018105622
000360 71 2c 76 3c 80 cb 2d 3b 4f d9 92 bc 28 30 17 3c
       0.015025244 0.0026519 -0.017925886 0.00922779
000370 1b b1 42 bc e7 b3 08 bb 63 5e a0 3c 17 4c 2b bd
       -0.011883046 -0.0020859183 0.019576257 -0.04182061
000380 23 39 9b bc a5 ab fd bc 0b 1b 1d bd 58 b6 f4 bb
       -0.018948143 -0.030965636 -0.03835587 -0.007468026
000390 19 1c 48 bd 78 f7 84 3a 90 38 0f bc a5 50 08 bc
       -0.04885492 0.0010144552 -0.008741513 -0.008320008
0003a0 46 82 75 bc 73 c8 b3 3c c4 73 01 bd 36 06 ff bc
       -0.014984673 0.021946168 -0.031604543 -0.031130891
0003b0 9f 7f a7 bc d6 c9 be 3c b8 36 d9 3c 78 59 83 3c
       -0.020446597 0.023289602 0.02651535 0.016033873
0003c0 44 27 b1 3c 63 77 a6 3c 3f 5c 7e bc c7 5d 05 bd
       0.021625169 0.0203206 -0.015524923 -0.032560136
0003d0 df c0 9e 3c 06 9b c7 3c b5 b4 2f 3c 8c 71 70 3c
       0.019379077 0.024365913 0.010724236 0.014675509
0003e0 d1 a2 9d bc 1f 4e ba 3c 21 7e a5 ba 5e e7 01 3c
       -0.019242676 0.02274233 -0.001262609 0.007928697
0003f0 ca 22 b4 bb f0 d2 c0 3c 10 20 3b bb 6a 91 a6 3c
       -0.0054973112 0.023538083 -0.0028553046 0.02033301

linear1.bias f4 [32]
000000 4a eb c4 bc ed b8 ac 3c 08 b1 b4 3c 26 76 18 bc
       -0.024037976 0.021084273 0.022057071 -0.0093055125
000010 3e 79 2a 3d f7 05 93 bb 96 8a 7a bc 39 18 a6 bb
       0.04161953 -0.004486795 -0.0152918305 -0.0050688055
000020 2c ff 3f bc 41 32 fa bc 73 ce 69 bc e1 47 b3 3c
       -0.011718553 -0.030541541 -0.014270413 0.02188486
000030 63 45 c2 bc a2 0d c7 bc 12 a5 06 3c f5 54 8d 3c
       -0.023714727 -0.024298493 0.008218067 0.017252425
000040 f7 a9 ee bc 1d 10 74 bb ae fa 32 bc 2f 08 91 bc
       -0.02913378 -0.003724105 -0.0109240245 -0.017704098
000050 26 3c d8 3c 69 bf 1a 3d 11 6b c4 3c 60 c5 4a 3a
       0.026395869 0.0377802 0.023976834 0.00077350996
000060 f9 68 bc 3b 8d f4 00 3c e6 ee c6 bb 8f 28 26 3c
       0.0057498184 0.007870805 -0.0060709594 0.010141506
000070 b2 69 ce 3c 6d ca 10 3c b5 80 22 bd a4 a9 20 3d
       0.025196884 0.008837325 -0.039673526 0.039224282

linear2.weight f4 [10, 32]
000000 90 77 85 3d 53 49 64 3c 9f 43 c0 bd 78 a3 03 be
       0.06516945 0.0139334975 -0.09387898 -0.12855327
000010 93 58 25 3e 08 57 79 bd f6 d7 cb bc 58 76 2d be
       0.1614707 -0.060874015 -0.024883252 -0.16939676
000020 a5 70 04 be 90 6c 02 be d0 0a dc 3d e8 ca 97 3d
       -0.12933595 -0.12736726 0.1074425 0.07411748
000030 e5 e6 1c be 6f a5 11 3e 72 6b f3 bd dd d6 25 be
       -0.15322454 0.14223264 -0.11885728 -0.16195245
000040 30 5e a8 bd ca 84 c0 3d 68 b7 66 bd 6c c8 b3 bd
       -0.0822109 0.094003275 -0.056327254 -0.08778462
000050 b0 80 08 3e 85 c8 e7 3c 16 36 94 ba 2f 06 50 bd
       0.1333034 0.028293857 -0.0011307623 -0.050787147
000060 d9 f4 b9 3d 16 10 f3 3d a5 a1 bc bc 79 6f 30 be
       0.09079904 0.118683025 -0.023026297 -0.17230023
000070 5d 5b 4c be 79 23 01 be a8 65 41 be 8c 82 dc bd
       -0.19956727 -0.12611188 -0.18886435 -0.10767087
000080 37 00 e1 bd d2 8a 69 3d 95 c3 59 bd 54 c5 d0 bd
       -0.10986369 0.057017155 -0.053165037 -0.10193887
000090 d0 d0 dc bd a2 2d 2d 3e 8e 0f 38 be 3c b1 21 3e
       -0.10782015 0.16911939 -0.17974684 0.15790266
0000a0 3f 27 0f 3e a0 e8 81 3d d8 c0 cc bc fb a3 8c bc
       0.13979815 0.06343198 -0.024994299 -0.017168036
0000b0 22 ad 87 bd b3 39 e2 3d 4d 24 0c 3e af 8a 37 be
       -0.06624819 0.110461615 0.13685723 -0.17923997
0000c0 af 61 2c 3e a0 78 e1 bd 3a 6b ac 3c 14 51 06 be
       0.16834138 -0.110093355 0.021047223 -0.13116866
0000d0 c2 0e ea 3c a3 8a c5 bc 2e dd 3b bd 6a b0 20 be
       0.02857149 -0.024113959 -0.04586523 -0.15692297
0000e0 07 c3 08 3e 69 bc cd bd 13 01 df 3c 06 8f 18 3d
       0.13355647 -0.10045702 0.027222192 0.037245773
0000f0 d8 57 2f 3e ed 99 90 bd 16 af f4 3d 58 30 f4 3c
       0.17123353 -0.07060609 0.119474575 0.029808208
000100 01 f4 b1 bc 9c 1e a4 bc 90 81 2b be b8 b6 8a 3d
       -0.021722795 -0.020034127 -0.16748643 0.06773132
000110 aa 36 1f bb cd 7a 9e 3b e5 4e 51 bd 62 94 d4 bc
       -0.0024294057 0.0048364163 -0.05110063 -0.02594966
000120 46 9a 1d 3d 88 a2 1d be d1 24 23 3e 42 24 3a 3c
       0.038477205 -0.15394032 0.15932013 0.011361184
000130 38 be 01 3e 94 ae 5b 3d 5d c4 84 3d 16 bc ec bd
       0.12670219 0.053633288 0.06482766 -0.11559312
000140 ea 6a dc 3d 69 04 6b bc 17 01 63 bd 29 a9 1b be
       0.1076258 -0.014344313 -0.05542096 -0.15201248
000150 a7 4c e0 bb 28 82 88 3d 65 bf 85 bd ea e3 26 be
       -0.006845075 0.0666545 -0.06530646 -0.1629788
000160 78 cd 0d bd bc ea 4f bc 3f d3 0a 3e 01 51 11 be
       -0.03461978 -0.012690242 0.13557146 -0.14191057
000170 4a 70 f9 bd 60 65 24 3e a7 5c fe bd 56 9e 08 be
       -0.121796206 0.16054296 -0.12420016 -0.1334165
000180 78 27 f7 bd 18 74 6e 3d 8b 5a c8 bc ee 6b 0c 3d
       -0.12068075 0.058216184 -0.024457237 0.034282617
000190 c1 73 fa bc e5 28 f5 bd 03 e2 53 bd 09 98 a7 bd
       -0.030572774 -0.11970691 -0.051729213 -0.08183295
0001a0 11 06 3c bd 8d 35 13 3d 8c cc 29 bd 73 d9 29 3e
       -0.045904223 0.035939742 -0.041454837 0.16586857
0001b0 0c d7 9a bd cd a0 76 bc d8 fc 84 3b 59 0a 56 bd
       -0.07560548 -0.015052986 0.0040584616 -0.052255962
0001c0 0d a9 de 3b 7f 87 23 be 6d d9 1a 3e a8 c0 c2 3d
       0.006795055 -0.15969656 0.15122004 0.095094025
0001d0 7b 27 49 3d 99 e3 c9 bc 19 81 9d bd b9 29 f1 3d
       0.049109917 -0.02464466 -0.07690639 0.11775536
0001e0 02 4f 49 be 1d 09 05 3e 8a 28 eb bd 7c 87 1d bd
       -0.19659045 0.12991758 -0.114823416 -0.038459286
0001f0 b4 01 3a be de 21 73 3d 51 a2 10 3e 7e f8 42 3e
       -0.18164712 0.05935847 0.14124419 0.19040105
000200 28 f5 bd 3c 5f 51 3e bd 97 8f 2e be cb bc 28 be
       0.023188189 -0.04646432 -0.17046963 -0.16478269
000210 01 f6 36 be bb f3 1e 3e 51 78 a5 bd a0 9e 1a 3e
       -0.1786728 0.15522663 -0.08079589 0.15099573
000220 39 d9 35 be 9d de 0d 3e b4 d0 b5 bd a4 bc 12 3e
       -0.17758645 0.13854451 -0.088776976 0.14329773
000230 67 a6 26 3e 34 ec 7d 3b bb 71 28 3d a8 9e 11 3d
       0.16274415 0.0038745524 0.041124087 0.035551697
000240 5e cb 77 3d a8 91 40 3d f4 89 20 be 60 e6 cb 3d
       0.06049668 0.04701391 -0.15677625 0.0995605
000250 3b 2a c6 bd e6 21 44 be a2 06 4b 3c bd 6f 19 bd
       -0.096760236 -0.19153556 0.012391718 -0.037460078
000260 52 ab 20 3c d4 71 d3 bd bf e0 c2 bd 38 39 34 bc
       0.009806471 -0.10324445 -0.09515523 -0.01099997
000270 c6 46 4a be 76 2b 43 3d 9c 21 40 3d e4 72 93 bd
       -0.1975356 0.04764887 0.046907052 -0.07199648
000280 27 ad 47 3b be ef ed bd fd f7 85 3d 39 7f 74 3d
       0.0030468197 -0.11617993 0.06541441 0.05969164
000290 3e fc a5 3d b8 25 3f 3c c8 4a 93 bd 6d 57 16 3e
       0.08104752 0.011666708 -0.07191998 0.14681788
0002a0 ec 87 b9 3c ba 47 2e bc 51 b5 7c bd d2 29 3c be
       0.02264782 -0.010637218 -0.061696354 -0.18375328
0002b0 f1 f8 9f bd 78 78 c4 bc 18 01 dd bb 08 16 53 bd
       -0.07811154 -0.023983225 -0.006744515 -0.051534683
0002c0 cc a9 eb 3d d0 a7 35 bd fe f5 ad 3a 29 8c 0c be
       0.115069956 -0.04434949 0.0013272164 -0.13725342
0002d0 a8 f4 00 3e 91 86 62 bc ee 5a 08 be 07 89 5b 3c
       0.12593329 -0.013826028 -0.13315937 0.013399369
0002e0 a4 8e 41 3b 73 25 f3 3d ec 50 9a bd ac ff 13 be
       0.0029534483 0.11872377 -0.07534966 -0.14453
0002f0 6b 1b da 3d 5e 19 41 be 77 2c 23 be 81 66 1e 3e
       0.10649761 -0.18857333 -0.1593493 0.1546879
000300 d4 cb 01 3e da ba 0d 3e 46 b8 68 3d c3 3d f5 bd
       0.1267541 0.1384081 0.05681636 -0.11974671
000310 01 d4 d7 3d be 90 07 3e ff 02 24 be 8d 07 53 be
       0.105384834 0.13238809 -0.16016768 -0.20608349
000320 4d 17 02 be 33 82 53 be b2 b9 33 bd 92 96 40 3d
       -0.12704201 -0.20655136 -0.043878265 0.047018595
000330 5e c1 9b 3c 47 90 09 3e 96 a3 15 3e 5c e9 33 be
       0.019013103 0.13433944 0.14613184 -0.17569488
000340 d5 ec 2e 3d 20 ea e2 bc 3e 63 0e 3e e7 81 27 3d
       0.04270633 -0.02769953 0.13905045 0.04089537
000350 ec 3a a9 3a 4d 8b ec bd 95 06 ff 3c 37 2f 45 be
       0.0012911237 -0.11550007 0.031131068 -0.19256292
000360 4d 9a 0a be 40 69 a0 3d b2 ae af bb 05 7f 01 3e
       -0.13535424 0.07832575 -0.0053614015 0.1264611
000370 54 fe 42 be 07 c1 47 3d f6 e3 6e bb 81 6b e5 bd
       -0.19042331 0.04876807 -0.0036451793 -0.11202145
000380 ca 85 5e 3c 79 d6 25 be 14 c5 90 bd db fb 63 3d
       0.0135817025 -0.16195096 -0.0706884 0.05566011
000390 69 2a 04 3e 62 9a e3 bd 2a d3 bf 3d 1e 95 8d bd
       0.12906803 -0.111134306 0.09366448 -0.069132075
0003a0 9a 0e c6 3d 6a ce 14 3e 42 73 02 be d4 1d 22 be
       0.09670754 0.14531866 -0.1273928 -0.15831691
0003b0 c5 27 da 3d 0d fd e0 bd 89 33 76 3d 66 51 17 3d
       0.10652117 -0.109857656 0.06010774 0.036942862
0003c0 a0 53 bc 3d f2 d7 09 3e 25 a4 8b 3d a7 32 42 be
       0.09195638 0.13461283 0.068184175 -0.18964635
0003d0 ae 79 34 be d3 02 23 3e 8c 1e 94 bd 1c f1 a0 3d
       -0.17624542 0.15919046 -0.07232389 0.07858488
0003e0 59 d5 fd 3d d9 f7 ab bd bb 39 25 3e 45 ce 35 be
       0.123942085 -0.083968826 0.16135304 -0.17754467
0003f0 9b ff aa 3d 2d ad 84 bd 7e eb 34 be 24 49 06 3d
       0.08349534 -0.06478343 -0.17667958 0.032784596

linear2.bias f4 [10]
000000 0a 71 10 be b0 69 21 be 85 1d 1e be 66 ca 58 bd
       -0.14105621 -0.15762973 -0.15440948 -0.052927397
000010 0b 90 dd bd dc 28 fd 3c 64 cf d7 bd e2 85 df bd
       -0.1081849 0.030903272 -0.105376035 -0.10914208
000020 d6 03 0c 3e e1 9b fe bd
       0.13673338 -0.12432075
