alternative_rnn_optimizer/test_training/_meta_model_last.pth (torch_old, 102495 bytes, 4 tensors)

linear1.weight f4 [32, 784]
00000000: ef66 e93c 0b51 73bb b78f aa3c 0f91 6a3c
00000010: 9e1e ef3c daba f4bc c7e3 ddbc 6c2b e9bc
00000020: 098b 973a 5a1c af3c 2369 f53c da0b 0b3d
00000030: 7ba4 3abb a1d1 1d3c 5710 32bc 2e18 bd3c
00000040: 0e36 e7bc 82c6 ce3c 0e0b 65bb 26e9 e03c
00000050: 1766 b0bc ac99 b43b af46 bb3c 814a d7bb
00000060: d800 883b 0d7d 4bbc 50f4 063d 049f 8cbc
00000070: 86c1 d1ba 370c e3bc 89e8 583c 6f9e 17bb
00000080: bf87 85bc 6992 60bc 15a0 72bc 9016 143b
00000090: 9f84 0b3d f1e8 6fbb 2a39 bbbb 5c52 bcbc
000000a0: 8869 a33c ff77 bd3c bef3 7f3c 89e6 de3c
000000b0: a7af 8bbc 2fdc f3ba 904d 6db8 1049 b9bb
000000c0: 55f9 13bc 6b09 a2bc 07c4 a6bb 0e7a bfbc
000000d0: 3781 7b3c 6bb4 213c fd0f eb3c 44e3 22bb
000000e0: 583e f9bc a7b8 503c ad70 c63c 5312 953c
000000f0: 471a c43c f186 d73c b1e9 25bb e6b3 e13c
00000100: 6e81 af3c 5556 c73c cdab 90bb 9f33 f1bc
00000110: a266 8dbc 1b7b b93c 93ad a83c 921d 823c
00000120: b785 943b 7bff d4b9 3d95 c7bc 06a3 6bbb
00000130: 86e8 833b bc69 113d e9f1 113c 72d0 72bc
00000140: 9dba a9bb d202 0f3d e83f e33c 6787 ea3c
00000150: 8518 1fbc 6501 fabb a659 e1bc 885d 9836
00000160: a84b e43b 3eea 1ebc 3e1d 063d bb66 163d
00000170: 6c21 0c3d 4074 60bc 4a9f ee3c 91d0 2bbb
00000180: 7cfb 9dbc 2458 4e3c 10a7 843b a4ef 0b3c
00000190: 4149 68bc f0e8 a2bc de8f 533b de04 0e3d
000001a0: 205b b4bb 79fd 59bc df46 233c d8f7 c83c
000001b0: 61ea 033d 2abd 373b 3673 83bc ed18 5cbc
000001c0: 168e 843c 51fb e03c 262c d13c 597a 8bbb
000001d0: 9cb9 0c3d badf cf3b 288c db3c 79d2 7dbc
000001e0: 923c c63c b66b c3ba bf75 683c 8df6 ea3c
000001f0: 5629 fa3c 355d 9bbc 72a2 03bd 8c78 233c
00000200: dfac 6e3c 647f 183c 3f0c c23a 0b66 263c
00000210: e7cb f53c 358e 003d 63ae a0bb 76d4 a13c
00000220: 9571 be3c 36f4 cc3c 6c23 0a3c 3aa2 b73c
00000230: 38e3 953b 5f71 aa3c 4cae 7bbc 4187 ba3c
00000240: fa5b d23b ebab cfbc c9e3 1ebc 321d fc3c
00000250: 1354 2a3b 9fa7 8ebc 9612 e9bb 9f33 79bc
00000260: 6dc7 dcbc 4e73 0a3c 9910 f5bc 5649 f6bc
00000270: 3c06 5fbc ab12 623b 7a65 503d d350 983d
00000280: 08da ab3d 216d 943d 9074 1a3d d47b dabc
00000290: 87e1 00bd c89c b4bc d067 99bb 1df6 30bc
000002a0: 1c41 aa3b 746e df3c b6a8 d5bc ac47 3fbb
000002b0: 3d07 ef3c 94c4 b43c 2198 843c 1a4c c1bc
000002c0: 9f62 05bd 1935 053d e50f a03c 5175 c8bc
000002d0: d714 78bc f3b5 57bb a3e2 f7bc 7c0c 3cbc
000002e0: 340b 903d 8ae2 a73d a3f3 ac3d eeba 953d
000002f0: fac2 a13d 7780 923d 1744 9b3d ffad af3c
00000300: 03f5 223c c95f ccbb 9222 0c3d c710 f13c
00000310: 9f6f b13b cdb7 b43c a3ca 783c 2703 1fbc
00000320: c00d 683c bb8e 433c 864c babc 9c8e 5f3c
00000330: b565 793c 3008 04bd 350a 59bd 5566 27bd
00000340: 59d4 54bd 2f20 39bd 53aa 283b dc21 463d
00000350: 9657 e63c ca64 563d 9a13 593d f651 653d
00000360: 7caa 973c bd20 083d c0ab b53d 23e6 133d
00000370: 2fee 583c 1cc3 a63c 37e7 ca3c 925e 293a
00000380: 2433 e03b 6945 673c 8378 0bbc 4080 063d
00000390: f3e5 33bc ae79 673c 0cfc 36bd e269 4fbb
000003a0: 0a19 ae3b 2bd2 a3bc d606 6f3c 85c1 99bc
000003b0: 0852 153d efa8 81bc 8700 ac3b 199f e93c
000003c0: d29d a33c 4a67 d03c ff64 3ebd aac7 3dbd
000003d0: 26b2 363c 374d 013d 7562 333d f17e 1c3d
000003e0: 0085 0c3c a4b4 0cbc c75a 34bc ef6a 27bc
000003f0: 1142 f7bc e4b1 ea3b 9a16 ab3c 401a 4f3c
0.028491465 -0.0037127163 0.020820482 0.014316811 0.029189404 -0.029874254 -0.027086152 -0.028463088
0.0011561821 0.021375824 0.02995736 0.03394685 -0.0028479386 0.009632499 -0.010868154 0.023082819
-0.028224017 0.02524114 -0.0034949216 0.027454924 -0.021533055 0.005511483 0.022860853 -0.006570161
0.004150491 -0.012419951 0.03294784 -0.017165668 -0.0016003109 -0.027715785 0.013239034 -0.0023135205
-0.01630008 -0.013706782 -0.014808674 0.0022596456 0.034062024 -0.003660735 -0.0057136016 -0.02298849
0.019947782 0.023128508 0.0156220775 0.027209537 -0.017051531 -0.0018605049 -5.657744e-05 -0.0056544617
-0.009031613 -0.019779881 -0.0050892862 -0.02337363 0.015350631 0.009869675 0.028694147 -0.00248547
-0.030425236 0.012739337 0.02422365 0.018197214 0.023938311 0.026309462 -0.0025316293 0.027551603
0.021424022 0.024333159 -0.0044150115 -0.02944356 -0.017260853 0.02264171 0.02059058 0.01588324
0.0045325416 -0.0004062614 -0.024363155 -0.0035955324 0.0040255217 0.035501227 0.0089077735 -0.014820205
-0.0051797167 0.0349148 0.027740434 0.028629018 -0.009710436 -0.007629561 -0.027508568 4.5408415e-06
0.0069670267 -0.009699402 0.03274273 0.036719065 0.03421156 -0.013699591 0.02912869 -0.0026216845
-0.019284956 0.012594257 0.0040482357 0.0085410215 -0.014177621 -0.019886464 0.0032281796 0.03467261
-0.005504027 -0.0133050615 0.009965627 0.024532244 0.032205943 0.0028036335 -0.016046148 -0.013433677
0.016181033 0.027463587 0.025533747 -0.0042565283 0.0343567 0.006343809 0.02680023 -0.015492075
0.024198804 -0.001490942 0.014188229 0.028682018 0.030537289 -0.018965343 -0.03213734 0.009977471
0.014567583 0.009307716 0.0014804675 0.010156165 0.030004455 0.03138562 -0.004903601 0.01975463
0.02324752 0.025018793 0.008431297 0.022416223 0.0045742057 0.020806013 -0.01536138 0.022769572
0.006419656 -0.025350532 -0.009697863 0.03077564 0.0025990054 -0.017413912 -0.0071128113 -0.015210061
-0.026950562 0.008450342 -0.029915141 -0.030064266 -0.013612326 0.003449599 0.050878026 0.07437291
0.083911955 0.07247377 0.03770882 -0.026670374 -0.03146508 -0.022047415 -0.004681565 -0.0108008655
0.00519575 0.027274348 -0.026081424 -0.0029187007 0.029178256 0.022066392 0.016185822 -0.023595858
-0.032564756 0.03252134 0.01953883 -0.024470003 -0.015141687 -0.0032914847 -0.030259436 -0.011477586
0.07033387 0.08197506 0.084449075 0.07311045 0.07898517 0.07153409 0.075813465 0.021445272
0.009946111 -0.0062370044 0.034212656 0.029426945 0.0054149176 0.0220603 0.015185031 -0.009705341
0.0141634345 0.011935885 -0.022741567 0.013644841 0.015222003 -0.03223437 -0.05298825 -0.040869076
-0.051960323 -0.04519671 0.0025736287 0.048372135 0.028117936 0.052342214 0.05299721 0.055986367
0.01851391 0.033234347 0.08870649 0.036108147 0.013240381 0.020356707 0.024768455 0.00064609305
0.006842034 0.01411567 -0.008512619 0.032837152 -0.010980117 0.014128132 -0.044673964 -0.0031648804
0.0053130435 -0.019997677 0.014589032 -0.018769035 0.036455184 -0.015827624 0.0052490863 0.028518246
0.019972716 0.025439877 -0.046483036 -0.046332993 0.011150872 0.03156778 0.043795068 0.038207
0.008576632 -0.00858799 -0.011007971 -0.010218366 -0.03018287 0.0071623195 0.0208848 0.012640536

linear1.bias f4 [32]
00000000: 67ae 8b3c fbdb e23d a7f8 c63a 1c90 453c
00000010: 012d 073e 99dc 123d 2d02 89bc dbd9 1bbd
00000020: bbbf fb3d 2bf4 d5bc 51f1 013c ad09 f9bc
00000030: e209 26bd 23e2 f93c 9e6f cbbc b3e8 02bd
00000040: b47f 453d f7dc 143d e4ca 753c 1ca9 abbb
00000050: 0c4b ba3d a2cf 79bc 7ced 5a3d 4d18 18bb
00000060: bcad a33c 2473 f03d 4b10 113e f730 31bc
00000070: 25a2 813d d317 053e ee1d c63d bf57 593d
0.017050935 0.11077114 0.0015180305 0.012058284 0.13200761 0.03585491 -0.01672467 -0.03804956
0.12292429 -0.026117405 0.0079310695 -0.030400122 -0.04053677 0.030503338 -0.024833497 -0.0319602
0.04821749 0.03634354 0.015001986 -0.0052386653 0.09096345 -0.015247257 0.05344914 -0.0023207844
0.019980304 0.11740711 0.14166372 -0.010814897 0.06329755 0.1299737 0.096736774 0.053062197

linear2.weight f4 [10, 32]
00000000: 0d93 c93e a646 433e efb9 3cbe 631e c2bd
00000010: 6ac6 1ebe 2b2b debd 7adf ad3b 5063 8b3d
00000020: 0c2f 45bd 157c 4ebe a5c7 d53d 84ed fcbd
00000030: efaf c53d 0a84 a7bd d4ab 0b3e 6078 903d
00000040: 2141 0d3d 33fc 103e f50d 2f3c d14b 2a3e
00000050: 6f54 1abe 9575 d73d 2846 cf3d fd98 2b3f
00000060: 7e77 cfbd 35c7 283f 6d87 b2be 4a90 233e
00000070: 7931 f6bd d20f cdbd a15e 133f 3e11 fdbd
00000080: 85f8 ab3b aaed 26bd a4a7 c8bd e1c6 e6bc
00000090: e63f 793f 2ce4 1c3d 9745 82bc 0c7f 483e
000000a0: 86ed c13b 6e5c 86be ce86 8cbd 45ba e9bd
000000b0: 08d4 0f3e cb72 903e 7066 003d 592b 0cbd
000000c0: 8862 013e 60b3 45bd 104b 693f 0f2d 90bb
000000d0: a2c1 2dbe 6e18 5bbc 97f4 26be 21a7 30be
000000e0: 4591 36be 789b 833e ba63 0bbf c139 9fbd
000000f0: 3ba2 84bc 76ab 6b3f 13f3 1bbd 773a 493f
00000100: 2500 08be aa7e f9be c1ab c2bc f27d b73c
00000110: 8eba 42bf a36f 0dbe 6147 0d3d 00cd c63d
00000120: 35d8 bfbe fa67 713f 1a69 8d3b 43b6 f5bc
00000130: e2cc be3c 64d4 803e f88e 15be 611c fa3d
00000140: 4599 a5be 981f e3be 8ae4 c9bb 240a 0a3d
00000150: f4c4 56bf 4e72 adbc f97c b8be 0c73 29be
00000160: 41c8 9fbd 571b 01bf c3b4 163e 0a27 da3d
00000170: e3e5 7b3f 148c d2be 2239 113f f19c f13e
00000180: a7f6 ba3c 0773 5cbd 595a e9bc e8c7 e43d
00000190: 024e 3e3f fa98 5a3f 98d7 3d3c 5ad2 f0bd
000001a0: 3b73 05be 0e52 c43e 2762 473f ce3b 103e
000001b0: aeaa 823d 27b5 4d3e 0bb8 e8bd 23ad 983b
000001c0: cffc 1dbf 3b51 013f 0818 52be 858a 293d
000001d0: 07c8 28bf aa2c 733c eabf f0be cc15 42be
000001e0: ff03 4e3f a972 973d 883b eebe 3ac3 efb9
000001f0: fb1a 20bf 84ba 90be 25e3 07bf d890 4e3e
00000200: 358a 533d b364 e2bc cf4d 04be f616 cf3c
00000210: b116 31bf 6465 09bf b74e cc3d 11ab 46bd
00000220: d1b6 1abf 1881 a43f 6204 a7bd 3726 d4bd
00000230: 47aa 163e ad93 f03d 2889 88bd 57d6 1bbe
00000240: 2707 1dbf a124 363f c898 f5be 11de 423d
00000250: 9bd1 213f 3cfe 033e eec0 d23e be2d d7bd
00000260: ac21 82bf 1782 abbe 9e30 423f a534 d6bc
00000270: 9f7d bebd f0cf 83be f0fa 32bf 5f11 dbbd
00000280: 5b47 89be 2a8b 4bbe 2c85 16bd 4782 643d
00000290: dec2 6abf 74b5 633e 049b 0bbe ae10 cb3d
000002a0: 0978 8fbe 1eee 11bf a252 8fbe 4166 183e
000002b0: 36cd 8fbd 01ac 1bbc 47fd 063c 3276 fdbd
000002c0: 853c c03e ad4b 843f 930e 953d 71dd b2bd
000002d0: af16 02bf e69a e93d d77b 7e3f 0022 36be
000002e0: 6ab0 cfbd 26cf 273c 161b d83e 5551 c1bd
000002f0: ea0b 0d3f c611 c4be e795 b3be c8c2 1c3d
00000300: 8edf 8abd 377a 863f 5039 823f 301f 4f3e
00000310: e7e2 4c3f db20 c3be 6a23 cbbd 9d6a b53d
00000320: c983 603f 0fbd 98bf 31eb 97bd 9514 7fbc
00000330: 3f89 b03d a938 3f3e 6e26 8ebd 8638 20bd
00000340: 20db c9bd 6bcd 4bbf 51e5 02bf b428 033d
00000350: 85d9 40be 47c9 523d e4c9 52bf 9ef1 efbd
00000360: 9635 19be 6a37 c63e cfd4 ad3f c3ea 3a3d
00000370: de6d 25bf 5212 383f 6324 f43e b561 05bf
00000380: d6b7 a8bd 94f1 753e 84b0 55bd c44e 5d3d
00000390: 6ca9 11bf bcb6 07bf 20a8 85ba fe45 203b
000003a0: 5b42 2d3f ad82 663e 9741 a93e 3551 083e
000003b0: b6e2 5a3d e71a 553e ec1c adbd afbd e43c
000003c0: 25bb 49bf 417a 16bf 0344 7fbe 62d3 083e
000003d0: 5eaa 0b3e 27ab 16be f832 833f 6cc1 21be
000003e0: 8233 b33f e54e b2bd e999 0bbf 9e8b a9bd
000003f0: 1698 71bf 9af4 f6bd af48 afbd 6a9e 723d
0.39370003 0.19069919 -0.18430303 -0.09478452 -0.15505376 -0.108480774 0.0053061815 0.06806052
-0.04814057 -0.20164521 0.1043847 -0.1234999 0.09652697 -0.08179481 0.13639766 0.0705421
0.03448594 0.14158706 0.01068448 0.16630484 -0.15071271 0.10520474 0.10120803 0.67030317
-0.10130213 0.65928966 -0.34868947 0.1597301 -0.12021155 -0.10012783 0.5756627 -0.12356804
0.0052481317 -0.040753998 -0.097976 -0.028171005 0.97363126 0.03830354 -0.015902324 0.19579715
0.0059182076 -0.26242393 -0.068616495 -0.11412481 0.14045727 0.2821258 0.031347692 -0.034221027
0.12635243 -0.04826677 0.9113016 -0.0043999027 -0.16968396 -0.013372524 -0.16304241 -0.17251255
-0.17828853 0.2570455 -0.54449046 -0.077746876 -0.016190639 0.92058504 -0.03807361 0.78604835
-0.13281305 -0.4872945 -0.02376354 0.022398923 -0.7606591 -0.13812117 0.0344919 0.097070694
-0.3746964 0.9429928 0.0043155076 -0.029994136 0.023291055 0.2516204 -0.1460532 0.12212444
-0.32343498 -0.44360042 -0.006161277 0.033701077 -0.83894277 -0.021172669 -0.36032847 -0.16547793
-0.07801867 -0.5043234 0.14717393 0.10651977 0.98397654 -0.41122496 0.567278 0.4719005
0.022822691 -0.053820636 -0.028485464 0.111709416 0.7433778 0.85389674 0.011587046 -0.117588714
-0.13032238 0.38343853 0.77884144 0.14085314 0.06380211 0.20088635 -0.113632284 0.0046593114
-0.6171388 0.5051457 -0.2051698 0.04139187 -0.6593022 0.014842192 -0.4702142 -0.18953627
0.8047485 0.073949166 -0.46529794 -0.00045731087 -0.6254117 -0.282673 -0.5308097 0.20172441
0.051645476 -0.027635908 -0.12920307 0.025279503 -0.6917525 -0.53670335 0.09975951 -0.048502985
-0.60435206 1.2851896 -0.08155133 -0.103588514 0.14713393 0.11746917 -0.066667855 -0.15218483
-0.6133904 0.7114964 -0.47968125 0.04757506 0.6321046 0.12889951 0.4116282 -0.105067715
-1.0166526 -0.33497688 0.75855434 -0.02614815 -0.09301304 -0.2574458 -0.6991415 -0.10696673
-0.26812252 -0.19877306 -0.036748096 0.055788305 -0.91703594 0.22237188 -0.13633353 0.09915291
-0.28021267 -0.57003963 -0.2799273 0.14882757 -0.07021563 -0.009501458 0.008239097 -0.123760596
0.37546173 1.0335594 0.072781704 -0.08733643 -0.5081586 0.11406498 0.99407715 -0.17786407
-0.1014107 0.010242259 0.42208165 -0.09439341 0.55096304 -0.3829481 -0.35075304 0.038271695
-0.06780921 1.0506047 1.017374 0.20226741 0.80033726 -0.38111004 -0.09918864 0.088582255
0.8770109 -1.1932696 -0.07417906 -0.015568872 0.086199276 0.18673958 -0.06940924 -0.039116405
-0.09856248 -0.7961032 -0.5113116 0.03202124 -0.18832977 0.051461484 -0.8233931 -0.11716007
-0.14961848 0.38714153 1.3580569 0.045634042 -0.6462077 0.71902955 0.4768401 -0.52102214
-0.08238189 0.24017936 -0.05217029 0.054030195 -0.5689914 -0.53013206 -0.00101972 0.002445578
0.67679375 0.22510786 0.33057854 0.13312228 0.053438865 0.20811044 -0.08452782 0.02792248
-0.78801185 -0.58780295 -0.24928288 0.13361886 0.13639209 -0.14713727 1.024993 -0.15796441
1.4000094 -0.08706454 -0.54531723 -0.08278583 -0.9437269 -0.12058373 -0.08558785 0.059233107

linear2.bias f4 [10]
00000000: 86e9 4abe 5e5e 8c3e 1172 e5bc 991d 67bd
00000010: 4641 1ebe 09eb ad3c 5fff ae3e 63c8 223e
00000020: 907b 68bb 2151 983d
-0.19815645 0.27415746 -0.028008493 -0.05642471 -0.15454587 0.021230238 0.34179208 0.15896754
-0.003547404 0.07437349
