alternative_rnn_optimizer/test_training/_meta_model_best.pth (torch_old, 102495 bytes, 4 tensors)

linear1.weight f4 [32, 784]
0	0xbc3a0a42	-0.011354985
1	0xbc3507fc	-0.011049267
2	0xbc3d691b	-0.011560704
3	0xbc4192b9	-0.011814767
4	0xbc39dd77	-0.011344305
5	0xbc34ecc6	-0.011042779
6	0xbc3ae597	-0.011407278
7	0xbc3da2c3	-0.01157445
8	0xbc34a860	-0.011026472
9	0xbc3f3b97	-0.011671922
10	0xbc34e916	-0.0110419
11	0xbc3384a2	-0.010956915
12	0xbc3e14fd	-0.011601684
13	0xbc3e843d	-0.011628208
14	0xbc3ab5c9	-0.01139588
15	0xbc4322f2	-0.011910187
16	0xbc3d62f6	-0.011559239
17	0xbc392dc4	-0.011302415
18	0xbc3d9a79	-0.011572474
19	0xbc34827a	-0.011017436
20	0xbc403d25	-0.011733328
21	0xbc427c79	-0.011870497
22	0xbc42d230	-0.011890933
23	0xbc3bade1	-0.01145503
24	0xbc3ed7a0	-0.011648089
25	0xbc345150	-0.011005715
26	0xbc3c8e4a	-0.011508534
27	0xbc3f4cce	-0.0116760265
28	0xbc36a606	-0.0111479815
29	0xbc36abea	-0.011149386
30	0xbc3793df	-0.011204689
31	0xbc33b28f	-0.010967865
32	0xbc34417b	-0.01100194
33	0xbc39164f	-0.011296823
34	0xbc3f3ad8	-0.011671744
35	0xbc3ad239	-0.01140266
36	0xbc3f3747	-0.011670894
37	0xbc334376	-0.010941377
38	0xbc421b06	-0.011847263
39	0xbc3e0284	-0.011597279
40	0xbc40364e	-0.011731697
41	0xbc3585ab	-0.011079232
42	0xbc3d0bea	-0.011538485
43	0xbc3b8be2	-0.011446925
44	0xbc3e968a	-0.011632571
45	0xbc3d1ecd	-0.011542988
46	0xbc380f99	-0.0112341875
47	0xbc3cad0d	-0.011515868
48	0xbc416fa4	-0.011806402
49	0xbc32610a	-0.010887394
50	0xbc3785e9	-0.01120136
51	0xbc36f65a	-0.011167133
52	0xbc423791	-0.011854068
53	0xbc3f7f4e	-0.011688067
54	0xbc3a6a78	-0.011377923
55	0xbc4020d3	-0.011726576
56	0xbc323ef0	-0.010879263
57	0xbc330a71	-0.010927782
58	0xbc425961	-0.01186213
59	0xbc37843f	-0.0112009635
60	0xbc4212c7	-0.011845297
61	0xbc34259a	-0.010995293
62	0xbc389a9d	-0.011267331
63	0xbc409013	-0.0117531
64	0xbc3d3006	-0.011547094
65	0xbc394961	-0.011308999
66	0xbc3d819d	-0.011566547
67	0xbc37eee8	-0.011226393
68	0xbc3fd682	-0.0117088575
69	0xbc3b2c60	-0.011424154
70	0xbc33fd5c	-0.010985699
71	0xbc3b0421	-0.011414559
72	0xbc3ef276	-0.011654487
73	0xbc42a2df	-0.011879652
74	0xbc41bdb6	-0.011825016
75	0xbc3c9114	-0.011509199
76	0xbc3d0c11	-0.011538521
77	0xbc358eae	-0.011081381
78	0xbc45a4d9	-0.0120632285
79	0xbc37c671	-0.011216746
80	0xbc40199a	-0.011724854
81	0xbc3919d4	-0.011297662
82	0xbc3d73cc	-0.011563253
83	0xbc39fbf0	-0.0113515705
84	0xbc4237b4	-0.011854101
85	0xbc33b04e	-0.010967327
86	0xbc32b89c	-0.010908272
87	0xbc39da10	-0.011343494
88	0xbc36776a	-0.011136869
89	0xbc4308fa	-0.011903996
90	0xbc35f68e	-0.0111061465
91	0xbc37ba6b	-0.011213879
92	0xbc3ac253	-0.01139887
93	0xbc38dc61	-0.011283011
94	0xbc378b8b	-0.011202703
95	0xbc357171	-0.01107441
96	0xbc3606a9	-0.011109986
97	0xbc395073	-0.0113106845
98	0xbc4225a0	-0.011849791
99	0xbc3b0b3c	-0.011416253
100	0xbc3fd1e8	-0.01170776
101	0xbc432027	-0.011909521
102	0xbc36417c	-0.011124011
103	0xbc3dd5da	-0.011586631
104	0xbc439917	-0.011938355
105	0xbc438bb1	-0.0119351605
106	0xbc4078e1	-0.01174757
107	0xbc356907	-0.011072404
108	0xbc3f7330	-0.011685178
109	0xbc33939b	-0.010960485
110	0xbc3aecb3	-0.011408973
111	0xbc355db3	-0.011069703
112	0xbc34509c	-0.011005547
113	0xbc40ece0	-0.011775225
114	0xbc34a8af	-0.011026545
115	0xbc32a9fa	-0.010904783
116	0xbc347273	-0.011013615
117	0xbc3c5e26	-0.011497056
118	0xbc3c4c23	-0.011492762
119	0xbc3ccee3	-0.011523935
120	0xbc3f4229	-0.011673489
121	0xbc1d2550	-0.0095914155
122	0xbb49fbd6	-0.0030820272
123	0xbb89a59e	-0.0042006513
124	0x3bf3f701	0.0074452166
125	0x3c5f3769	0.013624051
126	0x3bf01a20	0.007327333
127	0x3b53db80	0.0032326877
128	0xbbb68b3e	-0.005570798
129	0xbb9e3f5c	-0.0048293304
130	0xbbf65826	-0.0075178323
131	0xbc29a021	-0.010353119
132	0xbccdc133	-0.025116539
133	0xbce5e532	-0.02806339
134	0xbc4072cc	-0.01174612
135	0xbc3e58ef	-0.011617883
136	0xbc38ee78	-0.011287324
137	0xbc3bf1a3	-0.011471185
138	0xbc3a924e	-0.011387421
139	0xbc3d7827	-0.011564291
140	0xbc3a4eef	-0.011371358
141	0xbc3dc27a	-0.011582011
142	0xbc4288ea	-0.011873463
143	0xbc3511c5	-0.0110516
144	0xbc3e29c8	-0.011606641
145	0xbc415d49	-0.011802026
146	0xbc3e7984	-0.011625651
147	0xbc3570a3	-0.011074218
148	0xbc2ae788	-0.010431178
149	0x3caa53ff	0.020792006
150	0x3ca7a33b	0.020463577
151	0x3c6d6c61	0.014491172
152	0x3d1852ce	0.037188344
153	0x3d0c97a6	0.03432431
154	0x3cbbb37a	0.02291273
155	0x3be2a948	0.0069171526
156	0x3aed3655	0.0018097857
157	0xbb5efbbf	-0.0034024564
158	0xbc075116	-0.0082590785
159	0xbc9cc720	-0.019137919
160	0xbd0f5084	-0.034988895
161	0xbd1a4015	-0.03765877
162	0xbcb33af3	-0.021878695
163	0xbc3ca812	-0.01151468
164	0xbc3cbf77	-0.011520258
165	0xbc32c561	-0.010911317
166	0xbc39a5f6	-0.011331072
167	0xbc3ca779	-0.011514538
168	0xbc3d8fe5	-0.011569952
169	0xbc3e4023	-0.011611971
170	0xbc34d0a6	-0.011036074
171	0xbc3a2e3b	-0.011363561
172	0xbc3f1210	-0.011662021
173	0xbc3459f7	-0.011007777
174	0xbc2d569f	-0.010579734
175	0xbc0c4196	-0.008560559
176	0xbbf9e9ce	-0.0076267486
177	0x3c80d5b6	0.015726905
178	0x3cc9645f	0.024583993
179	0x3ca3d4fe	0.019999024
180	0x3d3decf9	0.046368573
181	0x3db84116	0.08996789
182	0x3ddd2850	0.107987046
183	0x3dea31a9	0.11435253
184	0x3dd2b631	0.102886565
185	0x3d5a050e	0.053227477
186	0xba6f3bbe	-0.0009126029
187	0xbcc2b4c6	-0.02376784
188	0xbcb31df4	-0.021864869
189	0xbce97726	-0.028499197
190	0xbcbd010c	-0.023071788
191	0xbc3fa9a3	-0.011698159
192	0xbc382397	-0.011238954
193	0xbc4317da	-0.011907542
194	0xbc32c786	-0.010911828
195	0xbc365710	-0.011129156
196	0xbc37ae73	-0.0112110255
197	0xbc39d79c	-0.011342909
198	0xbc36ce98	-0.011157654
199	0xbc3bea02	-0.011469366
200	0xbc36b76c	-0.01115213
201	0xbbfeb998	-0.0077735893
202	0xbb894fed	-0.004190436
203	0x3893fb75	7.056344e-05
204	0xb8dfa83c	-0.00010664805
205	0x3cc1b8f8	0.02364777
206	0x3ca58583	0.020205265
207	0x3d84883b	0.064712964
208	0x3dc111bd	0.094272114
209	0x3dbb9b5f	0.09160494
210	0x3dd76f10	0.1051923
211	0x3dd6c232	0.104862586
212	0x3de84b7e	0.11342524
213	0x3dab8470	0.0837487
214	0xbc3ceec3	-0.011531535
215	0xbc537c6c	-0.012908082
216	0x3c6340ad	0.0138704
217	0xb9f64bba	-0.00046977197
218	0xbc4578af	-0.012052699
219	0xbc4d4e61	-0.012530894
220	0xbc38f27a	-0.01128828
221	0xbc3f4004	-0.011672977
222	0xbc42fdb3	-0.011901307
223	0xbc3ff0b5	-0.011715104
224	0xbc363b9b	-0.0111226095
225	0xbc3f6b2e	-0.0116832685
226	0xbc392da6	-0.011302387
227	0xbc412876	-0.011789432
228	0xbc3cea17	-0.011530421
229	0xbb067a67	-0.0020519735
230	0xbae48d9b	-0.0017437221
231	0xbb2b1ceb	-0.0026109766
232	0x3c5aef31	0.013362692
233	0x3cbe81b7	0.023255212
234	0x3d6a5e01	0.057218555
235	0x3da3abb4	0.07991734
236	0x3d8c0c21	0.06838251
237	0x3d1bf69f	0.038076993
238	0x3d02c461	0.031925563
239	0x3cc5e505	0.024157057
240	0x3d3f32f9	0.04667947
241	0x3d0fa33c	0.03506778
242	0x3c2b98a3	0.010473403
243	0x3c9ab296	0.018883985
244	0x3c367bc2	0.011137905
245	0x3c7b7369	0.01534734
246	0x3bac8b07	0.005265597
247	0xbc44dbf3	-0.012015331
248	0xbc38390d	-0.011244071
249	0xbc3aeba7	-0.011408723
250	0xbc3c81f2	-0.011505591
251	0xbc35bc69	-0.011092284
252	0xbc338d68	-0.010959007
253	0xbc40b17f	-0.011761068
254	0xbc3b1d77	-0.011420599
255	0xbc365edd	-0.011131016

linear1.bias f4 [32]
0	0x3d09be9b	0.03362904
1	0xb9431415	-0.0001860413
2	0x3c9ee1e1	0.019394817
3	0x3c5f8602	0.01364279
4	0xb952e770	-0.00020113378
5	0xb887cef9	-6.475853e-05
6	0x3cb263b3	0.021776056
7	0x3cb88254	0.022523083
8	0x3cb898db	0.022533825
9	0x3cb55e66	0.02213974
10	0x3c95a5b9	0.0182675
11	0x3d131efe	0.03591823
12	0x3c63b200	0.013897419
13	0x3baec74f	0.005333818
14	0x3c7bc5c7	0.015366978
15	0x3ca2b8e2	0.01986355
16	0x3bb471db	0.0055067367
17	0x3c3136cd	0.010816288
18	0x3bc44d47	0.0059906575
19	0x3d0bcebc	0.034132704
20	0x3ca91c32	0.020643327
21	0x3c84a223	0.016190594
22	0x3bec5d40	0.0072132647
23	0x3ca5a508	0.020220295
24	0x3c83dded	0.016097033
25	0xbb7e3ef2	-0.0038794843
26	0x3cbf41f0	0.023346871
27	0xbabc26ce	-0.0014354826
28	0xbb0f4ac3	-0.002186463
29	0x3c495e1c	0.012290504
30	0x3d0a97e8	0.033836275
31	0x3ca0e6d6	0.019641321

linear2.weight f4 [10, 32]
0	0xbdc55c19	-0.09636707
1	0xbb2a91e1	-0.0026026892
2	0xbd24cfda	-0.040237285
3	0xbd7573e6	-0.059924982
4	0xbbbf8409	-0.0058445972
5	0xbb4af48b	-0.0030968513
6	0x3e9e2156	0.30884808
7	0xbd26b584	-0.04070045
8	0x3d4243f8	0.0474281
9	0xbd147290	-0.036242068
10	0xbd8748be	-0.06605671
11	0x3d9f6642	0.07783176
12	0x3e257ffe	0.16162106
13	0x3dfe358c	0.12412557
14	0xbd23e037	-0.04000875
15	0xbc2ec069	-0.010665991
16	0x3d7ce374	0.061740354
17	0xbcb5c57a	-0.02218889
18	0xbc12520d	-0.008930695
19	0x3e3f1e6d	0.1866395
20	0xbd9b0b30	-0.07570493
21	0xbc265c29	-0.010153809
22	0xbc1bcfbc	-0.009509977
23	0xbcd8d215	-0.026467362
24	0xbe001b04	-0.12510306
25	0x3bd573a2	0.0065140286
26	0xbce16939	-0.027515994
27	0x3c3057d2	0.0107631255
28	0xbb7473b1	-0.0037300403
29	0x3da4dbe5	0.08049754
30	0x3e8daf35	0.27672735
31	0xbcdc2e5e	-0.026877578
32	0xbdc9cbe1	-0.0985334
33	0xba71b162	-0.00092198525
34	0xbdc191cd	-0.094516374
35	0xbdf30fda	-0.11868258
36	0x3b03953e	0.002007797
37	0x3bad7842	0.005293877
38	0xbd2616b2	-0.040548988
39	0x3cce23a8	0.025163487
40	0xbd89bd2f	-0.06725537
41	0x3c1210e1	0.008915157
42	0xbd3154bd	-0.043293703
43	0x3eb6f506	0.35733813
44	0xbc491c0e	-0.012274755
45	0xbdb59631	-0.08866537
46	0xbc9f2c17	-0.019430203
47	0xbd7a0179	-0.06103656
48	0xbb2f8d07	-0.002678694
49	0xbc7fe0cf	-0.015617563
50	0xb8ecc1c6	-0.0001128945
51	0xbd287ede	-0.041136615
52	0x3eb66ccf	0.3562989
53	0xbd85fd88	-0.06542498
54	0xbd1836d9	-0.03716168
55	0xbd224b72	-0.03962273
56	0x3e6c87e0	0.23098707
57	0xbde57acc	-0.11205062
58	0xbd846e6c	-0.06466374
59	0xb9900ed0	-0.00027476856
60	0xbbacb0d8	-0.005270105
61	0xbdd8f5bc	-0.10593745
62	0x3e4959d2	0.1966317
63	0xbdf9566a	-0.12174685
64	0xbd85ac15	-0.06526963
65	0x3c35612a	0.011070529
66	0xbdafc0dd	-0.085817076
67	0xbdb35a51	-0.08757461
68	0xbbad9f32	-0.0052985186
69	0xbba1e17d	-0.0049402104
70	0xbddb4826	-0.107071206
71	0x3edb7c13	0.428681
72	0x3ea24c42	0.31698805
73	0xbc66593b	-0.01405936
74	0xbd29fa64	-0.041498557
75	0xbdc23dbb	-0.094844304
76	0xbc84569f	-0.016154585
77	0x3d626dde	0.05528056
78	0xbd5550e1	-0.052079085
79	0x3c8af6ce	0.016963389
80	0xbbe1ec2a	-0.006894608
81	0xbc1ba104	-0.009498838
82	0xbbddaa07	-0.0067646536
83	0xbd4b6b61	-0.04966295
84	0xbe3c2d34	-0.18376619
85	0xbd842e9e	-0.06454204
86	0xbc2b9184	-0.010471705
87	0xbc7040f7	-0.014663926
88	0x3e7df183	0.2479916
89	0x3dc2b321	0.095068224
90	0xbe2bcd50	-0.16777539
91	0xbbddff89	-0.006774847
92	0xbbc7e122	-0.006099836
93	0x3b2ce59f	0.0026381982
94	0xbd676357	-0.056491222
95	0x3e509ae9	0.20371594
96	0x3d4d5ea8	0.0501391
97	0x3b53d097	0.0032320374
98	0xbd41578b	-0.047202628
99	0xbd87da60	-0.066334486
100	0x3af0623f	0.0018339826
101	0xbba2eab6	-0.0049718274
102	0x3cab0eee	0.020881142
103	0xbd0bc105	-0.034119625
104	0xbc303a97	-0.010756156
105	0xbd6c156f	-0.05763763
106	0x3e9a7460	0.30166912
107	0xbc9657b6	-0.01835237
108	0xbc869ed7	-0.016433163
109	0xbd0799a2	-0.0331055
110	0xbd2ccd73	-0.04218812
111	0x3e68e86e	0.22744915
112	0xbc1f9259	-0.009739482
113	0x3d44abb9	0.04801533
114	0x3b98e432	0.004665875
115	0xbcee4d7d	-0.029089684
116	0xbd2ff511	-0.042958323
117	0x3e37c3df	0.17945813
118	0xbc0fad19	-0.008769297
119	0xbc662924	-0.014047895
120	0xbd003364	-0.03129901
121	0xbd0c451b	-0.03424559
122	0x3e0e06f0	0.13869834
123	0x3bea487d	0.0071497546
124	0x3aa447f4	0.0012533651
125	0xbd02c021	-0.03192151
126	0x3cf5da0a	0.030011196
127	0xbd5420c0	-0.051789045
128	0xbd5b998b	-0.053613227
129	0xbb942d32	-0.0045219893
130	0xbdabf629	-0.08396561
131	0x3dcdf978	0.10057348
132	0x3b595391	0.0033161382
133	0xbbaa3007	-0.0051937136
134	0xbd6839d2	-0.056695767
135	0xbd3eb920	-0.046563268
136	0xbc5f54cc	-0.013631057
137	0x3e6bc8fd	0.2302589
138	0x3d285353	0.04109509
139	0xbd924b63	-0.07143285
140	0xbc65e977	-0.014032713
141	0xbcd8e885	-0.026478061
142	0xbda9c6ef	-0.08289897
143	0xbd3d3cba	-0.04620049
144	0xbc1cd6c4	-0.0095726885
145	0xbc70a3ae	-0.014687462
146	0xbac1a784	-0.0014774655
147	0xbdab159f	-0.08353733
148	0x3e503156	0.2033132
149	0xbd88f7e1	-0.06687904
150	0xbc45cdcd	-0.0120729925
151	0xbbb1233c	-0.0054058116
152	0xbd98e0c0	-0.07464743
153	0xbc071b84	-0.008246306
154	0x3e9d67f5	0.30743375
155	0xbbc7652b	-0.006085058
156	0x3bf34c5f	0.0074248756
157	0xbd26bf9b	-0.040710073
158	0xbd71941b	-0.058979135
159	0x3ebe94d9	0.37222937
160	0xbdd7443c	-0.105110615
161	0x3c124f36	0.008930018
162	0x3e538a6a	0.2065827
163	0x3e7172e0	0.23578978
164	0xbb9947f1	-0.0046777655
165	0xbbc48251	-0.0059969802
166	0xbd7da210	-0.061922133
167	0xbdaf7f40	-0.08569193
168	0xbd37e55e	-0.044896476
169	0x3e2e70ba	0.1703519
170	0x3e0c4200	0.13697052
171	0x3e8c4650	0.27397394
172	0xbc29ff44	-0.0103758015
173	0xbcd52848	-0.026020184
174	0xbda0be60	-0.07848811
175	0x3d9dbcd0	0.07702029
176	0xbbcb8547	-0.0062109563
177	0xbbfa4f33	-0.007638836
178	0xbbe661f7	-0.0070307213
179	0xbd2e190b	-0.04250435
180	0xbdf17eee	-0.11791788
181	0xbdaecaab	-0.085347496
182	0x3e01fcd5	0.12694104
183	0xbc595231	-0.013264225
184	0xbdbc751b	-0.092020236
185	0xbd3e3c30	-0.046444118
186	0xbd3995d6	-0.04530891
187	0xbbce2294	-0.006290743
188	0xb8b3dad7	-8.576147e-05
189	0x3eb04433	0.34427032
190	0xbdb1ccd3	-0.08681645
191	0x3c748d85	0.014926319
192	0xbd775990	-0.060388148
193	0xbb94267d	-0.0045211897
194	0x3e447855	0.19186528
195	0x3e3c47d7	0.1838678
196	0xbba5e025	-0.0050621205
197	0xbb16d741	-0.0023016485
198	0xbd18e375	-0.037326295
199	0xbd3af599	-0.045644376
200	0x3b9fd98c	0.0048782285
201	0xbd97f90a	-0.07420547
202	0xbce39565	-0.027781198
203	0xbde6b79f	-0.11265492
204	0xbc97751a	-0.018488456
205	0xbd0dc3fe	-0.03461074
206	0x3e6346ac	0.22194928
207	0xbd38d417	-0.04512414
208	0xbc0b6b05	-0.008509402
209	0x3db1b806	0.08677678
210	0x3d16e355	0.036837894
211	0xbd3fe19b	-0.046846014
212	0xbc82c6be	-0.015963908
213	0x3e64006d	0.22265787
214	0xbc547932	-0.012968348
215	0x3d82d3b6	0.06388037
216	0x3d946ddd	0.07247517
217	0xbd18de4d	-0.037321378
218	0xbd57cf44	-0.0526879
219	0xbad1cca3	-0.0016006421
220	0x3be4cb38	0.0069822334
221	0xbd5cd813	-0.053917002
222	0x3e8905ee	0.26762336
223	0xbd3fd186	-0.046830676
224	0x3dbcf73e	0.09226845
225	0x3c27ea6c	0.010248762
226	0xbdd4191d	-0.103563525
227	0xbce82524	-0.028338023
228	0x3b1109aa	0.0022131004
229	0x3bc3270d	0.005955583
230	0xbd9d1857	-0.07670658
231	0xbd85f50f	-0.06540882
232	0xbd6f2fd2	-0.058395214
233	0xbe086c80	-0.1332264
234	0xbd86f990	-0.06590569
235	0x3db9840f	0.09058391
236	0xbcd0989d	-0.025463397
237	0x3df5a413	0.11994185
238	0xbd8dceef	-0.06924235
239	0x3e13b99a	0.1442627
240	0xbc1e5e56	-0.009666046
241	0xbc25e54d	-0.01012547
242	0xbb117220	-0.0022193268
243	0x3e28aeee	0.1647298
244	0x3e876567	0.2644455
245	0xbd2dbe94	-0.042418078
246	0xbcdd7eb0	-0.027037948
247	0x3e38626d	0.18006296
248	0xbe1b02e7	-0.15137826
249	0x3eaf6a84	0.34260952
250	0xbd9a47c7	-0.07533222
251	0x3a8e5efb	0.0010862047
252	0xbb014196	-0.001972293
253	0xbd379c75	-0.044826943
254	0xbe1184ae	-0.1421077
255	0xbce4e870	-0.027942866

linear2.bias f4 [10]
0	0x3cddb22c	0.027062498
1	0x3cb3316b	0.02187415
2	0x3a726e3b	0.0009247993
3	0x3c264647	0.010148591
4	0x3bd12eb6	0.006383742
5	0x3b086428	0.002081165
6	0x3be0e116	0.00686277
7	0xbca1a06a	-0.019729812
8	0xbcd8f7c1	-0.026485326
9	0xbb2bc453	-0.0026209548
