alternative_rnn_optimizer/test_training/meta_model_last.pth (torch_old, 407785 bytes, 4 tensors)

linear1.weight f4 [128, 784]
0	0xbba804e9	-0.0051275385
1	0xbceea366	-0.029130649
2	0x3b5b98f8	0.0033507925
3	0xbca9d6eb	-0.020732364
4	0xbd1cddb8	-0.038297385
5	0x3c2915e0	0.010320157
6	0x3b8963d1	0.0041928072
7	0x3cbf060a	0.02331831
8	0x3c957476	0.01824401
9	0xbd0004ee	-0.0312547
10	0xbcafe74e	-0.0214726
11	0xbd2d9466	-0.042377852
12	0xbcd705ed	-0.026247943
13	0x3a8c26a0	0.0010692663
14	0xbccae9c6	-0.024769675
15	0xbc574ce5	-0.013140892
16	0x3c91d9ec	0.017804109
17	0x3a704c86	0.00091666763
18	0xbc5e917c	-0.013584491
19	0xbc45f9ad	-0.012083453
20	0xbd0ae446	-0.033909105
21	0xbcb57c42	-0.022153977
22	0xbb8a5a95	-0.004222224
23	0xbc7fbfeb	-0.015609722
24	0xbc865c72	-0.016401503
25	0x3c562ad2	0.013071733
26	0x3c843b25	0.016141484
27	0xbc21d053	-0.0098763285
28	0x3c05487c	0.008134957
29	0x3b837c32	0.004012608
30	0xbd323e10	-0.04351622
31	0xbd1318ae	-0.03591221
32	0xbca717ce	-0.020397093
33	0xbc7cf51e	-0.0154393
34	0x3c71fb90	0.01476945
35	0xbd0e7f63	-0.034789454
36	0xbc6d2cfe	-0.014476059
37	0xbcfe433a	-0.031037915
38	0xbd2976d9	-0.041373108
39	0xbcf808c5	-0.03027762
40	0xbd345774	-0.044028714
41	0xbb725634	-0.003697765
42	0x3aa12b7d	0.0012296286
43	0xbc9ba465	-0.018999288
44	0x3c8c4e6b	0.017127236
45	0xbd006d3a	-0.031354167
46	0x3c7e47e6	0.015520072
47	0xbcfd7fe2	-0.030944768
48	0x39cef3de	0.00039473077
49	0xbc25a5d1	-0.0101103345
50	0xbd1e291f	-0.038613435
51	0xbd0835ed	-0.033254553
52	0x3c7f92b2	0.01559894
53	0xbcf01757	-0.029308004
54	0x3cb65978	0.022259459
55	0xbd20d4d5	-0.039265472
56	0x3b6570e0	0.0035009906
57	0xbbeafb7b	-0.007171092
58	0xbb6dc417	-0.0036280209
59	0x3ca56530	0.020189852
60	0xbcd8f712	-0.026485
61	0x3b1d899a	0.0024038316
62	0xbd0d0886	-0.034431957
63	0x3a5475d0	0.00081047136
64	0xbc1c103d	-0.009525356
65	0xbcae1e32	-0.021254633
66	0xbd3769dd	-0.044778693
67	0xbd3ef720	-0.046622396
68	0xbc3fe7d0	-0.011712983
69	0xbb050bab	-0.0020301144
70	0xbc17e9b8	-0.0092720315
71	0xbd40c041	-0.047058348
72	0xbd838f44	-0.0642381
73	0xbdcbf54f	-0.09958898
74	0xbd909cc7	-0.07061153
75	0x3bd7cf10	0.006585963
76	0x3c15a1e4	0.009132836
77	0xbd40a89c	-0.0470358
78	0xbd2a5b71	-0.04159111
79	0xbc9d10d8	-0.01917307
80	0xbd34ad93	-0.044110846
81	0x3b75bbc6	0.0037495955
82	0xbd35ed0c	-0.04441552
83	0xbce2d687	-0.027690185
84	0x3be6302d	0.007024786
85	0xbc9052dc	-0.017617635
86	0xbd12eb03	-0.035868656
87	0x3b8ca2bc	0.0042918604
88	0xbd1620ab	-0.03665225
89	0x3bfce0c3	0.0077172234
90	0x3bfba56f	0.0076796333
91	0xbcebd074	-0.028785922
92	0xbd23f888	-0.04003194
93	0x3b8ceb21	0.0043004905
94	0xbbf2a24c	-0.007404601
95	0xbd25581f	-0.040367242
96	0xbd42bca5	-0.047543187
97	0xbcec6fe8	-0.028861955
98	0xbc269260	-0.010166734
99	0xbaf1179c	-0.0018393877
100	0xbd069d62	-0.032864936
101	0xbd9b0a95	-0.07570378
102	0xbd1a5e3e	-0.037687533
103	0xbc358a70	-0.011080369
104	0xbd150d51	-0.036389653
105	0x3c11949a	0.008885527
106	0xbcfb0c87	-0.030645622
107	0xbcc6eb82	-0.02428222
108	0xbcf17eb8	-0.02947937
109	0x3b874f65	0.0041293376
110	0xbd062436	-0.032749377
111	0xbd3e635c	-0.046481475
112	0xbd3a0e49	-0.04542378
113	0xbc888333	-0.016664123
114	0x3c58cf54	0.013233025
115	0xbd05cebf	-0.03266787
116	0xbd146682	-0.03623057
117	0xbc72b202	-0.014812948
118	0xbd0b7514	-0.0340472
119	0xbc904621	-0.017611565
120	0xbd364b46	-0.04450538
121	0xbc884122	-0.01663262
122	0xbd284ffb	-0.0410919
123	0xbde110bf	-0.10989522
124	0xbd3e25fa	-0.046422936
125	0x3d98ff5d	0.07470582
126	0x3d036cc5	0.032086153
127	0xbcee8f65	-0.02912111
128	0xbd8f86a0	-0.070080996
129	0xbdc7f3d1	-0.09763301
130	0xbd888d2d	-0.06667552
131	0xbc76a77b	-0.015054579
132	0x3c3a2e92	0.011363642
133	0xbc52ca5d	-0.01286563
134	0xbc268789	-0.01016415
135	0xbc0ed53b	-0.00871783
136	0x3c003fb0	0.007827684
137	0xbb27a2cb	-0.002557921
138	0xbba52d1f	-0.0050407792
139	0xbc4b3617	-0.012403033
140	0xbd138e2e	-0.036024265
141	0xbbd0b695	-0.0063694217
142	0xbd119f69	-0.035552416
143	0xbc036feb	-0.008022289
144	0x3a2c4c6d	0.00065726676
145	0xbc288db3	-0.01028769
146	0x3c3cc8f8	0.011522524
147	0xbc73da7b	-0.014883633
148	0x3d016ab2	0.031595893
149	0x3d9828be	0.07429646
150	0xbd4ed96e	-0.050500326
151	0xbc29349c	-0.010327484
152	0xbc793c3b	-0.015212114
153	0x3cb287d1	0.021793278
154	0xbd4578f0	-0.048211038
155	0xbda338db	-0.07969829
156	0xbd8e92e8	-0.06961614
157	0xbd06bb7c	-0.032893643
158	0xbccf841f	-0.025331555
159	0xbbac3cbb	-0.005256263
160	0x3d119eff	0.03555202
161	0xbd28173d	-0.041037787
162	0xbc2915df	-0.010320156
163	0x3bf9e32c	0.007625958
164	0x3973a77e	0.00023236682
165	0xbcde3bed	-0.027128184
166	0x3c577818	0.013151191
167	0x3c7eb78a	0.015546689
168	0xbc691aeb	-0.014227609
169	0xbc70046c	-0.014649492
170	0xbd0d5a9a	-0.034510233
171	0xbcfcbb27	-0.03085096
172	0x3c3dc3fc	0.011582371
173	0x3cc6cd08	0.024267688
174	0x3c884c0e	0.016637828
175	0x3d77a91d	0.060464013
176	0x3d9d6c3f	0.07686662
177	0x3df3464a	0.11878641
178	0xbcb92873	-0.022602296
179	0x3d4cf9a9	0.050042782
180	0xbd221a65	-0.039575953
181	0xbc9850d9	-0.018593239
182	0xbcfa7eea	-0.030578095
183	0x3c5e2f10	0.013561025
184	0x3d45f38d	0.04832797
185	0x3db98b9d	0.09059832
186	0x3d566bb6	0.052348815
187	0x3ca3ea71	0.020009251
188	0x3d51ea00	0.05124855
189	0x3ce128ec	0.027485333
190	0x3ce9efbc	0.028556697
191	0x3cc80ad5	0.024419228
192	0x3d5506b1	0.052008335
193	0xbc472727	-0.012155331
194	0x3bdb7713	0.0066975444
195	0xbc848397	-0.016176028
196	0xbb8871f9	-0.004163977
197	0x3bc27917	0.005934845
198	0xbc0647cb	-0.008195828
199	0xbcc8efeb	-0.024528464
200	0x3c063a31	0.008192585
201	0x39a782bc	0.00031950127
202	0xbcb6cddf	-0.022314964
203	0x3d618468	0.055057913
204	0x3ddd46dc	0.10804531
205	0x3dbd5384	0.09244445
206	0xbd57e9c9	-0.05271319
207	0x3af4e166	0.0018682897
208	0x3d177f6c	0.036986753
209	0xbc31db5e	-0.010855524
210	0x3cc9280c	0.024555229
211	0x3d1c68bf	0.03818583
212	0x3e3e9c2e	0.18614265
213	0x3e0be1aa	0.13660303
214	0x3d6ec1e9	0.058290396
215	0x3dd4bbcb	0.10387381
216	0x3d0206b4	0.031744674
217	0x3cb99d0b	0.022657892
218	0xbd27b3a4	-0.040942803
219	0x3cc6af69	0.024253564
220	0x3d73e885	0.05954792
221	0x3d3c0da1	0.045911435
222	0xba6c867c	-0.0009022725
223	0xbd018cce	-0.031628422
224	0xbbb79a19	-0.0056030867
225	0xbd0e0745	-0.0346749
226	0x3a5475d0	0.00081047136
227	0x3c4beafc	0.012446161
228	0x3cc89d2b	0.024489006
229	0x3c97ce7e	0.01853108
230	0xbc84c656	-0.016207855
231	0x3cd95596	0.026530068
232	0xbd149cb5	-0.03628226
233	0xbd080edf	-0.033217307
234	0xbd3d7fa4	-0.046264306
235	0x3acbf622	0.0015561024
236	0x3d5e0b07	0.054209735
237	0x3dd3e5df	0.10346579
238	0x3db83f18	0.08996409
239	0x3de054df	0.10953688
240	0x3e7a6892	0.24453953
241	0x3e534040	0.20629978
242	0x3e1bae6d	0.15203257
243	0x3d93c1e6	0.072147176
244	0x3bf45f6b	0.007457664
245	0x3beaedee	0.0071694767
246	0xbda87338	-0.08225101
247	0x3d034927	0.032052185
248	0x3c8ab72d	0.016933048
249	0xbb8b7d69	-0.0042568934
250	0xbd123111	-0.035691325
251	0x3b18154a	0.0023206049
252	0x3b93fa80	0.004515946
253	0x3c92eb1a	0.01793437
254	0x3cbc6974	0.022999503
255	0x3bff9538	0.0077997707

linear1.bias f4 [128]
0	0x3c37b70f	0.011213078
1	0xbcbe640d	-0.023241067
2	0x3c7434b5	0.014905144
3	0x3ccfb711	0.025355848
4	0x3ad5369c	0.0016266885
5	0x3c2ba777	0.010476938
6	0x3d386267	0.04501572
7	0x3cf56030	0.029953092
8	0x3d8b9534	0.068155676
9	0x3ce89a89	0.028394
10	0xbaca6af9	-0.0015443257
11	0x3d31df69	0.04342595
12	0x3cac8913	0.021061456
13	0x3d2ce8b8	0.042214125
14	0x3b473fde	0.0030403058
15	0x3cff0220	0.031128943
16	0x3d8ee72f	0.069776885
17	0x3b01eed4	0.001982619
18	0x3dae056f	0.0849713
19	0xbcffdb11	-0.031232389
20	0xbc8ccbc5	-0.017187009
21	0x3c544810	0.012956634
22	0x3d93854d	0.072031595
23	0x3d1a5f13	0.037688326
24	0x3ce1735f	0.027520834
25	0x3cc2e588	0.02379109
26	0x3cf7ec5a	0.030264068
27	0x3c2359ee	0.009970171
28	0x3bd59eca	0.0065191733
29	0x3d49f5d9	0.049306724
30	0x3d64851a	0.055790998
31	0x3d851e98	0.06499976
32	0x3d2f6f96	0.042831026
33	0x3b312f46	0.0027036234
34	0x3d06def8	0.032927483
35	0x3ca02722	0.01954991
36	0x3d25fc56	0.04052385
37	0xbc239755	-0.009984811
38	0x3d3c1abc	0.045923933
39	0x3c7ba9a4	0.01536027
40	0xbc446d31	-0.011988924
41	0x3ced37c8	0.028957263
42	0x3922417c	0.00015473919
43	0xbb28a3a8	-0.0025732312
44	0xbb0c742a	-0.0021431544
45	0x3d4f4cf2	0.05061049
46	0xbb96ed22	-0.004605905
47	0x3d5dd75e	0.05416047
48	0xbcc80512	-0.02441648
49	0x3d2c10a2	0.04200805
50	0x3bcad4a2	0.0061898986
51	0xbcfd3914	-0.030911006
52	0xbc5f6988	-0.013636
53	0x3c115acf	0.008871748
54	0x3cd6f79a	0.026241113
55	0x3d36c2f3	0.04461951
56	0x3cbe900d	0.023262048
57	0x3c817823	0.015804356
58	0x3d44ff95	0.048095305
59	0x3d1222d6	0.035677753
60	0xbb31e79c	-0.0027146107
61	0x3d58b1a8	0.0529038
62	0x3c52685b	0.012842263
63	0x3d775cbd	0.060391176
64	0x3d51e6b5	0.05124541
65	0xbcb04fa4	-0.02152235
66	0x3a79c55f	0.0009528007
67	0x3c86b1eb	0.01644226
68	0x3ccd2a03	0.025044447
69	0x3c3d3e98	0.011550568
70	0x3d314a46	0.043283723
71	0x3cf824b3	0.030290937
72	0xbccbbdb4	-0.024870731
73	0x3d05e647	0.032690313
74	0x3d409962	0.047021277
75	0x3c5897e5	0.013219808
76	0xb8addbd2	-8.2902276e-05
77	0x3ca1c273	0.01974604
78	0x3bc59fc7	0.00603101
79	0x3d89c999	0.06727905
80	0x3c9a3d88	0.018828169
81	0x3c5b9d56	0.013404211
82	0x3bac5973	0.0052596866
83	0x3c915de4	0.017744966
84	0xbcead5cc	-0.0286664
85	0xbcdf5adc	-0.027265005
86	0xbd34c347	-0.044131543
87	0xbc81e387	-0.015855564
88	0x3cd3150d	0.025766874
89	0x3cce3766	0.0251729
90	0xbcb5f992	-0.022213731
91	0x3d016ebf	0.031599756
92	0x3c636d8c	0.0138810985
93	0x3d1de4f2	0.038548417
94	0x3d86394e	0.06553899
95	0xbcb45af1	-0.02201602
96	0x3d210be9	0.039318
97	0x3c70dfe6	0.014701819
98	0xbc9c16d4	-0.019053854
99	0xbc7d667c	-0.015466329
100	0x3cae2c56	0.021261375
101	0x3ad6cd6e	0.0016388127
102	0x3d5c6170	0.05380386
103	0x3c597e43	0.013274732
104	0x3d19135c	0.03737198
105	0x3d1211aa	0.035661377
106	0x3c86bbfc	0.01644706
107	0xba59efb0	-0.0008313609
108	0x3d293fd7	0.041320648
109	0x3c1425fe	0.009042261
110	0xbcb2ac37	-0.021810634
111	0x3c0fe8cf	0.008783533
112	0x3d598fa5	0.053115506
113	0x3c9689f8	0.018376336
114	0x3cc76f4d	0.024345065
115	0xbc752bbc	-0.01496404
116	0x3ca2a415	0.019853631
117	0xbc34a99d	-0.011026767
118	0x3cec8142	0.028870229
119	0x3c3ed1ee	0.011646731
120	0x3d2fd4d4	0.042927578
121	0x3ce693a7	0.028146578
122	0x3cf03dea	0.029326398
123	0xbcdf271a	-0.027240325
124	0x3cc7e03f	0.024398921
125	0x3cf76e93	0.030204093
126	0xbc905b96	-0.017621797
127	0x3b1c1de2	0.0023821522

linear2.weight f4 [10, 128]
0	0xbe962f48	-0.29332948
1	0xbdbbf33f	-0.09177255
2	0xbd962096	-0.07330434
3	0xbda70fc7	-0.08157306
4	0x3e2adf36	0.1668671
5	0x3e89f9ac	0.26948297
6	0x3e8ed31e	0.27895445
7	0xbe120784	-0.1426068
8	0xbdf8f7b8	-0.121566236
9	0x3d042c7e	0.032268994
10	0xbdd756c0	-0.10514593
11	0xbec6a935	-0.3880097
12	0x3e88c7fa	0.2671507
13	0xbec8fd42	-0.3925572
14	0xbe81d90b	-0.25360903
15	0xbda7d17c	-0.08194253
16	0x3e29ff1a	0.1660122
17	0xbd639749	-0.0555642
18	0x3e741c5d	0.23838945
19	0xbd758bbb	-0.05994771
20	0xbebc0f23	-0.36730298
21	0xbc8c51ae	-0.017128792
22	0x3dc2e623	0.09516551
23	0xbdb57f98	-0.08862227
24	0xbdb399e1	-0.087695844
25	0x3e823693	0.25432262
26	0x3d878764	0.066176206
27	0x3c2450bf	0.010029017
28	0xbe585fa1	-0.2113023
29	0xbd87757d	-0.06614206
30	0xbd94fc4e	-0.07274686
31	0x3e8a55b1	0.27018502
32	0xbb464755	-0.003025492
33	0x3e8d290b	0.27570376
34	0xbc9661cf	-0.018357186
35	0xbc83b8dc	-0.016079359
36	0x3e3bfbf3	0.1835783
37	0xbec728bb	-0.38898262
38	0xbed78c15	-0.42099062
39	0x3e8f45e5	0.27983013
40	0xbd229fad	-0.03970306
41	0xbe3be96f	-0.18350767
42	0x3e8d2399	0.2756622
43	0x3c784937	0.0151541745
44	0xbddf6515	-0.10907952
45	0xbe63f2c3	-0.22260575
46	0x3cf2dc2d	0.029646004
47	0xbed99a57	-0.42500564
48	0xbd50244a	-0.050815858
49	0xbe13e377	-0.1444224
50	0xbd221397	-0.039569464
51	0xbd78de63	-0.06075896
52	0xbeae0327	-0.3398678
53	0x3e901ae6	0.28145522
54	0xbec82940	-0.3909397
55	0x3d862254	0.06549516
56	0xbe3d7c8b	-0.1850454
57	0x3e8f9ea6	0.28050727
58	0x3ddfbb29	0.1092437
59	0x3e85374a	0.26018745
60	0xbd92646f	-0.071480624
61	0x3e8759e0	0.26435757
62	0xbd439241	-0.0477469
63	0x3e87fb2e	0.26558822
64	0x3e8cef69	0.27526405
65	0x3e359301	0.17731859
66	0xbe170157	-0.14746605
67	0x3e8ef6c7	0.2792265
68	0xbe0c9d8c	-0.13731974
69	0x3cf9b0f4	0.030479886
70	0xbd745694	-0.05965288
71	0xbda748c0	-0.08168173
72	0xbd927422	-0.07151057
73	0xbea81fa2	-0.32836634
74	0xbe0f0af0	-0.13969016
75	0x3e8769c6	0.26447886
76	0xbdaa3893	-0.08311572
77	0x3d09b603	0.033620846
78	0x3e8f3e40	0.2797718
79	0x3e8f4670	0.27983427
80	0xbd0cb7cd	-0.034354974
81	0x3db52cd1	0.08846439
82	0x3e83c673	0.25737342
83	0xbd7e6a8a	-0.062113322
84	0xbd208cda	-0.039196827
85	0xbc6cc5a6	-0.01445142
86	0xbd830e0e	-0.06399165
87	0xbed3efbc	-0.4139384
88	0xbe86a797	-0.26299736
89	0x3e8a4e9b	0.27013096
90	0x3cf194f1	0.029489966
91	0x3dc605ca	0.09669073
92	0x3e048eca	0.12945095
93	0xbe7abd01	-0.24486162
94	0x3e5c6cf7	0.21525942
95	0xbd6a692a	-0.0572292
96	0xbe95ea48	-0.29280305
97	0xbd25cd28	-0.040478855
98	0xbd56c38f	-0.052432593
99	0xbd1aacfc	-0.037762627
100	0xbed51608	-0.4161837
101	0xbe861df6	-0.26194733
102	0x3e8cd659	0.27507284
103	0xbed18413	-0.40921077
104	0x3e8eee18	0.27916026
105	0xbdc7462e	-0.097301826
106	0x3daa2067	0.083069615
107	0x3d533e2b	0.05157296
108	0xbdcc8fca	-0.09988363
109	0x3d1a3eec	0.037657663
110	0xbd9d7e9a	-0.07690163
111	0x3ceab1ff	0.028649328
112	0x3e8444d6	0.25833768
113	0x3d9f6d4c	0.077845186
114	0xbd1ce5ef	-0.03830522
115	0xbea51bf7	-0.32247898
116	0x3e85d438	0.26138473
117	0xbe18886d	-0.14895792
118	0xbe36a054	-0.17834598
119	0xbe7f1fed	-0.24914522
120	0xbe08f436	-0.13374409
121	0xbe0dc81e	-0.1384587
122	0x3e4f8697	0.20266186
123	0xbee3c7fd	-0.44488516
124	0x3caf9aea	0.021436173
125	0x3ddf3191	0.10898126
126	0xbe68928f	-0.22712158
127	0xbc8316e7	-0.016002132
128	0xbda8e5f9	-0.08246989
129	0x3ca62249	0.02028002
130	0x3d1764ce	0.03696137
131	0x3c968393	0.018373286
132	0xbceb4950	-0.028721482
133	0xbdc27d72	-0.09496583
134	0xbdbd7f08	-0.09252745
135	0x3ac3df66	0.0014943897
136	0xb923fda6	-0.00015639383
137	0xbd472f45	-0.048629064
138	0x3cdb8937	0.026798828
139	0x3d269da3	0.040677678
140	0x3d17e819	0.03708658
141	0xbc960957	-0.018315
142	0x3cd70ec2	0.026252154
143	0x3d748101	0.05969334
144	0xbd9ad064	-0.075592786
145	0x3cefb9c0	0.029263377
146	0xbd8dd862	-0.06926037
147	0xbdb49c6a	-0.08818896
148	0xbcc2d2e6	-0.023782205
149	0x3d2b2d78	0.04179141
150	0x3b1ced1d	0.0023945041
151	0xbd5d5ea6	-0.054045342
152	0x3c90939c	0.01764851
153	0xbd3a6ab2	-0.04551191
154	0xbc43b74a	-0.011945555
155	0xbda357a9	-0.07975704
156	0x3c0952b0	0.008381531
157	0xbd4455c4	-0.047933355
158	0xbd48c96b	-0.049020212
159	0x3d0600ab	0.03271548
160	0x3d5a8bff	0.053356167
161	0xbda803cc	-0.08203849
162	0xbdaf8289	-0.085698195
163	0xbd6570fa	-0.056015946
164	0xbda7097a	-0.081561044
165	0xbdd8b44a	-0.105812624
166	0x3d02a87c	0.03189896
167	0xbd5f5839	-0.054527495
168	0x3c725b35	0.014792253
169	0xbdc09387	-0.094031386
170	0xbd83f009	-0.064422674
171	0x3d62bbd6	0.055354916
172	0x3d905f9f	0.07049488
173	0x3ba2f536	0.004973079
174	0xbd8c0ca0	-0.068383455
175	0xbdadfbc9	-0.0849529
176	0xbd22310c	-0.039597556
177	0xbc9189ae	-0.017765846
178	0xbdb7bc3f	-0.08971452
179	0xbad8a858	-0.0016529663
180	0xbda91d71	-0.08257569
181	0xbcec319e	-0.028832253
182	0xbdb56ea6	-0.08858995
183	0xbd682457	-0.05667528
184	0xbd61278a	-0.054969348
185	0xbd9c25c6	-0.07624392
186	0xbc387e39	-0.011260563
187	0xbd5a1e0a	-0.053251304
188	0xbd2a6f56	-0.041610084
189	0xbd6c3006	-0.057662986
190	0xbd5d8388	-0.054080516
191	0xbc989018	-0.018623397
192	0x3c8f6cab	0.017507872
193	0x3d38a0e4	0.045075312
194	0xbd5f0d6b	-0.054456156
195	0x3cb38f1b	0.021918824
196	0xbc3694b4	-0.011143852
197	0x3d05f0d8	0.03270039
198	0xbd56c5b6	-0.052434646
199	0xbb9fee9a	-0.0048807384
200	0x3cb46b9d	0.02202397
201	0xbdbfcbee	-0.093650684
202	0x3c90d0e8	0.01767774
203	0xbd31f903	-0.043450367
204	0xbbf5a0b5	-0.0074959644
205	0xbb72ffc7	-0.0037078725
206	0xbd711b79	-0.05886409
207	0xbc2b2c64	-0.010447595
208	0x3d17fb94	0.037105158
209	0x3d5865d1	0.052831475
210	0xbd47f616	-0.04881867
211	0x3d5fb66f	0.05461734
212	0xbd0052de	-0.03132903
213	0xbd4eca4c	-0.050485894
214	0x3d6e09db	0.058114868
215	0xbdac079b	-0.08399888
216	0xbd669425	-0.056293625
217	0xbcceec2a	-0.025259096
218	0xbd890d8c	-0.06692037
219	0xbd8cc10a	-0.06872757
220	0xbdbe3386	-0.09287171
221	0xbd005b7a	-0.03133724
222	0xbd28a5ba	-0.041173674
223	0x3c41abba	0.011820728
224	0xbd436082	-0.04769946
225	0x3d77eeb2	0.060530372
226	0x3d56848c	0.0523725
227	0x3d546b2b	0.051860016
228	0xbd9121e7	-0.070865445
229	0x3cb9977d	0.022655243
230	0xbd97e19e	-0.0741608
231	0x3d018581	0.03162146
232	0x3d2a530d	0.04158311
233	0xbce4ea2d	-0.027943695
234	0xbdbc18ef	-0.09184443
235	0xbdb4a3b8	-0.088202894
236	0x3bdc33a2	0.0067200223
237	0x3caa4a63	0.020787423
238	0x39a3de40	0.00031255372
239	0x3d3b646f	0.045750078
240	0x3cc3d140	0.02390349
241	0xbd3630f2	-0.04448027
242	0x3cdb0c4e	0.026739266
243	0x3ce0ff3a	0.027465452
244	0xbd6b225e	-0.057405822
245	0xbdb158dc	-0.08659527
246	0xbd4f0306	-0.050539993
247	0xbdb7aab9	-0.0896811
248	0xbd50c619	-0.05097017
249	0xbc9f81b9	-0.019471036
250	0xbdb6ed3d	-0.08931968
251	0xbdabaa97	-0.08382147
252	0x3c5c223c	0.0134358965
253	0xbd768946	-0.060189508
254	0xbdc5f26a	-0.096653774
255	0x3c27aabd	0.010233578

linear2.bias f4 [10]
0	0x3dc30fa0	0.095244646
1	0x3c3bbb7c	0.011458274
2	0xbd878636	-0.066173956
3	0x3cd4ad55	0.025961557
4	0x3cc6c6b0	0.024264663
5	0x3d95a235	0.07306329
6	0x3db93e81	0.09045125
7	0x3debb72a	0.11509545
8	0xbd52d4df	-0.05147254
9	0xbdb13360	-0.08652377
