alternative_rnn_optimizer/test_training/model_best.pth (torch_old, 407835 bytes, 4 tensors)

linear1.weight f4 [128, 784]
0	0xbb22a475	-0.0024817262
1	0xbb23bcfa	-0.0024984465
2	0xbb230fa9	-0.002488116
3	0xbb23fcc6	-0.002502249
4	0xbb22ca93	-0.0024839982
5	0xbb23c16c	-0.0024987115
6	0xbb22ebb2	-0.0024859724
7	0xbb239a09	-0.0024963638
8	0xbb22e5b5	-0.0024856154
9	0xbb241638	-0.0025037657
10	0xbb22af56	-0.0024823747
11	0xbb23e706	-0.0025009527
12	0xbb22e85b	-0.0024857733
13	0xbb22a7ae	-0.0024819183
14	0xbb23b794	-0.0024981247
15	0xbb22f5b0	-0.002486568
16	0xbb23d689	-0.00249997
17	0xbb23ca5f	-0.0024992449
18	0xbb2361fb	-0.0024930227
19	0xbb22b1a9	-0.0024825132
20	0xbb240dc1	-0.0025032612
21	0xbb23c01a	-0.0024986328
22	0xbb22df54	-0.0024852352
23	0xbb238c89	-0.0024955592
24	0xbb22ae42	-0.0024823104
25	0xbb239bd4	-0.0024964707
26	0xbb23f8f5	-0.0025020216
27	0xbb22c85c	-0.0024838662
28	0xbb231f4c	-0.002489048
29	0xbb22ed7d	-0.0024860792
30	0xbb242e64	-0.0025052065
31	0xbb236fa2	-0.0024938365
32	0xbb2409b4	-0.0025030198
33	0xbb239875	-0.0024962698
34	0xbb23e1d3	-0.0025006428
35	0xbb232a75	-0.0024897133
36	0xbb2299a5	-0.0024810818
37	0xbb23f495	-0.0025017608
38	0xbb2302a5	-0.0024873402
39	0xbb23534e	-0.002492148
40	0xbb23c1ff	-0.0024987457
41	0xbb23acf4	-0.0024974914
42	0xbb241ac8	-0.0025040377
43	0xbb23c1ee	-0.0024987417
44	0xbb22aa4e	-0.0024820748
45	0xbb237b5d	-0.0024945356
46	0xbb233e5e	-0.0024909
47	0xbb23ba73	-0.0024982959
48	0xbb237dac	-0.0024946732
49	0xbb22a433	-0.0024817109
50	0xbb239bdc	-0.0024964726
51	0xbb236112	-0.0024929685
52	0xbb232e8f	-0.0024899577
53	0xbb23bf0a	-0.0024985694
54	0xbb237995	-0.0024944295
55	0xbb230d5b	-0.0024879787
56	0xbb2338c3	-0.0024905659
57	0xbb238109	-0.0024948737
58	0xbb2387df	-0.0024952812
59	0xbb23cd2e	-0.0024994123
60	0xbb239c38	-0.002496494
61	0xbb22da42	-0.002484933
62	0xbb234229	-0.002491126
63	0xbb237506	-0.0024941578
64	0xbb235844	-0.0024924437
65	0xbb234b2a	-0.0024916627
66	0xbb23ae3b	-0.0024975676
67	0xbb23a575	-0.0024970446
68	0xbb22a57d	-0.0024817877
69	0xbb22b92d	-0.0024829612
70	0xbb22f90d	-0.0024867684
71	0xbb233a9b	-0.0024906758
72	0xbb22f659	-0.0024866073
73	0xbb23dc90	-0.0025003292
74	0xbb235724	-0.0024923766
75	0xbb233d5b	-0.0024908397
76	0xbb23b25d	-0.002497814
77	0xbb233997	-0.0024906152
78	0xbb23747a	-0.0024941252
79	0xbb2303e0	-0.0024874136
80	0xbb241c19	-0.0025041162
81	0xbb2402ed	-0.0025026158
82	0xbb22cd4d	-0.0024841607
83	0xbb2415e7	-0.002503747
84	0xbb2404dc	-0.002502731
85	0xbb22afdd	-0.002482406
86	0xbb22dd35	-0.0024851088
87	0xbb232ce0	-0.0024898574
88	0xbb231f7d	-0.0024890595
89	0xbb22c345	-0.0024835628
90	0xbb1e55c8	-0.0024160016
91	0x3aac219d	0.0013132576
92	0x3bcb8c40	0.0062117875
93	0x3bcf9127	0.006334442
94	0x3bcbdc26	0.006221312
95	0x3bc44b27	0.005990404
96	0x3bc57a64	0.006026553
97	0x3bc3cac7	0.0059751007
98	0x3baae27d	0.005214988
99	0x3ad59ecf	0.0016297939
100	0xbb61e06e	-0.0034466046
101	0x3c8023df	0.015642105
102	0xbb245221	-0.0025073367
103	0xbbca541e	-0.0061745783
104	0xbb2378cb	-0.0024943824
105	0xbb233918	-0.0024905857
106	0xbb239e6e	-0.0024966258
107	0xbb23044b	-0.0024874385
108	0xbb22f390	-0.0024864413
109	0xbb230827	-0.0024876685
110	0xbb23f57d	-0.0025018149
111	0xbb22fb4d	-0.0024869025
112	0xbb241a23	-0.0025039993
113	0xbb22ccc1	-0.002484128
114	0xbb235f82	-0.0024928753
115	0xbb241dfa	-0.0025042281
116	0xbb23d369	-0.0024997836
117	0xbb22bf93	-0.0024833425
118	0x3a9a4fe8	0.0011773081
119	0x3bc20ce0	0.005921945
120	0x3bdf0515	0.0068060257
121	0x3c49f552	0.012326555
122	0x3c5182e2	0.012787553
123	0x3c3d4777	0.011552683
124	0x3c4c5fb7	0.012473992
125	0x3c7f16b4	0.015569378
126	0x3c81d389	0.015847938
127	0x3c0c55ea	0.008565405
128	0x3c989a72	0.018628333
129	0x3b98438f	0.0046467255
130	0xbc70677c	-0.01467311
131	0xbc88057b	-0.016604176
132	0xbb98024e	-0.0046389466
133	0xbacb77d9	-0.0015523388
134	0xbb2ff6fa	-0.002685009
135	0xbb309d01	-0.002694905
136	0xbb242d52	-0.0025051427
137	0xbb23aa54	-0.002497335
138	0xbb238c62	-0.00249555
139	0xbb23089a	-0.0024876953
140	0xbb22c2e6	-0.0024835407
141	0xbb23eb95	-0.0025012244
142	0xbb229b57	-0.0024811828
143	0xba90325a	-0.0011001334
144	0x3c07a629	0.008279362
145	0x3ca297fe	0.019847866
146	0x3cc02ccf	0.023458866
147	0x3cada650	0.021197468
148	0x3c75b2ba	0.014996225
149	0x3c7de18b	0.015495668
150	0x3c5d9437	0.013524107
151	0x3c85a7e7	0.016315414
152	0x3c8d4da0	0.017248929
153	0x3c269b77	0.010168902
154	0x3a0aa22c	0.0005288448
155	0xbbdf2d3a	-0.0068108113
156	0x3ae7349d	0.0017639581
157	0x3ca2914b	0.019844672
158	0xbbfff37d	-0.0078110085
159	0xbc36327a	-0.011120433
160	0xbad757b0	-0.0016429331
161	0x3bdb35ae	0.0066897487
162	0xba9ecaf5	-0.0012114929
163	0xbb0466e8	-0.0020202938
164	0xbafc29a9	-0.001923849
165	0xbb233c61	-0.0024907815
166	0xbb23002c	-0.0024871929
167	0xbb22d224	-0.0024844492
168	0xbb23f96f	-0.00250205
169	0xbb236a3f	-0.0024935154
170	0xbb22a58f	-0.002481792
171	0xba8e1726	-0.0010840639
172	0x3bcca6b7	0.00624546
173	0x3c81d94c	0.015850686
174	0x3c814f14	0.015784778
175	0x3cb1b8c4	0.021694548
176	0x3cb3caaa	0.021947224
177	0x3cb1c3e0	0.021699846
178	0x3cc8db2f	0.024518577
179	0x3cd46398	0.025926396
180	0x3c94aa99	0.018147754
181	0xba458973	-0.0007535435
182	0xbbb4f93a	-0.005522874
183	0xbbfbc2ff	-0.0076831575
184	0x3d0652f1	0.032793943
185	0x3cd66117	0.026169343
186	0xbb9d22fb	-0.0047954298
187	0xbc6ae547	-0.014336891
188	0x3c232bcc	0.009959172
189	0x3c71d097	0.014759204
190	0x3b3c9a05	0.0028778326
191	0xbb499a66	-0.0030762195
192	0xbb41f1c4	-0.0029593566
193	0xbb22df92	-0.0024852497
194	0xbb22cc2d	-0.0024840937
195	0xbb240cc3	-0.002503202
196	0xbb22c145	-0.0024834436
197	0xbb238b5b	-0.0024954889
198	0xbb240d04	-0.0025032172
199	0xbb23ac51	-0.0024974535
200	0xbb22baa0	-0.0024830475
201	0xbb232109	-0.0024891517
202	0x3930872b	0.00016835022
203	0x3b6ebe17	0.003642922
204	0x3b7d4655	0.0038646657
205	0x3ba8fdf1	0.0051572253
206	0x3bb7d18a	0.005609696
207	0xbb6b4d61	-0.0035904276
208	0xbba444d6	-0.0050130887
209	0xbbbccf11	-0.005761989
210	0xbb5417ae	-0.0032362747
211	0x3cc41435	0.023935417
212	0x3d5d0fa4	0.053969994
213	0x3d2ebb0b	0.042658847
214	0xbb013700	-0.001971662
215	0xbc3e0f01	-0.011600257
216	0x3a90c147	0.0011043929
217	0x3c14294a	0.009043047
218	0x3b4eaf77	0.003153769
219	0xbb501228	-0.0031749103
220	0xbb6b02d9	-0.0035859852
221	0xbb22e01c	-0.0024852818
222	0xbb23c698	-0.0024990197
223	0xbb238f7f	-0.0024957357
224	0xbb23405a	-0.0024910183
225	0xbb22c2fa	-0.0024835453
226	0xbb235443	-0.002492205
227	0xbb238d18	-0.0024955925
228	0xbb22cde8	-0.0024841968
229	0xbb23fb14	-0.002502148
230	0xbacac8aa	-0.001547118
231	0x3b6450e0	0.0034838244
232	0x3ba4d998	0.005030822
233	0xbac8dd3e	-0.0015324724
234	0xbc0df029	-0.008663216
235	0xbc3b0a7a	-0.011416072
236	0xbb1e8f4b	-0.0024194296
237	0xbb139e11	-0.0022524635
238	0xb951f60e	-0.00020023456
239	0x3cee3693	0.029078757
240	0x3d0edff0	0.034881532
241	0x3c52542c	0.012837451
242	0xba9a1292	-0.0011754802
243	0xbac89f4c	-0.0015306263
244	0x3b8d840c	0.0043187197
245	0x3b107b31	0.0022046084
246	0x3947e9c9	0.0001906521
247	0xbb5938fe	-0.0033145542
248	0xbb4a54ac	-0.0030873222
249	0xbb2301ec	-0.0024872972
250	0xbb240239	-0.002502574
251	0xbb22fbad	-0.0024869249
252	0xbb237480	-0.0024941266
253	0xbb23831a	-0.0024949969
254	0xbb2405f0	-0.0025027953
255	0xbb229bc1	-0.0024812075

linear1.bias f4 [128]
0	0x3c1f0cfc	0.009707686
1	0x3c07e338	0.008293919
2	0x3acfc69f	0.001585204
3	0x36c1ad18	5.771999e-06
4	0x3ca8f059	0.02062242
5	0x3bf8f899	0.0075979945
6	0x3c8678c1	0.016415002
7	0x3c304941	0.010759653
8	0x3ca51711	0.0201526
9	0x3c1149de	0.008867709
10	0x3b7d34e3	0.003863626
11	0x3aa214e2	0.0012365843
12	0xb819cf12	-3.6670892e-05
13	0x3c855ca6	0.01627953
14	0x3c9cae03	0.019125944
15	0x3c1acc8b	0.009448181
16	0x3c833f0a	0.01602127
17	0x3c8c81c7	0.017151726
18	0x3b36b8c4	0.0027881125
19	0x3cc1fd3a	0.023680318
20	0x3c3c0725	0.011476313
21	0x3c2bfde3	0.010497543
22	0x3c0b5627	0.008504427
23	0x3c5277d3	0.012845951
24	0x3c8d942b	0.017282566
25	0x3c614eab	0.013751666
26	0x3c50f96a	0.012754777
27	0x3c1f7b8e	0.009734048
28	0x3cca8da3	0.02472574
29	0x3b65524c	0.003499168
30	0xb84848df	-4.7751582e-05
31	0x3beafe64	0.007171439
32	0x3c2a3490	0.010388508
33	0x3c518317	0.012787602
34	0xb7935341	-1.7562534e-05
35	0x3bae2305	0.0053142332
36	0x3c3c97b0	0.0115107745
37	0x3afb469f	0.0019170827
38	0x3be2df5c	0.006923599
39	0xba5a4b5e	-0.00083272706
40	0x3c795cc3	0.01521987
41	0x3c2e7523	0.010648045
42	0x3a8a7dc4	0.0010566046
43	0x3a8b2c78	0.0010618111
44	0x3c98206b	0.018570146
45	0x3c285662	0.0102745015
46	0x3c038aaf	0.00802867
47	0x3c1e850c	0.009675276
48	0x3bbccd36	0.0057617677
49	0x3ac183a5	0.0014763965
50	0x3c81af80	0.015830755
51	0x3c064ba6	0.008196747
52	0x3c8e37db	0.017360618
53	0xbb297995	-0.0025859822
54	0x3cb21156	0.021736782
55	0x3cabcb8e	0.020971086
56	0x3b8e530a	0.004343395
57	0x3cab8d91	0.020941528
58	0x3c599739	0.013280683
59	0x3bf2dec9	0.007411812
60	0x3c806e96	0.015677731
61	0x3b88e806	0.00417805
62	0x3c34def5	0.011039485
63	0x3c4f8013	0.012664813
64	0x3c4f75cf	0.012662365
65	0x3c092598	0.008370779
66	0x3c287e3c	0.010284003
67	0x3b882515	0.004154811
68	0x3c12d36c	0.00896154
69	0x3c164bac	0.009173315
70	0x3c7c3e40	0.015395701
71	0xb74d87c8	-1.2250566e-05
72	0x3c5c9fa2	0.013465794
73	0x3ca37521	0.019953312
74	0x3bf04374	0.00733226
75	0xb80a21a2	-3.2933087e-05
76	0x3c0d9884	0.00864232
77	0x3c244b03	0.01002765
78	0x3b493975	0.0030704413
79	0xb7c13685	-2.303278e-05
80	0x3c56445f	0.013077824
81	0x3c4ee1e2	0.012627097
82	0x3bde8d25	0.006791728
83	0x3c68bf4c	0.014205765
84	0x3c0ea2dd	0.008705822
85	0x3ca6ec06	0.020376217
86	0x3b558279	0.0032578988
87	0x3cbd465e	0.023104843
88	0x3c5bcedd	0.013416019
89	0xb84f6f71	-4.9456434e-05
90	0x3bde5d56	0.006786029
91	0x3c27efe7	0.010250068
92	0x3c879fa1	0.01655561
93	0x3c69e395	0.014275451
94	0x3b2f1020	0.0026712492
95	0xb85c477b	-5.251866e-05
96	0x3cda2554	0.026629128
97	0x3c70a6ef	0.014688238
98	0xb9ac6462	-0.00032881188
99	0x3c407706	0.011747127
100	0x3c614b75	0.0137509005
101	0x3c1ea035	0.009681751
102	0x3c6a9268	0.0143171325
103	0x3c32c24b	0.010910581
104	0x3a89e2f3	0.0010519907
105	0x3baec6d9	0.005333763
106	0x3c985dbd	0.018599385
107	0x3c4c4329	0.012467184
108	0x3bc0c85c	0.0058832597
109	0x3c8e1b98	0.017347142
110	0x399d81a6	0.0003004197
111	0x3c74215e	0.0149005335
112	0x3b51e69e	0.0032028328
113	0x3c3cc66d	0.011521918
114	0x3bedf376	0.007261689
115	0x3c1c6433	0.009545374
116	0x3c983bec	0.01858326
117	0x3c33682d	0.01095013
118	0xb9cde62e	-0.00039272144
119	0x3c72129e	0.0147749465
120	0x3c097c76	0.00839149
121	0x3aa01062	0.0012211914
122	0x3c45a1ba	0.012062484
123	0x3c2c3d45	0.010512655
124	0x3bea1f81	0.007144869
125	0x3c73daaa	0.014883677
126	0x3c3f0e0b	0.011661063
127	0x3bffab0a	0.007802372

linear2.weight f4 [10, 128]
0	0xbcd70dae	-0.02625164
1	0x3da22f6a	0.079192
2	0x3d9d1156	0.07669322
3	0xb661218c	-3.354714e-06
4	0x3c578f18	0.013156675
5	0x3d982e1f	0.07430672
6	0xbd233cab	-0.03985278
7	0xbcdb2ae1	-0.026753845
8	0x3e086538	0.13319862
9	0xbbad0be7	-0.00528096
10	0xbcea3a06	-0.02859212
11	0xbd14a360	-0.03628862
12	0x384756b9	4.7526064e-05
13	0x3e193524	0.14961678
14	0xbd04a8ac	-0.03238742
15	0xbce75254	-0.0282375
16	0x3da76a7b	0.081746064
17	0x3da3270c	0.07966432
18	0xbb3417b0	-0.002747994
19	0xbd0aa35a	-0.03384719
20	0xbd22581e	-0.039634816
21	0xbd0f726b	-0.035021227
22	0xbca29b3d	-0.019849414
23	0xbc951494	-0.018198289
24	0xbc604c13	-0.0136900125
25	0xbd52d3d1	-0.051471535
26	0x3de0532c	0.10953364
27	0xbc9992b3	-0.01874671
28	0xbcd9bfe1	-0.026580753
29	0xbc2041be	-0.009781299
30	0xb86d45a5	-5.6570065e-05
31	0xbca398f1	-0.01997039
32	0xbc9cdd20	-0.01914841
33	0x3e24a0fb	0.16077034
34	0x383ee511	4.5512865e-05
35	0x3b11f4d8	0.0022271182
36	0xbcb93c73	-0.022611832
37	0xbcfb4a7d	-0.030675167
38	0x3e2552f1	0.16144921
39	0x3c52175e	0.012822954
40	0xbcbef73b	-0.023311248
41	0x3e051c02	0.12998965
42	0xbc388243	-0.011261526
43	0xbd054fbd	-0.032546747
44	0x3d284eee	0.0410909
45	0xbd239442	-0.03993631
46	0xbc6968f1	-0.014246211
47	0xbc15cef1	-0.009143577
48	0xbcc2af5f	-0.023765264
49	0xbb39bb66	-0.0028340458
50	0xbcc8ae31	-0.024497123
51	0x3aba5a19	0.0014217525
52	0x3dcc226a	0.099675015
53	0x3e177ec7	0.14794455
54	0xbcca4a1c	-0.024693541
55	0xbd187b89	-0.037227187
56	0xbc48d40b	-0.012257586
57	0xbc85914c	-0.016304635
58	0xbd3a6d96	-0.045514666
59	0x3c2e530f	0.01063992
60	0xbcb14bbc	-0.021642558
61	0xbc26e4f6	-0.0101864245
62	0x3d3625ef	0.04446977
63	0xbc9e08cb	-0.019291302
64	0x3cfc3e74	0.030791499
65	0x3d110143	0.035401594
66	0xbbfd70a0	-0.007734373
67	0xbbe904ab	-0.007111152
68	0xbbfef5b0	-0.007780753
69	0xbbbdcf33	-0.0057925223
70	0x3dbc162b	0.09183916
71	0x38bc5e31	8.982083e-05
72	0xbb8f7fe4	-0.0043792594
73	0x3b610bcf	0.0034339314
74	0xbbdd5d04	-0.006755473
75	0x388deff6	6.7681e-05
76	0xbb132cea	-0.002245719
77	0x3d34fe85	0.04418804
78	0xbce1fff1	-0.027587863
79	0x38a13af6	7.6880606e-05
80	0xbc276cce	-0.010218812
81	0xbc37706b	-0.011196236
82	0x3d2c51b4	0.042070106
83	0x3ce1b019	0.02754979
84	0xbc032ac6	-0.008005803
85	0xbd234caf	-0.039868053
86	0xbca81d65	-0.020521829
87	0x3db2d5ad	0.08732162
88	0x3d0f2776	0.034949742
89	0xb74f5d3f	-1.2359872e-05
90	0xbb90ea7c	-0.004422484
91	0x3d7a52fe	0.061114304
92	0xbbd1c1b9	-0.0064012674
93	0x3d300738	0.042975634
94	0x3d8a6a14	0.06758514
95	0x38c5715d	9.4148076e-05
96	0x3d98d4f0	0.074624896
97	0xbcf77446	-0.03020681
98	0x3c97d0cd	0.018532181
99	0xbbcdc861	-0.0062799905
100	0xbceaa859	-0.028644728
101	0x3df729ed	0.120685436
102	0xbd54a00c	-0.051910445
103	0xbcb5dabc	-0.022199027
104	0x3c5457b1	0.01296036
105	0xbc6e9735	-0.014562418
106	0xbbb8a1fa	-0.0056345435
107	0x3e2d3525	0.16914804
108	0xbcc95ab8	-0.02457939
109	0xbc1e41a3	-0.009659204
110	0x3c6bdfb2	0.014396595
111	0xbc0e36df	-0.0086800745
112	0xbd1a2a37	-0.037637915
113	0xbb400477	-0.0029299536
114	0x3b133c01	0.0022466185
115	0xbc086bc0	-0.008326471
116	0x3e058bdb	0.13041632
117	0xbbdfe6ee	-0.006832949
118	0x3c98a0e4	0.018631406
119	0x3e72807f	0.2368183
120	0xbcc6fd26	-0.024290632
121	0x3d317fbf	0.04333472
122	0xbcf8af8e	-0.030357148
123	0xbccf28a7	-0.02528794
124	0xbc3bf640	-0.011472285
125	0x3d250128	0.040284306
126	0x3cf9bb8b	0.030484935
127	0x3dd2614b	0.102724634
128	0xbbd76dc1	-0.006574363
129	0xbcf200a6	-0.029541325
130	0xbb9d59ad	-0.00480195
131	0x380fcf23	3.4286768e-05
132	0xbd045616	-0.03230866
133	0xbb3641de	-0.0027810256
134	0x3d490ae3	0.049082648
135	0x3d4099fe	0.04702186
136	0x3d2c2f1c	0.042037115
137	0x3d93dc59	0.07219762
138	0x3df80ed3	0.121122025
139	0x3dcfbe8b	0.10143765
140	0xb60cb0ad	-2.0964465e-06
141	0xbbf793a0	-0.00755544
142	0xbbc47bdc	-0.0059962105
143	0xbc215a13	-0.0098481355
144	0xbcb834f2	-0.022486184
145	0xbcb7a6ab	-0.02241834
146	0xbcdd3ebd	-0.027007455
147	0xbc830629	-0.015994148
148	0xbd3d428a	-0.046206035
149	0xbd862f1c	-0.06551954
150	0xbc90d355	-0.017678896
151	0xbd2cf1a6	-0.04222264
152	0xbcbb2009	-0.022842424
153	0xbd2cbbde	-0.04217135
154	0xbccee74e	-0.025256779
155	0xbc2cb9c3	-0.010542336
156	0xbd52026f	-0.051271852
157	0xbb03dc90	-0.002012048
158	0x38b85a30	8.7906024e-05
159	0xbced78be	-0.028988238
160	0x3e05dcfe	0.13072583
161	0xbba17230	-0.0049269423
162	0x389d086e	7.4879135e-05
163	0xbb3b3f22	-0.0028571566
164	0x3e0888d1	0.13333441
165	0xbcb17bbd	-0.021665448
166	0xbcc24c2b	-0.02371796
167	0xbca9d2db	-0.020730427
168	0xbcd86d19	-0.02641921
169	0xbccaeb48	-0.024770394
170	0xbc8a828c	-0.016907953
171	0xbcc4455a	-0.02395885
172	0xbd880b7a	-0.06642814
173	0xbcbf7368	-0.02337046
174	0xbd1143f8	-0.03546521
175	0xbc8f7fab	-0.017516932
176	0x3e8715fb	0.26383957
177	0xbb2c816a	-0.0026322254
178	0xbd073bb9	-0.03301594
179	0xbc99202d	-0.0186921
180	0xbd167e24	-0.03674139
181	0xbc6c74af	-0.014432116
182	0xbd4fc7e2	-0.050727732
183	0x3d2be34c	0.041964814
184	0x3e0553b5	0.13020213
185	0x3e567a87	0.20945178
186	0x3e5175be	0.20455071
187	0xba7663c8	-0.0009399024
188	0xbd2cfa92	-0.04223115
189	0xbc062ded	-0.0081896605
190	0xbaca3ab1	-0.0015428868
191	0x3e00083e	0.12503144
192	0xbcb9d4fe	-0.02268457
193	0xbcfeaa17	-0.031086965
194	0x3e4fe96f	0.20303892
195	0xbcff672c	-0.031177126
196	0xbc8ccd6b	-0.017187795
197	0xbc954de1	-0.018225612
198	0x3d49d463	0.049274813
199	0x3784f9f9	1.5852029e-05
200	0x3d0629bb	0.03275464
201	0xbcc049ab	-0.023472628
202	0xbc9402b3	-0.018067693
203	0x382191bd	3.852112e-05
204	0x3d393894	0.045219973
205	0x3db4c33f	0.08826303
206	0x3d65c76f	0.056098398
207	0x37cb621d	2.4245173e-05
208	0x3db37254	0.08762041
209	0xbc326cca	-0.010890195
210	0x3ded5fe7	0.115905575
211	0xbc3f3633	-0.011670637
212	0xbc8716dc	-0.016490392
213	0xbc756d68	-0.014979698
214	0x3d774e9b	0.0603777
215	0x3b2cdcd3	0.0026376739
216	0xbb213aec	-0.002460177
217	0x386e8f8d	5.6877314e-05
218	0xbd2a5ce7	-0.041592505
219	0xbbb2105c	-0.005434079
220	0x3dbb01ab	0.091311775
221	0xbd2c98c2	-0.04213787
222	0xbd1c9f03	-0.038237583
223	0x387330ac	5.7981044e-05
224	0xbcc5d73f	-0.024150489
225	0xbcd84f84	-0.026405104
226	0x3d9106ff	0.070814125
227	0x3dd0ca0a	0.10194786
228	0x3ddc96f5	0.1077098
229	0xbd59e79f	-0.053199407
230	0x3e9c5fc1	0.30541804
231	0x3dbac891	0.09120286
232	0xbd0ee214	-0.034883574
233	0xbc71de67	-0.0147624975
234	0x3cd35433	0.025796985
235	0xbc1b942b	-0.009495775
236	0xbcde3954	-0.027126946
237	0x3e2efde2	0.17089036
238	0xb8b10b0d	-8.442076e-05
239	0xbd0b72c4	-0.034044996
240	0xbc0f4d41	-0.008746446
241	0x3db7dfca	0.08978231
242	0xbc0034b4	-0.007825065
243	0xbbb166f5	-0.0054138848
244	0xbd0a4804	-0.033760086
245	0xbd3a1bdb	-0.04543672
246	0xb8cf2d69	-9.8789875e-05
247	0x3ccea6c2	0.025226
248	0x3e425e9a	0.189814
249	0xbcb9d24b	-0.022683283
250	0x3cd40720	0.025882304
251	0xbcb0f2b3	-0.021600103
252	0xbcbc7dfc	-0.023009293
253	0xbcfaa9a5	-0.030598471
254	0xbca59e11	-0.020216973
255	0xbb5b6deb	-0.0033482264

linear2.bias f4 [10]
0	0xbb451acd	-0.003007579
1	0x3ca2a0bb	0.019852033
2	0x3cbce60d	0.023058916
3	0x3cb7e109	0.022446172
4	0xbbccdab3	-0.006251657
5	0xbc539827	-0.012914694
6	0xbbc8bef7	-0.0061262804
7	0x3c1ef1dd	0.009701219
8	0x3ce4f2cb	0.027947804
9	0xbc945c1e	-0.018110331
