alternative_rnn_optimizer/training_RNN_1layer_final_2/meta_optimizer_0epoch.pth (torch_old, 905 bytes, 3 tensors)

linear1.weight f4 [10, 2]
0	0x3da339ef	0.07970034
1	0xbe188efc	-0.14898294
2	0xbee5c36a	-0.44875652
3	0x3eb1732e	0.34658188
4	0xbef60665	-0.48051754
5	0x3ed0b32b	0.40761694
6	0x3e237360	0.15961981
7	0xbdcc5353	-0.0997683
8	0xbea8da33	-0.32978973
9	0x3edc51b7	0.43031093
10	0xbe725309	-0.23664488
11	0x3f0b6afb	0.54460114
12	0x3f1b719d	0.60720235
13	0x3e2f2e9a	0.17107621
14	0xbf09e3f9	-0.53863484
15	0xbe023112	-0.12714031
16	0xbeb6b1fc	-0.35682666
17	0x3f20bbb1	0.62786394
18	0xbe8c159c	-0.27360237
19	0xbe603ad9	-0.21897449

linear1.bias f4 [10]
0	0xbea4491e	-0.32087034
1	0x3ec1751f	0.3778467
2	0x3ee61d93	0.44944438
3	0x3ed9208a	0.42407638
4	0x3e1ebcdd	0.15501733
5	0xbbeaee0b	-0.00716949
6	0xbe7fa4a3	-0.24965148
7	0x3effcaa2	0.49959284
8	0x3f08591a	0.5326096
9	0x3e9e2d25	0.30893818

linear2.weight f4 [1, 10]
0	0xbb9eb8d4	-0.0048438106
1	0x3b9fbf73	0.0048751174
2	0xbc9d8ddc	-0.019232683
3	0x3c15607f	0.009117245
4	0xba57b4bc	-0.00082285306
5	0xbcfd71fa	-0.030938137
6	0x3bd66cb0	0.0065437183
7	0x3a35c3bd	0.00069337693
8	0x3c12cb41	0.008959592
9	0x3cf5abe6	0.029989194
