alternative_rnn_optimizer/training_RNN_1layer_final_2/meta_optimizer_last.pth (torch_old, 905 bytes, 3 tensors)

linear1.weight f4 [10, 2]
-0.16910623 -0.30837938 -0.0620471 -0.62423253 -0.13977098 -0.41872677 -0.1643192 -0.23683053
0.164035 0.20461711 -0.5374962 -0.85082436 0.7543661 0.36735654 -0.2119398 -0.67613316
-0.5533281 -0.16682181 -0.23884764 -0.30030504
00000000: 2f2a 2dbe e7e3 9dbe 1a25 7ebd b4cd 1fbf
00000010: 2020 0fbe 5b63 d6be 4b43 28be b483 72be
00000020: cbf8 273e 2687 513e 5a99 09bf a0cf 59bf
00000030: 231e 413f 2816 bc3e bf06 59be 1017 2dbf
00000040: e9a6 0dbf 56d3 2abe 7a94 74be 95c1 99be

linear1.bias f4 [10]
-0.3799079 0.55060726 0.28122333 0.4860288 -0.09713954 -0.40923512 -0.61556643 0.54082954
0.53976226 0.04376504
00000000: 4a83 c2be 99f4 0c3f 81fc 8f3e c4d8 f83e
00000010: 18f1 c6bd 4487 d1be c395 1dbf ce73 0a3f
00000020: dc2d 0a3f f842 333d

linear2.weight f4 [1, 10]
-0.28664494 -0.30840987 -0.13868476 0.16182739 -0.17861015 0.19682929 0.25064236 0.08750138
-0.088841766 -0.1082761
00000000: 20c3 92be e6e7 9dbe 6103 0ebe 14b6 253e
00000010: 94e5 36be 9e8d 493e 3254 803e ec33 b33d
00000020: acf2 b5bd dcbf ddbd
