alternative_rnn_optimizer/training_RNN_1layer_final_2/meta_optimizer_200epoch.pth (torch_old, 905 bytes, 3 tensors)

linear1.weight f4 [10, 2]
00000000: df91 9bbd 8b3d a03e d891 27be a2ef 88be
00000010: cdba a1be 5e26 e2bc 9a8b c53d 248e 46bd
00000020: 01f6 e6bd aa27 173f 5ed6 a0be 23e4 4b3d
00000030: 8502 253f cf57 9f3d 4876 99be 4db9 82be
00000040: db06 04be 5489 de3e 7465 d5be c679 703e
-0.07596182 0.31296954 -0.16364229 -0.26745325 -0.3158783 -0.027606186 0.096457675 -0.0484754
-0.1127739 0.590449 -0.3141355 0.049778115 0.6445697 0.0778042 -0.29973054 -0.25531998
-0.1289324 0.43464148 -0.41678965 0.23483953

linear1.bias f4 [10]
00000000: bb3a a1be 3ef6 ca3e 60b1 8c3e c941 e83e
00000010: 187b 813d 9bfa 03bd 77c9 6abe 3a8e 0e3f
00000020: 89d3 1e3f 1dc9 9e3e
-0.3149012 0.39640993 0.27479076 0.4536269 0.063223064 -0.032221418 -0.22928415 0.5568577
0.6204153 0.31012812

linear2.weight f4 [1, 10]
00000000: 6ba7 53be dded 81bd cfc7 b2bd 1bc4 0d3d
00000010: d9c8 d43c af72 97bc 29dd d43d 5762 df3d
00000020: 8491 28be 369e 3bbe
-0.20669334 -0.06344197 -0.08729517 0.03461085 0.025974678 -0.018487303 0.103937455 0.10907429
-0.1646176 -0.18322071
