alternative_rnn_optimizer/training_RNN_1layer_final_2/meta_optimizer_best.pth (torch_old, 901 bytes, 3 tensors)

linear1.weight f4 [10, 2]
00000000: 44ee 1f3e b278 8c3e 3db2 dc3e 7183 093e
00000010: 8757 d03a 8e45 223f 4c8c 883e cc8b 1e3f
00000020: 30da d03b dabb 833e efe7 8ebd 7bd1 12bf
00000030: 31b0 9c3d dd6a c33d 71bf 913e 6c33 55be
00000040: b42b edbe a24a 50be e2a8 00bf efcf 5b3e
0.15618235 0.27435833 0.43104735 0.13429047 0.0015895226 0.6338738 0.26669538 0.61932063
0.006373666 0.25729257 -0.069778316 -0.5735089 0.07650793 0.09541867 0.2846637 -0.20820397
-0.46322405 -0.2034097 -0.50257695 0.21466039

linear1.bias f4 [10]
00000000: bd90 2cbf 994d 75be 8ad5 193f e1c8 a4bd
00000010: 6679 0cbf 45c0 043d de91 14be 4fc9 843d
00000020: e1fd 153f 5843 d6bd
-0.67408353 -0.23955382 0.6009146 -0.08046127 -0.5487274 0.032409925 -0.14508769 0.06483709
0.58590513 -0.104620636

linear2.weight f4 [1, 10]
00000000: 9b40 30bd 5594 c9be 7c0a c4bd 2c10 223d
00000010: 9a9b bcbd 48ef 65be 724f 023e 951a 59bd
00000020: 26e0 4a3e af87 563d
-0.043030363 -0.3937098 -0.09572312 0.039566204 -0.09209366 -0.2245456 0.12725618 -0.053003866
0.19812068 0.05237549
