alternative_rnn_optimizer/training_RNN_1layer_final_2/meta_model_best.pth (torch_old, 102553 bytes, 4 tensors)

linear1.weight f4 [32, 784]
0	0x3caf2cfa	0.021383751
1	0xbac8d700	-0.0015322864
2	0x3d02f261	0.03196943
3	0xbcfbc8fa	-0.030735482
4	0x3c4d8080	0.012542844
5	0x39acc900	0.00032956153
6	0x3c0cd580	0.008595824
7	0xbcaeb55a	-0.02132671
8	0xbbf7ed30	-0.0075661168
9	0x3d04ffdf	0.03247058
10	0xbc892816	-0.016742747
11	0x3cb8095c	0.0224654
12	0xbae39100	-0.0017361939
13	0xbcbbf70c	-0.02294495
14	0xbc19e508	-0.009392984
15	0xbc103ce8	-0.008803584
16	0xbc2ea63c	-0.010659751
17	0xbbfbbdb0	-0.0076825246
18	0x3c20c328	0.009812154
19	0x3d0a4b63	0.0337633
20	0xbc403068	-0.011730291
21	0x3cb5d590	0.022196561
22	0x3c0c5ba0	0.008566767
23	0xbca5a484	-0.020220049
24	0x3cd18838	0.02557765
25	0x3ca0025e	0.019532379
26	0x3cb641fe	0.022248264
27	0x3c97154c	0.018442772
28	0xbc10b890	-0.008833066
29	0x3c8ea580	0.0174129
30	0x3c0ddcac	0.008658569
31	0xb9ee3380	-0.00045433268
32	0xbadf9ae0	-0.0017059706
33	0xbc9b6184	-0.018967398
34	0x3d1c410d	0.038147975
35	0x3c9ea0b0	0.019363731
36	0xbc8d411c	-0.01724296
37	0x3d1317ff	0.035911556
38	0xbcb5f620	-0.022212088
39	0xbcf8c268	-0.030366138
40	0xbb417228	-0.0029517505
41	0x3ca484fc	0.020082943
42	0x3d06ae8b	0.0328813
43	0x3c9bf948	0.019039765
44	0xbc8c5e42	-0.01713479
45	0x3d239477	0.03993651
46	0x3cdccf82	0.026954416
47	0x3c35007c	0.011047479
48	0x3cf09aa8	0.02937062
49	0xbcc1c000	-0.023651123
50	0xbca99ef4	-0.020705678
51	0x3c5302b8	0.012879066
52	0x3d08c723	0.033393037
53	0x3cef702e	0.029228296
54	0x3d1137a3	0.03545345
55	0x3ca8b68a	0.020594854
56	0x3c9ee6c4	0.019397147
57	0x3c1af9dc	0.009458985
58	0x3c4dd370	0.012562618
59	0xbc7c952c	-0.015416425
60	0x3d1534df	0.036427375
61	0x3c06a860	0.008218855
62	0xbcc82bcc	-0.024434946
63	0x3ae76620	0.0017654337
64	0x3c1b6fc4	0.009487096
65	0xb9166f00	-0.00014346465
66	0x3c05f438	0.008175902
67	0xbc822dd3	-0.015890991
68	0xbcec0e0e	-0.028815296
69	0xbcce731c	-0.025201373
70	0x3c02c3e4	0.007981274
71	0xbd2365f2	-0.039892145
72	0xbcd82c5a	-0.026388336
73	0x3ca8190a	0.020519752
74	0x3caf2b5c	0.02138298
75	0xbc8ae7da	-0.016956259
76	0x3c0b1770	0.008489475
77	0xbc3a5ae4	-0.011374209
78	0x3b66ced0	0.0035218485
79	0x3c9839ec	0.018582307
80	0x3cb0b5aa	0.021571
81	0x3d02db37	0.03194734
82	0xbcfd168c	-0.03089454
83	0xbbb689f8	-0.0055706464
84	0xbbff86b8	-0.007798042
85	0x3cf1778a	0.029475946
86	0x3c9a5cd4	0.018843092
87	0xba844500	-0.0010091364
88	0x3cab49e8	0.020909265
89	0x3c98c64c	0.018649243
90	0xbc49a13c	-0.012306508
91	0x3adab750	0.0016686711
92	0x3ca5cc56	0.020239037
93	0x3c4e6d3c	0.012599286
94	0xbcf4f4c8	-0.029901877
95	0xbd23a16d	-0.03994887
96	0xbd2da20f	-0.04239088
97	0xbd1d3e3c	-0.03838943
98	0xbd71a59e	-0.058995835
99	0xbc2ca46c	-0.010537248
100	0x3cc3dc86	0.023908865
101	0x3b0088f0	0.001961287
102	0xbd077c7d	-0.033077706
103	0xbd12b1e9	-0.0358142
104	0x3ced01d2	0.028931532
105	0xba471640	-0.0007594563
106	0xbcd9e832	-0.026599977
107	0xbcfcd6d0	-0.03086415
108	0xbcf59b58	-0.0299813
109	0xba1966e0	-0.00058518164
110	0xbcc15ef8	-0.023604855
111	0xbc461808	-0.01209069
112	0x3aef2be0	0.0018247329
113	0x3b96abd0	0.0045981184
114	0x3cf29f76	0.029617053
115	0x3d1b06a3	0.037848126
116	0x3d07770d	0.03307252
117	0x3c3359cc	0.010946702
118	0x3c40ca84	0.0117670335
119	0xbd4647a9	-0.048408184
120	0x3c5f1568	0.0136159435
121	0xbd8df0c6	-0.069306895
122	0xbddf7b67	-0.10912209
123	0xbd697a83	-0.057001602
124	0xbe008dd5	-0.12554105
125	0xbdc4e91c	-0.096147746
126	0xbd0274db	-0.031849723
127	0xbd9923f6	-0.07477562
128	0xbd559fa8	-0.052154213
129	0xbd824816	-0.063614056
130	0xbcdac698	-0.026706025
131	0x3d351a32	0.044214435
132	0xbc9e0068	-0.019287303
133	0x3c0d2670	0.008615121
134	0xbceff7d2	-0.029292975
135	0x3c485174	0.012226451
136	0xbd182014	-0.037139967
137	0xbce57438	-0.028009519
138	0xbc87f66e	-0.016596999
139	0xbc9b41fa	-0.018952359
140	0x3c637d3c	0.013884839
141	0x3cff6438	0.031175718
142	0xbc766b44	-0.015040223
143	0xbceeb3ec	-0.029138528
144	0x3b250e40	0.0025185496
145	0xbc09c478	-0.008408658
146	0xbcda5726	-0.026652884
147	0xbd2af9d3	-0.041742157
148	0xbd30e720	-0.043189168
149	0xbce809e2	-0.028325025
150	0xbdcfcc02	-0.10146333
151	0xbe07444e	-0.1320965
152	0xbe1d7a7a	-0.15378752
153	0xbdefeef0	-0.117154956
154	0xbd112c3b	-0.035442572
155	0xbd9f6b86	-0.0778418
156	0xbda44efc	-0.080228776
157	0xbda7bcf5	-0.081903376
158	0xbc60c074	-0.013717759
159	0xbbab75f0	-0.005232565
160	0xbdb2c48c	-0.087288946
161	0xbd2213f4	-0.03956981
162	0xbd532652	-0.051550217
163	0xbcae094a	-0.021244664
164	0xbb00b520	-0.001963921
165	0x3d16d8cf	0.03682786
166	0xbca4c09c	-0.020111375
167	0xbc5f68d0	-0.013635829
168	0x3ce6dc6a	0.028181273
169	0xbc8f8634	-0.017520048
170	0x3d073f68	0.033019453
171	0xbbbd3ae8	-0.0057748444
172	0xbd0fd836	-0.035118304
173	0xbd550ff4	-0.052017167
174	0xbd9a1f97	-0.075255565
175	0xbc6fdc18	-0.014639877
176	0xbd5a16db	-0.053244453
177	0xbd4530c6	-0.048142217
178	0xbd844cf6	-0.06459992
179	0xbdc0b27b	-0.094090424
180	0xbd9fc04b	-0.07800349
181	0xbdb7b475	-0.08969966
182	0xbdcd5b68	-0.100272
183	0xbd8b9f25	-0.06817464
184	0xbd29efdc	-0.041488513
185	0xbde0f426	-0.109840676
186	0xbdb41527	-0.08793097
187	0xbcdfe058	-0.027328655
188	0xbcc63590	-0.024195462
189	0xbd179db9	-0.03701565
190	0xbd4314dd	-0.04762732
191	0xbc10e15c	-0.008842792
192	0x3c9ccdf6	0.019141179
193	0xbc39f468	-0.011349775
194	0xbcd7d2ca	-0.02634563
195	0x3c31c288	0.0108496025
196	0x3a8b0620	0.0010606684
197	0x3ca51d0e	0.020155456
198	0x3c66fb88	0.014098056
199	0x3c445ef8	0.011985533
200	0x3d5a23e0	0.05325687
201	0x3c6db374	0.014508117
202	0x3cd1523c	0.025551908
203	0xbd7b125a	-0.0612968
204	0x3d98c3b7	0.07459205
205	0x3de21bf6	0.110404894
206	0x3d3002af	0.04297131
207	0xbd30402c	-0.04302995
208	0xbd4e6790	-0.050391734
209	0xbd8c7c51	-0.06859649
210	0xbc763118	-0.015026353
211	0xbd05e801	-0.03269196
212	0xbd4a1900	-0.049340248
213	0xbd9b870d	-0.07594118
214	0xbd593642	-0.05303026
215	0xbc82ece2	-0.015982095
216	0x3ca6661c	0.020312361
217	0xbcca6d84	-0.024710424
218	0xbd92de34	-0.07171288
219	0xbdf971a7	-0.121798806
220	0xbdcfb76c	-0.10142407
221	0xbd0fc6e5	-0.03510179
222	0x3ce185c2	0.027529601
223	0xbcef64c6	-0.029222857
224	0x3c98ce98	0.0186532
225	0x3c950b4a	0.01819386
226	0x3c3c3638	0.011487536
227	0x3d20a8b3	0.039223384
228	0x3d687b40	0.056758165
229	0x3d973ef7	0.073850565
230	0x3d32a0da	0.04361043
231	0x3df841b9	0.121219106
232	0x3e22e2a0	0.15906763
233	0x3c9b5ace	0.018964197
234	0xbc14ef70	-0.0090902895
235	0x3b2357b0	0.0024924092
236	0x3cc2c35e	0.023774799
237	0x3b865eb0	0.004100643
238	0xbd5b8a2a	-0.05359856
239	0xbb57d7a0	-0.003293492
240	0x3b6a8710	0.003578607
241	0xb9d88480	-0.0004129745
242	0x3d9fc6bc	0.078015774
243	0x3d74184c	0.059593484
244	0x3cdd0dd2	0.02698413
245	0xbd52ca38	-0.051462382
246	0xbd5d359d	-0.054006208
247	0xbdb3558f	-0.087565534
248	0xbd533e98	-0.051573366
249	0xbbd7cc30	-0.0065856203
250	0x3bb22e7c	0.0054376703
251	0xbc34c888	-0.0110341385
252	0x3ce458fa	0.027874459
253	0xbc43275c	-0.0119112395
254	0x3ca76a9a	0.020436574
255	0x3d05aa7b	0.032633286

linear1.bias f4 [32]
0	0xbc471e30	-0.012153193
1	0xbc874ee4	-0.01651711
2	0xbcaa7756	-0.020808857
3	0xbd615bc7	-0.055019166
4	0x3c78cf30	0.015186116
5	0xbc9ad5fa	-0.01890086
6	0x3c498ca8	0.0123016015
7	0x3c563d84	0.01307619
8	0x3cf6a0f0	0.030106038
9	0x3c9e6e64	0.019339748
10	0xbc52878c	-0.0128497
11	0x3d1054e0	0.035237193
12	0xbaef0020	-0.001823429
13	0x3cb061ee	0.021531072
14	0xbd1a5263	-0.037676226
15	0xbcbef6fc	-0.02331113
16	0xbd04f772	-0.032462545
17	0x3c75d184	0.015003566
18	0x3b8a89e8	0.0042278655
19	0xbdc451d2	-0.095859185
20	0xbcbc9014	-0.02301792
21	0x3d05bb55	0.032649357
22	0xbb5170a0	-0.0031958
23	0xbcb53e80	-0.022124529
24	0xbd3a6991	-0.045510832
25	0xbd0b8356	-0.0340608
26	0x3c482c90	0.012217656
27	0xbcd8864a	-0.026431222
28	0xbd1d9148	-0.03846863
29	0xbd4de058	-0.05026278
30	0xbc4b2950	-0.012399986
31	0x3c5b59d8	0.01338812

linear2.weight f4 [10, 32]
0	0xbe63a37c	-0.22230333
1	0xbe596d5a	-0.2123312
2	0x3da0dacf	0.078542344
3	0x3e324704	0.17409903
4	0xbd7e0f89	-0.062026534
5	0xbc3f8ad8	-0.011690818
6	0x3d30afbc	0.043136343
7	0x3d861208	0.06546408
8	0x3bf2fdc0	0.0074155033
9	0xbda52c2c	-0.08065066
10	0xbe8ff44a	-0.28116065
11	0xbe692e0e	-0.22771475
12	0x3e3363c8	0.17518532
13	0x3b892848	0.00418571
14	0x3d32043e	0.043461077
15	0xbe398923	-0.1811872
16	0xbe9cac2b	-0.30600104
17	0x3e2f6406	0.17128
18	0xbe1ac82d	-0.15115424
19	0x3e1fd139	0.15607156
20	0x3d56f9d6	0.052484356
21	0xbe81c3be	-0.25344652
22	0xbee21474	-0.4415623
23	0x3e0833cb	0.13301007
24	0xbe939f84	-0.28832638
25	0x3dd879f0	0.10570133
26	0x3ddfe5ac	0.10932478
27	0x3e498e31	0.19683148
28	0xbe51cfe3	-0.20489459
29	0xbe81ace8	-0.2532723
30	0x3dd3f195	0.103488125
31	0xbe27b8c0	-0.1637907
32	0x3e2bbfc0	0.16772366
33	0x3e98a4a6	0.29813117
34	0xbe8aff13	-0.2714773
35	0xbe9aa462	-0.3020354
36	0x3e4e66bb	0.20156376
37	0xbe025dd3	-0.12731104
38	0x398c0880	0.00026709214
39	0xbcbcf9f0	-0.023068398
40	0xbe1f21f7	-0.155403
41	0xbd870f3a	-0.06594701
42	0xbe79dd36	-0.24400792
43	0x3dd8827c	0.10571763
44	0xbdd68a40	-0.10475588
45	0xbae09560	-0.0017134361
46	0x3ca94c08	0.020666137
47	0xbebc001f	-0.36718842
48	0x3e2a3d8b	0.1662504
49	0xbe2a2af8	-0.16617954
50	0x3e823686	0.25432223
51	0x3c87b364	0.016565032
52	0xbe384f0e	-0.17998907
53	0x3d85b9bc	0.06529567
54	0xbddc439d	-0.10755084
55	0x3d84c598	0.064830005
56	0xbdce0d62	-0.10061146
57	0x3e197df1	0.14989449
58	0xbe3f2493	-0.18666296
59	0xbe6e4ae9	-0.23270763
60	0xbe4225f7	-0.18959795
61	0x3dbd53e6	0.09244518
62	0x3dcd9960	0.100390196
63	0xbe21d8db	-0.1580538
64	0xbe9056f9	-0.28191355
65	0xbe81897a	-0.253002
66	0xbe7ed8b4	-0.24887353
67	0x3dc7b34d	0.09750996
68	0xbeb2b24b	-0.34901652
69	0xbe10da84	-0.14145857
70	0x3e5a03b4	0.21290475
71	0x3d6a8f5c	0.057265624
72	0xbca511ea	-0.020150144
73	0xbd8ebf3a	-0.06970067
74	0x3e102013	0.14074735
75	0x3e1719ee	0.14755985
76	0xbdd7b618	-0.105327785
77	0x3c86018e	0.016358163
78	0x3d7ac312	0.06122119
79	0xbe9b8a19	-0.30378798
80	0x3c9f4c58	0.019445583
81	0x3e167676	0.14693627
82	0xbea73367	-0.32656404
83	0x3dbf7583	0.093485855
84	0xbe53c519	-0.20680656
85	0x3def2caf	0.116784446
86	0xbe09b41a	-0.1344761
87	0xbdf4cf52	-0.11953606
88	0xbe8b02b9	-0.27150515
89	0x3e63d0bf	0.22247599
90	0xbe5cc917	-0.21561085
91	0xbe31c386	-0.17359743
92	0xbe3a92e8	-0.18220103
93	0xbe466eb3	-0.19378166
94	0x3decf42c	0.115700096
95	0x3e0fac9f	0.14030693
96	0xbda784a1	-0.08179594
97	0xbe3e2e09	-0.18572249
98	0x3d4f5276	0.05061575
99	0x3e05920a	0.1304399
100	0xbeb5c68f	-0.3550305
101	0xbbca94f8	-0.0061823092
102	0xbe480691	-0.19533755
103	0x3e1bf7b2	0.15231207
104	0xbddc40f6	-0.10754578
105	0xbdb4e261	-0.08832241
106	0xbe4c19c8	-0.1993171
107	0xbe316993	-0.1732543
108	0xbd15fc6b	-0.036617678
109	0x3e049a1c	0.12949413
110	0xbd1d6872	-0.038429685
111	0xbe2c3726	-0.16817912
112	0x3e6111b8	0.21979415
113	0x3de4278f	0.11140358
114	0x3e035534	0.12825471
115	0xbdcab708	-0.09898192
116	0x3d803fc4	0.06262162
117	0x3e88d3f6	0.26724213
118	0x3e1cd594	0.15315849
119	0x3ddd54b8	0.108071744
120	0xbe9bc45a	-0.30423242
121	0xbdcac633	-0.09901085
122	0x3d640941	0.055672888
123	0xbe43f43d	-0.19136138
124	0x3e64cbee	0.22343418
125	0xbe428ac8	-0.18998253
126	0x3dcbab65	0.099448
127	0xbe3a4dd1	-0.18193747
128	0x3d890c85	0.06691841
129	0xbe71546c	-0.2356736
130	0x3e07d942	0.13266471
131	0xbc2cc1d8	-0.010544263
132	0xbe6ad017	-0.22930942
133	0x3e1c7bf8	0.15281665
134	0x3da7dbb0	0.08196199
135	0xbe47d954	-0.19516498
136	0xbe4675c9	-0.19380869
137	0x3dc3921e	0.09549354
138	0x3e63dd20	0.22252321
139	0x3c1648ac	0.0091726
140	0xbdedffda	-0.116210654
141	0xbe2e8c32	-0.17045668
142	0xbe3e38f5	-0.18576415
143	0x3da14c6f	0.07875907
144	0xbe89c72c	-0.2690977
145	0xbdb8dbca	-0.090262964
146	0xbdcf33b0	-0.101172805
147	0xbe2857a9	-0.1643969
148	0xbd87233e	-0.06598519
149	0xbe1ecb09	-0.1550714
150	0x3e26e714	0.16299087
151	0x3d8a8d8a	0.06765278
152	0x3dcd9b66	0.100394055
153	0x3df8528c	0.121251196
154	0x3dc362d7	0.095403366
155	0x3d495c62	0.04916037
156	0xbdb2a7e9	-0.087234326
157	0xbe581ac0	-0.21103954
158	0xbe40bcf0	-0.18822074
159	0x3d2e288d	0.04251914
160	0xbe5ff764	-0.21871716
161	0xbe3988a4	-0.1811853
162	0x3c09c9bc	0.008409914
163	0xbc1e5680	-0.009664178
164	0x3e2af98e	0.1669676
165	0x3e16c044	0.14721781
166	0x3cafaafa	0.021443833
167	0x3e02ef7c	0.12786669
168	0xbe22c418	-0.15895116
169	0x3d518b48	0.05115822
170	0xbe45574b	-0.19271581
171	0x3dd45623	0.10367992
172	0xbdc0874c	-0.09400806
173	0x3d5a4920	0.053292394
174	0xbe96c297	-0.29445335
175	0xbead6687	-0.33867285
176	0xbdd3faae	-0.10350548
177	0xbe448e43	-0.19194894
178	0xbe99ddf5	-0.30052152
179	0xbe67667a	-0.22597685
180	0x3c8959b4	0.016766407
181	0x3a892ac0	0.0010465011
182	0xbe352fc0	-0.17693996
183	0x3e743718	0.23849142
184	0x3da286a9	0.07935841
185	0xbe67661c	-0.22597545
186	0x3d0e700f	0.034774836
187	0x3ddf6d8c	0.10909566
188	0x3e4a4e99	0.19756545
189	0x3d8115bc	0.06302974
190	0x3e072b5c	0.13200134
191	0xbe439bcd	-0.19102402
192	0xbe978f01	-0.2960129
193	0xbe7a50b8	-0.24444854
194	0xbec7d642	-0.39030653
195	0x3e044368	0.12916338
196	0xbe1a9c34	-0.1509865
197	0x3da4c032	0.08044471
198	0xbda72404	-0.08161166
199	0xbe4482b0	-0.19190478
200	0xbe19d812	-0.1502383
201	0xbdeabf02	-0.11462213
202	0xbda678f4	-0.08128539
203	0x3e556334	0.20838624
204	0xbe44d5d3	-0.19222192
205	0x3dd45690	0.10368073
206	0x3e598f24	0.2124601
207	0xbc47d724	-0.01219729
208	0xbe240c94	-0.16020423
209	0xbe62ab78	-0.22135723
210	0xbe0620dc	-0.13098472
211	0x3d9a22aa	0.07526143
212	0xbe9df20d	-0.30848733
213	0xbe964aef	-0.29354045
214	0xbd6dd898	-0.058067888
215	0x3e17417a	0.14771071
216	0x3d55b420	0.052173734
217	0x3d986e24	0.07442883
218	0x3e652891	0.22378756
219	0x3dcb1163	0.09915426
220	0xbe51f31a	-0.20502892
221	0xbe780188	-0.24219334
222	0x3e00ed89	0.12590612
223	0xbc176d28	-0.0092423335
224	0x3e9926c0	0.29912376
225	0x3cfd63f0	0.030931443
226	0x3e0c2026	0.13684139
227	0xbdda0e60	-0.10647273
228	0xbe145cc5	-0.14488514
229	0xbe0edb6e	-0.13950893
230	0x3dd7377e	0.10508631
231	0xbe180c9e	-0.14848563
232	0xbdb30b17	-0.087423496
233	0xbd7a5f9f	-0.061126348
234	0xbddc8056	-0.10766666
235	0xbd6ac592	-0.057317324
236	0xbdc92b2f	-0.0982269
237	0xbdd9595f	-0.10612749
238	0x3e5e65dd	0.21718545
239	0x3d74d303	0.05977155
240	0x3d9f02a9	0.07764179
241	0xbdc502bc	-0.09619662
242	0xbeab0fb4	-0.33410418
243	0x3e15d03d	0.14630218
244	0xbc9d1598	-0.019175336
245	0xbb50b000	-0.0031843185
246	0xbe1931fc	-0.14960474
247	0x3af53e20	0.0018710531
248	0x3e849260	0.25892925
249	0xbe790743	-0.24319176
250	0xbe6f918e	-0.23395368
251	0xbdf1f5ef	-0.11814486
252	0x3d5be81e	0.05368816
253	0xbea29551	-0.31754544
254	0xbe0d93dc	-0.13825935
255	0x3be490e0	0.0069752783

linear2.bias f4 [10]
0	0xbe3cbf05	-0.18432243
1	0x3d938da2	0.07204749
2	0xbd8266d6	-0.06367271
3	0xbdadf425	-0.084938325
4	0xbda6aa3e	-0.0813794
5	0xbe2232c2	-0.15839675
6	0xbdbf7ee4	-0.09350374
7	0xbc6ffb10	-0.01464726
8	0x3b3e7b70	0.0029065274
9	0xbe1bab2a	-0.15202013
