alternative_rnn_optimizer/training_RNN_1layer_final_2/meta_optimizer_300epoch.pth (torch_old, 905 bytes, 3 tensors)

linear1.weight f4 [10, 2]
000000 89 84 58 be d9 80 09 3e 64 29 41 be 76 3b f0 be
       -0.21144308 0.13428058 -0.18863446 -0.46920365
000010 91 86 4b be 26 80 36 be 86 20 18 bd a3 24 62 bd
       -0.19875552 -0.17822322 -0.03714039 -0.05521072
000020 e5 cd c8 3d d4 9a 09 3f 97 32 e8 be a4 d5 57 be
       0.09804896 0.53751874 -0.45351097 -0.21077591
000030 6c 69 34 3f a4 ce 84 3d 06 c6 15 bf ff 2f dd be
       0.7047336 0.06484726 -0.58505285 -0.4320068
000040 82 65 e7 be 63 93 bd 3e 4c 84 9f be 19 f6 0c 3e
       -0.45194632 0.3702651 -0.31155622 0.13765754

linear1.bias f4 [10]
000000 63 07 b0 be 50 af f4 3e a1 a9 a1 3e c7 43 d0 3e
       -0.34380636 0.47790003 0.3157473 0.4067671
000010 cb 33 06 be 26 63 ac bd 8f 27 7e be 8d 72 b9 3e
       -0.13105695 -0.084173486 -0.24819778 0.36220208
000020 97 64 31 3f d0 5a 90 3e
       0.6929411 0.28194284

linear2.weight f4 [1, 10]
000000 f5 b3 92 be ce 04 b8 3c 48 bb a1 bd a0 bf 2f 3d
       -0.2865292 0.022463229 -0.07897049 0.042907357
000010 c7 1c 2f bd b4 2e 34 3e 57 9a d1 3d 41 4d fd 3d
       -0.042752054 0.17595941 0.10234516 0.12368251
000020 93 ad 94 be b0 05 1b be
       -0.29038677 -0.15138888
